notebooks/checkpoints/final_regressor_checkpoint_2.pth (torch, 194105 bytes, 24 tensors)

back.0.weight f4 [128, 32]
-0.11191666 0.26142448 0.35495985 0.3747321 -0.32843277 -0.017394336 0.0383837 -0.16894773
-0.20183639 0.05440053 -0.041012928 -0.34774417 -0.13297713 0.040339768 0.1299954 -0.13158165
0.061735474 -0.0447313 -0.15478526 -0.1208912 -0.07820793 -0.072123796 -0.1187135 0.16046186
0.42440048 -0.2511122 -0.092999846 -1.0734409 -0.24399176 -0.024431659 0.36871943 0.28956807
0.0049482593 0.2751746 -0.3212385 0.6885476 0.34577015 0.0030283544 0.13468897 0.31687906
-0.095269665 -0.4604485 0.061765663 -0.7131709 -0.09674717 -0.41566333 0.0060005137 -0.10191553
0.43182856 0.22808991 -0.06103566 -0.20749858 0.34570262 -0.13786602 0.09942954 0.18815407
0.008885068 -0.027925432 0.5513756 0.25380564 0.07151687 -0.039197877 -0.12640561 -0.075115286
0.092744224 -0.12474713 -1.113749 -0.07629188 -0.047887288 -0.50734574 -0.042555355 0.09366279
0.1300605 0.7738418 -0.50349087 0.5801545 -0.3898362 0.10499669 -0.05725226 -0.6331048
0.7743019 1.1510329 -0.46538916 0.20552495 1.2826769 -0.46286944 0.035598602 0.15647435
-0.44995457 -0.45078942 0.04745827 0.08192075 0.74856377 0.41974175 -1.7307065 -0.7178711
-0.0019815445 -0.1625601 0.26069453 -0.9239718 0.13930972 0.36501548 -0.006388366 -0.16377212
0.3941561 -0.9851851 -0.01680886 0.31851768 0.1520085 0.3947672 0.021446366 0.14876282
-0.06491841 0.2641236 -0.4943186 0.12025818 -1.2134398 -0.12278093 0.3715637 -0.41579947
-0.23296282 0.3289042 0.17294152 -0.068878174 -0.3642151 -0.8649179 0.7673844 -0.15298261
-0.16090937 -0.012978226 0.023500033 0.66369134 0.099506415 0.03706293 -0.15903504 0.15898064
0.16088334 0.5794856 -0.29571643 0.16202131 0.17613469 0.5359494 -0.013523307 0.043695785
-0.10066732 0.05430644 1.0046976 -0.081126586 0.06636358 0.024478083 -0.044249337 -0.2620156
0.46920672 -0.20021334 0.13134602 -0.21537015 -0.61608064 0.3403976 0.8366998 -0.03659902
0.21368548 -0.37332973 -0.2982153 -0.9097112 0.33045495 0.8904589 0.028456515 0.7579241
0.57968664 -1.0798428 0.31494284 1.536245 0.022400413 0.5757082 0.076657526 -0.055432804
0.8302644 1.2279508 -0.9711603 -0.25146443 -0.3003375 -0.09004868 0.1645326 -0.7363262
-0.075013526 0.09345379 0.79304165 -0.04274673 0.844641 -0.8046169 0.6761034 -0.52381325
0.07248637 0.29630113 0.22066471 -0.42651308 -0.26325914 -0.3440867 -0.2967587 -0.5360405
0.063107304 -0.062809475 0.14141418 -0.05362349 -0.16833737 -0.054397285 -0.025239628 0.055487458
-0.6977038 -1.6215389 -0.2652558 0.052725554 -0.65346 -0.52098215 -0.32573417 0.0025605296
0.5613559 0.2345689 0.07562002 -0.18710822 -0.29054064 0.043826472 -0.12991905 0.4122327
-0.11734971 0.0662182 -0.22431152 0.8524124 -0.0392076 -0.3066981 -0.07706433 -0.35311422
-0.03162055 0.67838025 -0.21534301 -0.9714872 0.08920128 -0.40577465 -0.022149678 0.19133793
-0.4859116 -0.5466576 0.35477796 0.0047328686 0.5189541 0.11987841 -0.05526178 0.49709207
-0.09610531 0.038630884 -0.27957684 -0.23922633 -1.0176662 0.75152844 -0.605949 -0.1662992
00000000: 9034 e5bd 6ed9 853e 4cbd b53e e3dc bf3e
00000010: 5728 a8be 917e 8ebc 3a38 1d3d a200 2dbe
00000020: 33ae 4ebe 17d3 5e3d 2cfd 27bd 860b b2be
00000030: 282b 08be 503b 253d 841d 053e 57bd 06be
00000040: 56de 7c3d 2b38 37bd 0780 1ebe ce95 f7bd
00000050: 7b2b a0bd a4b5 93bd 1020 f3bd 1d50 243e
00000060: 054b d93e c791 80be b476 bebd 8366 89bf
00000070: fad8 79be e724 c8bc cbc8 bc3e 4442 943e
00000080: 0225 a23b afe3 8c3e 5f79 a4be a844 303f
00000090: c908 b13e 5b77 463b e8eb 093e f93d a23e
000000a0: be1c c3bd e8bf ebbe fefd 7c3d 5e92 36bf
000000b0: 6123 c6bd d3d1 d4be f59f c43b 17b9 d0bd
000000c0: a218 dd3e 6790 693e 8700 7abd 827a 54be
000000d0: efff b03e c02c 0dbe b7a1 cb3d 76ab 403e
000000e0: ad92 113c e0c3 e4bc f426 0d3f d0f2 813e
000000f0: 7077 923d f48d 20bd 7970 01be 0bd6 99bd
00000100: aff0 bd3d 6c7b ffbd 548f 8ebf eb3e 9cbd
00000110: 7625 44bd 69e1 01bf 864e 2ebd 47d2 bf3d
00000120: 942e 053e 7f1a 463f c7e4 00bf 0185 143f
00000130: 9c98 c7be 8108 d73d 5981 6abd 2813 22bf
00000140: a638 463f 0c55 933f 7d47 eebe 2275 523e
00000150: c22e a43f 39fd ecbe d7cf 113d d03a 203e
00000160: 7260 e6be dfcd e6be 9a63 423d 11c6 a73d
00000170: e0a1 3f3f 64e8 d63e ca87 ddbf 67c6 37bf
00000180: cddc 01bb 2876 26be c179 853e 6a89 6cbf
00000190: 35a7 0e3e 4fe3 ba3e 8055 d1bb e1b3 27be
000001a0: d4ce c93e 1735 7cbf bcb2 89bc c014 a33e
000001b0: 1ea8 1b3e ed1e ca3e 4ab0 af3c 4855 183e
000001c0: f1f3 84bd 353b 873e 5417 fdbe ec49 f63d
000001d0: ff51 9bbf 9174 fbbd 993d be3e abe3 d4be
000001e0: ce8d 6ebe 2266 a83e 9517 313e 0010 8dbd
000001f0: 677a babe 426b 5dbf 4e73 443f 79a7 1cbe
00000200: 6dc5 24be a0a2 54bc 2483 c03c ade7 293f
00000210: 05ca cb3d 4dcf 173d 15da 22be d2cb 223e
00000220: 9abe 243e 2b59 143f 2568 97be eae8 253e
00000230: a75c 343e fb33 093f dc90 5dbc 5afa 323d
00000240: ab2a cebd 6e70 5e3d ee99 803f b225 a6bd
00000250: a1e9 873d 4386 c83c cb3e 35bd e926 86be
00000260: dd3b f03e ba04 4dbe 927f 063e fe89 5cbe
00000270: 76b7 1dbf 9848 ae3e f531 563f dbe8 15bd
00000280: 5ed0 5a3e 1325 bfbe adaf 98be d5e2 68bf
00000290: 6431 a93e 1df5 633f a31d e93c 5007 423f
000002a0: 5866 143f 4a38 8abf 3040 a13e ada3 c43f
000002b0: 1281 b73c 9d61 133f 9ffe 9c3d 820d 63bd
000002c0: 358c 543f 7e2d 9d3f f69d 78bf f2bf 80be
000002d0: d6c5 99be 716b b8bd 3c7b 283e e07f 3cbf
000002e0: b1a0 99bd b364 bf3d c704 4b3f 3217 2fbd
000002f0: 643a 583f 60fb 4dbf 1d15 2d3f a018 06bf
00000300: bc73 943d c8b4 973e eef5 613e ec5f dabe
00000310: e7c9 86be 222c b0be c2f0 97be f339 09bf
00000320: 673e 813d 41a2 80bd e1ce 103e 4ea4 5bbd
00000330: a260 2cbe b0cf 5ebd 56c3 cebc d146 633d
00000340: b79c 32bf 968e cfbf 9ccf 87be c0f6 573d
00000350: 2849 27bf 165f 05bf a1c6 a6be 8fce 273b
00000360: 05b5 0f3f d432 703e abde 9a3d 4c99 3fbe
00000370: bec1 94be 6383 333d 8009 05be 2a10 d33e
00000380: 0b55 f0bd 689d 873d ebb1 65be b337 5a3f
00000390: 2698 20bd 8907 9dbe e7d3 9dbd 63cb b4be
000003a0: 8d84 01bd 54aa 2d3f e182 5cbe 63b3 78bf
000003b0: 29af b63d b2c1 cfbe 3e73 b5bc 17ee 433e
000003c0: 68c9 f8be c1f1 0bbf 75a5 b53e 2e16 9b3b
000003d0: 2dda 043f d082 f53d 2d5a 62bd da82 fe3e
000003e0: dcd2 c4bd 6b3b 1e3d b224 8fbe bff7 74be
000003f0: e342 82bf 2b64 403f 791f 1bbf 564a 2abe

back.0.bias f4 [128]
-0.094617836 -0.2717949 0.015504985 0.04719485 -0.23248613 0.10420197 -0.18094628 -0.061792742
0.13496503 -0.04796335 -0.0021657692 0.068890825 -0.1402866 -0.07231849 -0.09861247 -0.12607546
-0.029272543 -0.22336611 -0.2416894 -0.17947336 -0.15990447 -0.004858382 0.027605304 0.055284377
-0.13824818 -0.25793055 0.016117744 -0.10893455 -0.08455841 0.017958833 -0.11528652 -0.10782864
-0.27581158 -0.01754729 0.06907667 -0.0028913761 -0.217093 -0.081400685 -0.02110349 0.06560058
-0.15059036 -0.32588622 -0.039443232 -0.051765326 0.0973556 -0.27317107 -0.16658708 -0.079356305
-0.012798188 -0.3590545 0.113056794 -0.022705313 -0.04705131 0.048601277 -0.091968566 -0.115923576
-0.10135283 -0.3243679 -0.01517475 0.1391527 -0.23658773 -0.07693939 -0.18093626 0.111634925
0.064943165 -0.27576736 -0.21992745 -0.20078178 -0.02470749 0.0058095837 -0.06666148 -0.01490939
-0.15551843 -0.19750376 0.046377677 0.14938113 -0.10103051 0.0666344 0.2101917 -0.10347322
-0.15057087 -0.21328811 0.112412415 0.080954514 -0.21527244 0.060014993 -0.27580225 -0.13103147
-0.09228367 -0.31155905 -0.024632774 -0.2193815 0.049641 -0.12477364 0.0418804 0.09438786
-0.16869687 0.008239485 0.008513315 -0.06684376 -0.06527859 -0.086162716 -0.35037607 -0.15178515
-0.35139924 -0.021545889 0.017805154 -0.21375625 -0.0746318 -0.03574789 0.025451954 -0.1955607
0.023500564 -0.041446693 -0.17307974 -0.16372426 -0.16391559 -0.09686494 -0.15646406 -0.022088302
-0.024863962 0.10751206 -0.18713345 -0.10167129 -0.0034586359 -0.019472046 0.0143264085 -0.06452798
00000000: ffc6 c1bd b328 8bbe 9f08 7e3c 634f 413d
00000010: d810 6ebe d867 d53d fb49 39be 631a 7dbd
00000020: 4634 0a3e 3875 44bd 94ef 0dbb a216 8d3d
00000030: 4aa7 0fbe b71b 94bd 56f5 c9bd ed19 01be
00000040: f9cc efbc 16ba 64be 6d7d 77be ddc7 37be
00000050: ffbd 23be 1033 9fbb 8524 e23c df71 623d
00000060: ee90 0dbe 790f 84be 5c09 843c 1419 dfbd
00000070: f62c adbd 671e 933c 571b ecbd 43d5 dcbd
00000080: 2d37 8dbe 56bf 8fbc 1278 8d3d 3e7d 3dbb
00000090: a14d 5ebe 67b5 a6bd 3ae1 acbc 9959 863d
000000a0: 5c34 1abe 8fda a6be 3a8f 21bd e107 54bd
000000b0: 5f62 c73d 14dd 8bbe ce95 2abe 8f85 a2bd
000000c0: 7eaf 51bc fed5 b7be 528a e73d 7e00 babc
000000d0: e0b8 40bd 2212 473d 045a bcbd 5769 edbd
000000e0: 1392 cfbd 8d13 a6be 849f 78bc 0c7e 0e3e
000000f0: 0e44 72be 6692 9dbd 5b47 39be daa0 e43d
00000100: ec00 853d 6131 8dbe a934 61be bd99 4dbe
00000110: 5d67 cabc 525e be3b d085 88bd 8446 74bc
00000120: 3940 1fbe 6d3e 4abe 85f6 3d3d 5ef7 183e
00000130: 16e9 cebd 9e77 883d 7e3c 573e c4e9 d3bd
00000140: 402f 1abe 3368 5abe 7b38 e63d 7bcb a53d
00000150: 6170 5cbe 48d2 753d f435 8dbe 1d2d 06be
00000160: 39ff bcbd ab84 9fbe acca c9bc 8ba5 60be
00000170: 5c54 4b3d 5289 ffbd c88a 2b3d 6c4e c13d
00000180: dfbe 2cbe e8fe 063c 6e7b 0b3c 62e5 88bd
00000190: c8b0 85bd 1476 b0bd 7e64 b3be 916d 1bbe
000001a0: 9aea b3be 0181 b0bc 1ddc 913c ebe2 5abe
000001b0: 8fd8 98bd 616c 12bd 9e80 d03c 1041 48be
000001c0: 4184 c03c 02c4 29bd d13b 31be 55a7 27be
000001d0: 7dd9 27be 2061 c6bd 1d38 20be 87f2 b4bc
000001e0: 82af cbbc 482f dc3d e99f 3fbe 0a39 d0bd
000001f0: 48aa 62bb d783 9fbc 50b9 6a3c 3f27 84bd

back.2.weight f4 [64, 128]
0.17945148 0.039200112 -0.13937749 0.10489711 0.018175924 0.035885114 -0.009932439 -0.05846386
-0.094802685 0.109149486 -0.07815324 -0.0013050435 0.073774025 0.1882664 0.5509562 -0.17212601
0.021187088 0.2576716 0.20662168 0.18936005 -0.23419309 0.1727328 -0.19309439 0.07986133
0.16309576 -0.09269059 -0.053047802 0.29169425 0.04921941 -0.08800948 0.045270752 0.16338545
0.15467769 0.27025408 -0.20998766 -0.1587229 0.37817878 0.21525775 0.07255319 0.14600757
-0.7910425 0.17162544 -0.26893246 -0.024676751 -0.17115761 0.35454926 0.15734528 0.092716746
-0.12876642 0.22019093 -0.36543292 0.10809949 -0.004931663 0.04919406 -0.4783674 0.21542056
-0.011544967 -0.2962063 -0.025556069 -1.0262632 -0.34668523 0.17498672 -0.20094259 -0.8549949
-0.15040872 0.7899405 0.07372981 0.1634941 0.073657095 -0.54178536 -0.07153545 -0.096862316
-0.30249983 0.3580959 -0.081958964 -0.33278072 -0.030458506 0.0054310374 -0.5455953 0.33374852
0.17371902 0.22408468 -0.5184261 0.06675424 0.2353866 -0.51269 0.036091577 0.042292073
-0.290501 -0.5415454 -0.16854145 -0.23814893 -0.32694617 -0.36418945 -0.7502324 -0.5370093
0.022803117 -0.037445426 0.052375864 0.12069557 0.22407494 -0.071201794 -0.6200343 -0.08969636
0.054190278 0.08439089 -0.054640975 -0.4703421 -0.17080186 0.06739958 0.07143108 -0.15682687
-0.22096738 0.013559522 0.064054765 0.21631601 -0.3073503 -0.49540338 0.23540573 0.0013768013
-0.19379318 0.45714128 -0.024750387 -0.6475068 -0.18453264 -0.28944576 0.06428848 0.08614304
0.006298807 0.31380767 -0.10075616 0.09176629 -0.53309864 -0.12449012 -0.12625347 -0.028999388
-0.46258396 0.05448944 0.19433711 0.20298506 0.07309287 0.0653689 -0.52703434 -0.111928694
-0.020785224 0.25217324 0.04406851 -0.24176411 -0.32555953 0.27759808 0.17060842 -0.2623104
-0.38885343 -0.13043058 -0.26898763 -0.18445317 0.083443634 -0.31392574 0.02645975 0.06156335
-0.007502076 -0.1257422 0.12667237 -0.40243447 -0.012768545 0.06314461 0.016212838 -0.12907724
0.0268671 0.5563593 -0.2587917 -0.011028209 -0.41828966 -0.08483584 -0.042476136 0.019145189
-0.018988835 -0.30676183 0.10160736 -0.21252915 0.094547875 -0.07033573 -0.12440624 0.03665241
-0.14015974 -0.17480409 0.20638259 0.06646046 -0.3215529 0.07301655 0.087409995 0.16761273
0.19983368 0.135681 -0.64250475 -0.18701993 -0.1920788 -0.010995111 0.036246642 0.23234981
-0.050808106 -0.2590011 0.070662454 -0.0268532 0.2037137 -0.39089438 -0.014584801 -0.11403656
-0.06341056 -0.1695578 -0.08282792 -0.25944993 0.13541405 0.24336846 -0.15145048 0.13273384
-0.0974405 -0.04051803 0.029124605 0.424401 0.25424686 0.06843697 0.06843847 0.25909182
-0.2440487 0.011557184 0.070607044 -0.019024901 -0.1087304 0.038907517 -0.33109468 -0.4568557
-0.8137114 -0.07173795 0.063920446 -0.042631585 0.14648372 -0.089905456 0.25102723 0.19759038
-0.32699463 0.15982284 0.03582509 0.02385659 0.035915498 -0.27126125 0.123552255 0.13230892
0.10123739 0.38842827 0.49964708 -0.0877523 -0.31198767 -0.09359872 -0.2827444 -0.14558916
00000000: 21c2 373e 4c90 203d f9b8 0ebe 4cd4 d63d
00000010: ade5 943c 45fc 123d abbb 22bc cd77 6fbd
00000020: e927 c2bd c489 df3d ce0e a0bd fe0d abba
00000030: d616 973d e8c8 403e 770b 0d3f cd41 30be
00000040: 8b90 ad3c 88ed 833e a294 533e 9ae7 413e
00000050: 50d0 6fbe dee0 303e 89ba 45be 568e a33d
00000060: 9302 273e 90d4 bdbd a748 59bd f358 953e
00000070: 4b9a 493d 503e b4bd d36d 393d 844e 273e
00000080: d463 1e3e be5e 8a3e 0107 57be 4288 22be
00000090: a6a0 c13e 876c 5c3e c496 943d 0283 153e
000000a0: c381 4abf 94be 2f3e 84b1 89be e626 cabc
000000b0: f143 2fbe 7b87 b53e 1f1f 213e 47e2 bd3d
000000c0: 58db 03be bb79 613e 061a bbbe 4463 dd3d
000000d0: ca99 a1bb b67f 493d 92ec f4be 3597 5c3e
000000e0: 1a27 3dbc 5aa8 97be f65a d1bc 985c 83bf
000000f0: ba80 b1be b82f 333e e5c3 4dbe f2e0 5abf
00000100: be04 1abe 8a39 4a3f a8ff 963d ff6a 273e
00000110: 88d9 963d 72b2 0abf 2e81 92bd c05f c6bd
00000120: 42e1 9abe 5958 b73e 1ada a7bd 3c62 aabe
00000130: 1e84 f9bc d8f6 b13b 22ac 0bbf 16e1 aa3e
00000140: 66e3 313e 7476 653e 93b7 04bf 72b6 883d
00000150: 2f09 713e a73f 03bf c3d4 133d 743a 2d3d
00000160: 8cbc 94be b8a2 0abf 2196 2cbe 50dd 73be
00000170: 7d65 a7be 0a77 babe 3b0f 40bf 7179 09bf
00000180: 9acd ba3c 6060 19bd 1388 563d 3d2f f73d
00000190: e773 653e 3fd2 91bd 91ba 1ebf bab2 b7bd
000001a0: a0f6 5d3d 22d5 ac3d 37cf 5fbd aed0 f0be
000001b0: afe6 2ebe ca08 8a3d 754a 923d 3997 20be
000001c0: 4645 62be c228 5e3c 252f 833d f281 5d3e
000001d0: 055d 9dbe 83a5 fdbe 330e 713e c975 b43a
000001e0: b871 46be 6c0e ea3e 53c1 cabc 01c3 25bf
000001f0: 20f6 3cbe 3c32 94be aea9 833d c36b b03d
00000200: 3966 ce3b 66ab a03e 3f59 cebd f7ef bb3d
00000210: 2779 08bf adf4 febd 9748 01be 2090 edbc
00000220: ced7 ecbe 5230 5f3d 4f00 473e 51db 4f3e
00000230: b7b1 953d 21e0 853d b9eb 06bf df3a e5bd
00000240: c645 aabc da1c 813e 2f81 343d 0391 77be
00000250: bdaf a6be 5621 8e3e f9b3 2e3e 8c4d 86be
00000260: cc17 c7be 988f 05be bfb8 89be 4be1 3cbe
00000270: 7fe4 aa3d e0ba a0be 1ec2 d83c da29 7c3d
00000280: fad3 f5bb 90c2 00be 67b6 013e e40b cebe
00000290: 2933 51bc f651 813d c9d0 843c d32c 04be
000002a0: 6418 dc3c 906d 0e3f 5880 84be a9af 34bc
000002b0: 102a d6be 6abe adbd 75fb 2dbd 5fd6 9c3c
000002c0: 798e 9bbc e30f 9dbe 8517 d03d 3ea1 59be
000002d0: 51a2 c13d 2e0c 90bd b3c8 febd d620 163d
000002e0: 0986 0fbe d8ff 32be f555 533e 6c1c 883d
000002f0: 95a2 a4be b389 953d 0304 b33d aca2 2b3e
00000300: 33a1 4c3e f6ef 0a3e 317b 24bf 2782 3fbe
00000310: 4eb0 44be d724 34bc 5c77 143d 1ced 6d3e
00000320: 291c 50bd cb9b 84be 7ab7 903d 3efb dbbc
00000330: 539a 503e 4f23 c8be 17f5 6ebc 008c e9bd
00000340: 65dd 81bd 8fa0 2dbe afa1 a9bd 9fd6 84be
00000350: fba9 0a3e 9535 793e d615 1bbe 61eb 073e
00000360: e38e c7bd 3cf6 25bd b996 ee3c 164b d93e
00000370: a52c 823e af28 8c3d 7829 8c3d afa7 843e
00000380: e7e7 79be 585a 3d3c 6d9a 903d 1cda 9bbc
00000390: 0bae debd 7d5d 1f3d 3e85 a9be fee8 e9be
000003a0: 644f 50bf 59eb 92bd b9e8 823d 759e 2ebd
000003b0: d4ff 153e 5a20 b8bd a486 803e 2255 4a3e
000003c0: d76b a7be 99a8 233e 54bd 123d e56e c33c
000003d0: 211c 133d c1e2 8abe f708 fd3d fd7b 073e
000003e0: 8c55 cf3d 12e0 c63e bed1 ff3e 7ab7 b3bd
000003f0: d9bc 9fbe b0b0 bfbd e0c3 90be 5315 15be

back.2.bias f4 [64]
-0.037472315 0.118765995 -0.057728283 0.026132435 0.021719381 0.017979905 0.05726212 0.054090425
0.028223723 -0.0046925005 0.066885814 -0.24061376 -0.03359314 0.09948414 0.046339743 0.057525735
0.05005371 0.10811244 0.10822838 0.035822265 0.05683092 0.09105473 0.037782956 -0.24619344
0.05879232 -0.045503512 0.11195098 -0.10900283 -0.010031465 0.12750046 0.058846503 -0.014989311
-0.10309183 -0.3363502 0.043556597 0.07407109 0.031900454 0.040394098 -0.2859529 0.02847747
0.01933888 0.13212197 0.012470629 0.05960628 0.014035424 0.081200495 -0.05338507 0.072054505
-0.07375547 -0.010813974 -0.0033412606 -0.012133783 -0.5077144 0.1126464 0.08507019 -0.25491995
0.017649494 0.10755076 0.0059831007 0.029516583 -0.1552236 0.08378799 0.08622527 0.080615014
00000000: 927c 19bd 963b f33d 7e74 6cbd b013 d63c
00000010: d8ec b13c 984a 933c af8b 6a3d ec8d 5d3d
00000020: 7035 e73c 8cc3 99bb 6efb 883d 7463 76be
00000030: f698 09bd 57be cb3d bece 3d3d 1ba0 6b3d
00000040: 1e05 4d3d 0e6a dd3d d7a6 dd3d 5eba 123d
00000050: 8ac7 683d e77a ba3d 4dc2 1a3d 221a 7cbe
00000060: 37d0 703d e461 3abd 8e46 e53d e03c dfbd
00000070: 045b 24bc 7b8f 023e 0809 713d ba95 75bc
00000080: cf21 d3bd 1836 acbe 6768 323d 95b2 973d
00000090: 0daa 023d 4874 253d 6b68 92be 9549 e93c
000000a0: 926c 9e3c fb4a 073e 9c51 4c3c b725 743d
000000b0: d6f4 653c 724c a63d 4eaa 5abd 5091 933d
000000c0: 1c0d 97bd 182d 31bc 0df9 5abb c6cc 46bc
000000d0: 92f9 01bf 28b3 e63d 4839 ae3d de84 82be
000000e0: ac95 903c 9343 dc3d e30d c43b c3cc f13c
000000f0: eff2 1ebe 0a99 ab3d e096 b03d 7c19 a53d

back.4.weight f4 [32, 64]
0.3316785 0.13620211 -0.043551344 -0.05265433 -0.043580204 -0.20842053 -0.63355064 -0.49692565
-0.037688687 -0.06493224 0.24398018 -0.48382926 -0.07537349 0.07797528 0.32227978 -0.26095292
-0.021256793 -0.033347677 -0.05532166 -0.13006788 -0.042791672 0.01147682 0.06578618 -0.4139365
-0.101327196 0.048630916 0.0003319059 -0.28685826 0.21829724 0.040632904 0.23761444 -0.18125173
0.14270169 0.31239352 0.041179948 0.030604143 0.069938384 0.20268537 0.28304586 0.234082
-0.07348319 0.26312047 0.0821831 0.3394585 -0.1614831 -0.041633673 0.20618677 -0.16191754
0.15931018 -0.17400068 0.2681767 0.3577302 -0.32457075 -0.16243792 0.47684038 0.061479475
-0.38194838 -0.22011128 -0.03196983 -0.014331061 0.081703335 -0.15626304 0.24624346 -0.50936294
-0.13688385 -0.53167903 0.0883299 0.0009837041 0.28721064 -0.16735241 -0.13075203 -0.17737442
-0.039511755 -0.09794116 -0.08941703 -0.03463485 0.22034243 0.06905884 0.27247116 0.3429201
-0.094213955 -0.09655925 -0.035636913 -0.43026656 -0.018239273 0.041835103 -0.2473429 0.19513999
-0.00292468 0.23163153 -0.19694206 0.2672254 0.033415608 -0.07101403 0.07678673 0.40158737
-0.08061473 0.16857213 -0.1708529 -0.4352027 0.1619726 -0.05739856 0.24736717 0.20366646
-0.23999654 -0.35530585 0.20033082 0.51494145 0.06357082 -0.030389203 0.21082911 0.27024797
0.09545011 -0.43107182 -0.022561792 -0.04462025 -0.33078498 0.11257237 -0.4733105 -0.0025389013
-0.10107005 -0.0776268 0.0820679 -0.32838812 0.022384679 0.0479518 0.20259647 -0.058042843
-0.18040863 0.06943478 -0.08052855 0.15434305 0.30980572 -0.33668247 -0.17588136 -0.49081945
-0.038783066 -0.05849865 -0.20492944 -0.037710473 -0.22726038 -0.21608166 0.20073345 -0.16445751
-0.20238681 0.044725966 0.057404753 0.2061219 -0.042687774 0.10211132 -0.05792068 -0.1428261
0.2138816 0.015208031 0.10119553 -0.5479567 0.041499216 0.04175012 0.08880896 0.21492592
0.06106909 0.15882306 0.18028478 -0.038644567 0.09007253 0.32229668 0.23492873 0.21231334
0.12725325 0.22348878 0.119767636 -0.054236975 -0.037634518 -0.09019553 -0.20382668 0.09926028
-0.13801536 0.02101022 0.13673688 -0.53566897 0.03403036 0.07401134 0.15409343 0.034677677
-0.09658898 -0.011184663 0.045399316 0.005115095 -0.047953516 -0.1515082 0.13689375 -0.15926273
0.058796514 0.04990328 0.2729095 0.12323327 0.025836257 -0.19220342 -0.5177336 0.08425921
-0.20424575 0.17923531 -0.054608516 0.027196987 0.26990572 -0.17330477 0.29815334 0.009134412
-0.01850826 -0.1052191 0.09128298 0.105658695 0.2876611 -0.03542965 -0.16298659 0.09220782
0.15028083 -0.25038043 0.018328352 -0.64837736 0.3291479 0.08083593 0.11442295 -0.06219313
-0.017381346 0.38117954 0.05685321 0.04381287 -0.13214633 0.25980335 0.37274954 -0.17929065
-0.38324842 0.19740081 0.14125176 0.16918564 0.24905115 -0.08118065 -0.24130467 -0.071091115
0.0761319 0.06941113 0.2095719 -0.16849852 -0.12169475 -0.16201772 0.18825874 -0.39417055
0.025313929 0.07276851 0.117087275 0.00938124 0.06022187 -0.09968494 0.15085071 -0.24940921
00000000: c4d1 a93e 9178 0b3e e562 32bd 11ac 57bd
00000010: 2881 32bd 316c 55be 6030 22bf 0a6d febe
00000020: 745f 1abd 32fb 84bd f1d5 793e 78b8 f7be
00000030: 6b5d 9abd 81b1 9f3d db01 a53e 9f9b 85be
00000040: ba22 aebc 9397 08bd f798 62bd 8430 05be
00000050: 5246 2fbd 4609 3c3c e8ba 863d 7cef d3be
00000060: a284 cfbd 3631 473d a803 ae39 16df 92be
00000070: 5089 5f3e b06e 263d 3351 733e 0e9a 39be
00000080: 6420 123e 0bf2 9f3e 4eac 283d 8ab5 fa3c
00000090: db3b 8f3d c18c 4f3e 63eb 903e 31b3 6f3e
000000a0: 5b7e 96bd bab7 863e 9d4f a83d 81cd ad3e
000000b0: d35b 25be 1288 2abd a022 533e b6cd 25be
000000c0: 3522 233e 3c2d 32be 754e 893e 6a28 b73e
000000d0: 232e a6be 2056 26be 6c24 f43e e7d1 7b3d
000000e0: bd8e c3be da64 61be ccf2 02bd d4cc 6abc
000000f0: 1454 a73d 6b03 20be 3f27 7c3e 9c65 02bf
00000100: 482b 0cbe 1e1c 08bf 4ee6 b43d a2ef 803a
00000110: 460d 933e 6e5e 2bbe dce3 05be a4a1 35be
00000120: 14d7 21bd 6095 c8bd 4720 b7bd 46dd 0dbd
00000130: 72a1 613e b96e 8d3d 5781 8b3e 3993 af3e
00000140: 3ff3 c0bd dbc0 c5bd 03f8 11bd e64b dcbe
00000150: 876a 95bc 495b 2b3d 7547 7dbe c7d2 473e
00000160: fdab 3fbb d130 6d3e 2eab 49be c5d1 883e
00000170: cede 083d ce6f 91bd 5c42 9d3d dc9c cd3e
00000180: 5619 a5bd 2c9e 2c3e 10f4 2ebe e3d2 debe
00000190: 25dc 253e c11a 6bbd d24d 7d3e f18d 503e
000001a0: a7c1 75be a6ea b5be 8623 4d3e 34d3 033f
000001b0: 6b31 823d c7f2 f8bc 96e3 573e f15d 8a3e
000001c0: 597b c33d 72b5 dcbe 82d3 b8bc b9c3 36bd
000001d0: a65c a9be 588c e63d c155 f2be b263 26bb
000001e0: d0fd cebd cdfa 9ebd 3713 a83d 7d22 a8be
000001f0: 1360 b73c 1b69 443d 7375 4f3e 55be 6dbd
00000200: 0abd 38be d233 8e3d 27ec a4bd 1b0c 1e3e
00000210: db9e 9e3e a561 acbe 3e1a 34be b04c fbbe
00000220: feda 1ebd 489c 6fbd 06d9 51be 4c76 1abd
00000230: f2b6 68be 8344 5dbe 128d 4d3e 8d67 28be
00000240: 7d3e 4fbe 9332 373d 3f21 6b3d 9f11 533e
00000250: 60d9 2ebd bd1f d13d 3c3e 6dbd 0141 12be
00000260: c703 5b3e 1b2b 793c 9a3f cf3d e446 0cbf
00000270: 15fb 293d 2d02 2b3d 79e1 b53d 8a15 5c3e
00000280: 9523 7a3d 83a2 223e 939c 383e c449 1ebd
00000290: f277 b83d 1204 a53e 2891 703e ab68 593e
000002a0: ad4e 023e 3eda 643e bc48 f53d 9727 5ebd
000002b0: a726 1abd 6fb8 b8bd f1b7 50be f948 cb3d
000002c0: e653 0dbe a01d ac3c c104 0c3e 9a21 09bf
000002d0: 6b63 0b3d 4293 973d abca 1d3e 2e0a 0e3d
000002e0: 71d0 c5bd e03f 37bc a2f4 393d 879c a73b
000002f0: e86a 44bd f724 1bbe e02d 0c3e c515 23be
00000300: 9dd4 703d 6267 4c3d cbba 8b3e ba61 fc3d
00000310: 8fa6 d33c f9d0 44be 308a 04bf 1890 ac3d
00000320: cc25 51be 7689 373e 2ead 5fbd 37cc de3c
00000330: 1531 8a3e ce76 31be 8ea7 983e 80a8 153c
00000340: a29e 97bc 1d7d d7bd 92f2 ba3d 9663 d83d
00000350: 5148 933e ae1e 11bd f5e5 26be 74d7 bc3d
00000360: 38e3 193e dd31 80be 5725 963c 0ffc 25bf
00000370: 1386 a83e 4f8d a53d 9456 ea3d 39be 7ebd
00000380: 5363 8ebc f729 c33e e9de 683d 2075 333d
00000390: 5e51 07be f204 853e 07d9 be3e f897 37be
000003a0: 2339 c4be 7023 4a3e 4da4 103e 003f 2d3e
000003b0: 4407 7f3e 0a42 a6bd 9218 77be 3898 91bd
000003c0: 0beb 9b3d 6c27 8e3d 049a 563e e08a 2cbe
000003d0: 193b f9bd f9e7 25be e6c6 403e b9d0 c9be
000003e0: 285f cf3c a807 953d 74cb ef3d c6b3 193c
000003f0: 35ab 763d 9e27 ccbd 9c78 1a3e 2165 7fbe

back.4.bias f4 [32]
-0.031013113 -0.08794564 0.070539914 0.014541167 0.12473698 -0.030273577 -0.12452076 0.17837736
0.09643531 -0.06610287 0.06631088 0.087341055 0.11307016 -0.008770053 0.13745134 -0.039948814
0.08827547 0.1250761 -0.0930087 -0.036808018 0.03141474 0.10338321 0.02039867 -0.010268524
0.0074559236 -0.014216059 -0.10864014 -0.0031685857 0.030568728 -0.1263609 -0.09730071 -0.034969993
00000000: 360f febc d81c b4bd 3b77 903d 133e 6e3c
00000010: 1a76 ff3d 4b00 f8bc bd04 ffbd 8ea8 363e
00000020: e07f c53d f160 87bd 00ce 873d dedf b23d
00000030: 5491 e73d 45b0 0fbc 0bc0 0c3e 5ea1 23bd
00000040: c5c9 b43d f313 003e 587b bebd 01c4 16bd
00000050: beac 003d 94ba d33d 1d1b a73c 503d 28bc
00000060: d250 f43b 79ea 68bc b97e debd 0ca8 4fbb
00000070: 456b fa3c c064 01be 9845 c7bd b23c 0fbd

ellipticity.0.weight f4 [2, 32]
-0.05521926 0.106541045 -0.08234434 -0.027570808 0.07557197 -0.12696287 0.049330644 -0.13859366
-0.17714486 -0.028453812 0.13919573 -0.105650604 0.12614231 0.13692048 0.035607565 -0.1720097
-0.017905839 -0.08058888 0.0772608 -0.009307352 0.06811959 -0.018241452 -0.038398698 0.09412175
0.15957631 -0.1392515 -0.05514381 0.047400456 0.01860371 0.033326566 -0.093866736 -0.042004544
0.10366657 0.012940285 0.10799145 0.04625631 0.07657382 -0.03277735 -0.08903064 0.025710268
0.052411806 0.17598218 -0.025503535 -0.084571 -0.022749742 -0.11547779 0.14676836 -0.04640449
-0.0034694816 0.076193176 0.0057042306 0.06520102 0.012469475 -0.09784356 0.06700319 0.1569875
0.010220117 -0.24817117 -0.049429335 -0.092165396 -0.1032542 -0.12704574 0.23073679 -0.0947494
00000000: 972d 62bd 3132 da3d 26a4 a8bd 2ddc e1bc
00000010: 7ac5 9a3d 8e02 02be ee0e 4a3d 7feb 0dbe
00000020: 7665 35be f817 e9bc 5389 0e3e 585f d8bd
00000030: 732b 013e e234 0c3e 3dd9 113d 5023 30be
00000040: 44af 92bc c80b a5bd e93a 9e3d dd7d 18bc
00000050: 4982 8b3d 196f 95bc f447 1dbd e7c2 c03d
00000060: f967 233e f297 0ebe 7ade 61bd fb26 423d
00000070: cf66 983c 7081 083d 343d c0bd f50c 2cbd
00000080: 234f d43d 7d03 543c 9f2a dd3d 4277 3d3d
00000090: bcd2 9c3d 8b41 06bd b255 b6bd 579e d23c
000000a0: c3ad 563d ac34 343e caec d0bc 8f33 adbd
000000b0: ab5d babc 9f7f ecbd 724a 163e a212 3ebd
000000c0: 3e60 63bb 2b0b 9c3d 8eea ba3b 1d88 853d
000000d0: c54c 4c3c 3462 c8bd f838 893d 55c1 203e
000000e0: 4772 273c 9520 7ebe 6a76 4abd 36c1 bcbd
000000f0: f076 d3bd 4718 02be 4446 6c3e f90b c2bd

ellipticity.0.bias f4 [2]
0.045683485 -0.023589645
00000000: 9b1e 3b3d 123f c1bc

exp_avg f4 [128, 32]
5.007234e-07 -2.7184883e-06 -1.4704244e-06 -3.975709e-06 -9.205821e-05 -4.4867456e-06 -0.000116382034 -1.2958694e-07
1.2772144e-06 -8.7486666e-07 -7.1884836e-07 1.6629479e-06 -4.841578e-05 6.5758734e-08 1.8613571e-05 1.0558407e-06
8.9058096e-07 -8.984287e-08 -1.5237966e-06 2.5276458e-06 -2.840695e-07 -2.9338762e-06 5.9863687e-06 2.6573716e-06
-2.7352999e-06 5.9170136e-05 1.180312e-06 2.552953e-07 2.2450013e-06 2.436782e-06 -8.539343e-07 -3.2023352e-06
-1.1959527e-07 -3.5186272e-07 6.023561e-08 -1.9803586e-07 1.4318188e-05 -5.607301e-07 -1.194675e-05 1.7367019e-09
7.330789e-07 -1.5149047e-07 -4.199343e-07 1.58308e-07 -1.4810581e-05 6.145077e-08 1.6199929e-05 4.0968166e-07
-1.8152888e-07 1.5536938e-07 -1.0550053e-07 2.863336e-07 1.8215799e-07 -6.5446045e-07 1.2897391e-07 2.6258496e-07
-5.8302606e-07 1.20120485e-05 2.8775824e-07 1.9626042e-07 1.3917948e-07 9.097508e-08 -1.5483302e-07 -3.2538804e-07
1.3029706e-06 -2.3842906e-06 1.8338261e-06 8.592342e-06 0.0001522207 5.979614e-06 0.00035742606 -1.162136e-06
2.6035334e-06 9.104521e-07 -2.4258431e-06 -7.98338e-06 -6.307538e-05 -4.702984e-07 0.00012534203 -4.423171e-07
-4.843261e-06 -3.452477e-07 5.6697917e-08 1.7577436e-06 -1.9456988e-06 3.1158422e-06 -8.377905e-06 9.768237e-06
8.6203e-07 -9.006015e-05 -9.125714e-06 -1.658507e-06 -3.723597e-06 -1.2809043e-06 2.9003087e-07 1.1532053e-06
-9.7089915e-06 -2.5658512e-06 3.619206e-06 -7.3912165e-06 -8.500581e-05 -1.4770402e-05 -2.276579e-05 1.1119297e-06
1.1582436e-05 -5.8605788e-06 2.582401e-06 1.2772941e-06 -0.00021852326 -1.8176182e-06 -0.00029853394 6.158168e-06
-5.1015213e-06 2.8896095e-06 -3.1844192e-07 9.290602e-06 8.13572e-07 -1.496279e-05 6.1896235e-06 1.5736832e-07
-2.1700641e-06 4.1917287e-06 1.4418133e-07 2.9246332e-06 1.6954571e-07 -2.2018585e-07 -6.914256e-07 7.6818753e-07
5.2872747e-06 -1.6106014e-06 -1.752728e-06 2.3445484e-06 1.0088649e-05 7.0054725e-06 -2.1219492e-05 2.8963333e-07
-6.60975e-06 1.6762681e-06 -8.0998717e-07 -1.9949913e-07 8.5417145e-05 1.6220038e-06 0.00012891986 -2.1245005e-06
2.2957097e-06 -2.375935e-06 -2.859558e-07 -2.9940747e-06 -1.9768163e-06 9.864242e-06 -5.335123e-07 2.5230456e-06
3.377297e-07 5.276544e-06 -2.2628012e-06 -2.1231217e-06 1.0889534e-06 8.6178534e-07 -1.1191067e-06 1.5046524e-07
-9.094772e-06 -1.1174657e-05 6.1267306e-06 -7.65322e-06 -0.00011582343 -2.0464608e-05 0.0003251785 -4.404625e-06
2.2542325e-05 -4.419156e-06 -4.308784e-06 -3.89757e-06 -0.000377455 3.8541666e-06 2.2588283e-05 3.6302238e-06
-5.482701e-06 6.337503e-06 -5.524459e-06 1.9128884e-05 -2.0634557e-08 -1.5245667e-05 1.0453717e-05 9.060698e-06
-6.4242636e-06 -5.4249864e-05 -1.0110351e-05 1.3234887e-06 -7.255201e-06 1.0780165e-06 -1.8287e-06 -9.873814e-06
-2.539939e-06 3.2988728e-06 2.4060256e-07 -1.1011618e-06 7.868141e-06 -4.9776827e-07 -0.00017835916 2.6709135e-06
-5.0043436e-06 -1.7683255e-06 3.4497077e-06 2.637463e-06 7.7574136e-05 -1.7332945e-06 -0.00020717374 3.1697547e-07
1.2646658e-06 1.900453e-07 2.4834558e-06 -3.6050028e-06 9.451471e-07 1.1652593e-06 2.0358364e-06 -7.3594447e-06
7.769927e-07 -1.14362765e-05 5.517655e-06 1.410699e-06 1.7787212e-06 -1.6287682e-06 4.1796014e-07 4.6879472e-06
1.1478647e-06 1.1307247e-06 -3.2827478e-07 8.3361573e-07 5.2867817e-06 2.9257085e-06 1.262598e-05 2.5380123e-07
-2.7358383e-06 7.5302785e-07 7.72121e-07 1.6391769e-07 5.147884e-05 -3.5245984e-07 -1.6757345e-05 -1.1813723e-06
6.6237135e-07 -7.461345e-07 6.900356e-07 -2.0355467e-06 -1.962162e-07 3.1855438e-06 -1.1492602e-06 -9.845047e-07
1.2523382e-06 1.2701634e-06 -1.829619e-07 -2.8285515e-07 2.3536819e-08 -2.3126256e-07 3.576591e-07 9.99958e-07
00000000: 7369 0635 466f 36b6 665b c5b5 1567 85b6
00000010: 600f c1b8 da8c 96b6 2112 f4b8 9624 0bb4
00000020: c16c ab35 61d8 6ab5 e2f6 40b5 7432 df35
00000030: 0c12 4bb8 3f37 8d33 5724 9c37 69b6 8d35
00000040: 4210 6f35 a4ef c0b3 4185 ccb5 a0a0 2936
00000050: 3782 98b4 9ce3 44b6 84de c836 4c55 3236
00000060: 1890 37b6 732d 7838 366b 9e35 850f 8934
00000070: d4a8 1636 9987 2336 eb39 65b5 b3e7 56b6
00000080: 196a 00b4 a5e7 bcb4 e05a 8133 afa3 54b4
00000090: 2638 7037 1485 16b5 e76e 48b7 c4b0 ee30
000000a0: ccc8 4435 62a9 22b4 5573 e1b4 5ffb 2934
000000b0: f67a 78b7 ebf6 8333 15e5 8737 38f2 db34
000000c0: 47ea 42b4 9cd3 2634 888f e2b3 64b9 9934
000000d0: 3597 4334 2eae 2fb5 147c 0a34 67f9 8c34
000000e0: 3f81 1cb5 5b87 4937 317d 9a34 a7bb 5234
000000f0: 5d71 1534 145e c333 2d40 26b4 feb0 aeb4
00000100: bbe1 ae35 cd01 20b6 c921 f635 d427 1037
00000110: 6f9d 1f39 7ea4 c836 ea64 bb39 b0fa 9bb5
00000120: 5db8 2e36 cb65 7435 abcb 22b6 5bf0 05b7
00000130: 5647 84b8 527d fcb4 3f6e 0339 9977 edb4
00000140: 4c83 a2b6 7c5a b9b4 0584 7333 9ceb eb35
00000150: da92 02b6 c319 5136 d48e 0cb7 42e2 2337
00000160: 4066 6735 adde bcb8 a51a 19b7 de99 deb5
00000170: e9e2 79b6 89eb abb5 8ab5 9b34 d5c7 9a35
00000180: cde3 22b7 fd30 2cb6 7ce1 7236 1102 f8b6
00000190: 2645 b2b8 65ce 77b7 29f9 beb7 9d3d 9535
000001a0: 2f52 4237 fda5 c4b6 504d 2d36 7e6f ab35
000001b0: 6423 65b9 e3f4 f3b5 8c84 9cb9 43a2 ce36
000001c0: bc2d abb6 1deb 4136 53f6 aab4 d5de 1b37
000001d0: 3e64 5a35 b208 7bb7 76b0 cf36 13f9 2834
000001e0: 6ba1 11b6 ada6 8c36 43d0 1a34 d144 4436
000001f0: 5f0c 3634 3a6c 6cb4 689a 39b5 7235 4e35
00000200: 5869 b136 d82b d8b5 473f ebb5 0957 1d36
00000210: 6b42 2937 8d10 eb36 8300 b2b7 e77e 9b34
00000220: 52c9 ddb6 22fc e035 e56d 59b5 e735 56b4
00000230: fb21 b338 a0b3 d935 a92e 0739 a492 0eb6
00000240: fe0f 1a36 4172 1fb6 7785 99b4 d0ed 48b6
00000250: 72a9 04b6 997e 2537 b036 0fb5 9851 2936
00000260: 3751 b534 2b0d b136 a1da 17b6 f47a 0eb6
00000270: 2728 9235 7055 6735 3734 96b5 928f 2134
00000280: c095 18b7 c97a 3bb7 3794 cd36 5466 00b7
00000290: 3be6 f2b8 69ab abb7 b87c aa39 71cb 93b6
000002a0: 4619 bd37 4348 94b6 2c94 90b6 dfc7 82b6
000002b0: 27e5 c5b9 0a53 8136 f87b bd37 c59e 7336
000002c0: 0bf8 b7b6 bca6 d436 be5e b9b6 f776 a037
000002d0: df3f b1b2 a4c7 7fb7 5f62 2f37 6703 1837
000002e0: 0190 d7b6 598a 63b8 a09f 29b7 baa2 b135
000002f0: b471 f3b6 5db0 9035 a771 f5b5 b5a7 25b7
00000300: d273 2ab6 3462 5d36 2a2c 8134 a2cb 93b5
00000310: 6901 0437 609e 05b5 ec05 3bb9 f23d 3336
00000320: fcea a7b6 3457 edb5 8781 6736 45ff 3036
00000330: 4caf a238 8ca3 e8b5 c73c 59b9 c72c aa34
00000340: 96bd a935 410f 4c34 72a9 2636 7aed 71b6
00000350: 04b6 7d35 0166 9c35 679f 0836 26f1 f6b6
00000360: 8892 5035 6fde 3fb7 4c24 b936 4057 bd35
00000370: 65bc ee35 0d9c dab5 0164 e034 294d 9d36
00000380: 5510 9a35 68c3 9735 be3d b0b4 a3c5 5f35
00000390: 1c65 b136 4a57 4436 2cd4 5337 2d42 8834
000003a0: 5899 37b6 ae23 4a35 c043 4f35 5a01 3034
000003b0: fcea 5738 b639 bdb4 2092 8cb7 a58f 9eb5
000003c0: d0cd 3135 f949 48b5 e33a 3935 6d9a 08b6
000003d0: 80af 52b4 3ac7 5536 4840 9ab5 5323 84b5
000003e0: 0316 a835 7b7a aa35 2f74 44b4 51db 97b4
000003f0: 032e ca32 f850 78b4 4b04 c034 4c36 8635

exp_avg_sq f4 [128, 32]
4.5592332e-11 3.8654628e-11 2.2780028e-11 3.6901558e-11 5.426674e-08 1.7017265e-10 1.558878e-07 2.4579127e-11
1.524062e-10 2.1094316e-11 5.067881e-11 2.323671e-11 3.4976832e-08 1.2337648e-11 1.0087216e-07 5.011599e-11
5.9590485e-11 2.1642424e-11 2.4313189e-11 6.397096e-11 7.3164565e-12 2.2283586e-10 9.0794865e-11 1.324047e-10
3.401054e-11 2.9562703e-08 4.9256908e-11 1.0172816e-11 1.3528108e-11 3.754343e-12 1.4902649e-11 3.147658e-11
4.6810433e-12 5.0266297e-12 1.9167775e-12 3.010277e-12 7.95951e-09 1.4715089e-11 2.7497872e-08 7.3500017e-13
1.0954804e-11 1.3654648e-12 2.7798263e-12 9.614515e-13 3.6993764e-09 1.4931912e-12 6.753251e-09 5.233777e-12
1.3474093e-12 3.8853365e-12 1.1032692e-12 6.0031225e-12 1.1808734e-12 1.9396748e-11 3.3413391e-12 3.5297243e-12
6.8079847e-12 3.890677e-09 2.3392093e-12 9.384389e-13 3.0802403e-12 8.028817e-13 1.8818998e-12 2.6576597e-12
5.641604e-10 3.0850217e-10 9.7738276e-11 5.6270116e-10 1.2405685e-07 4.797139e-10 8.8340965e-07 2.329688e-10
2.6125452e-10 2.2395542e-10 7.4803663e-10 2.1978387e-10 4.805008e-08 3.6261716e-10 2.9063633e-06 9.421199e-11
1.0292654e-10 3.490272e-11 1.5829084e-10 1.7935319e-10 5.5406967e-11 2.0872062e-10 1.2465543e-09 1.3079539e-09
1.14166634e-10 5.4459957e-08 7.1919415e-10 2.1941401e-10 7.660435e-11 8.213182e-11 3.3490762e-11 7.626003e-10
8.918545e-10 8.904524e-10 1.8834383e-10 4.169e-10 7.396309e-08 1.0413808e-09 1.2605948e-06 3.6141626e-10
1.5549064e-09 2.5796518e-10 1.402714e-09 2.56206e-10 4.6858318e-07 6.794711e-10 4.6501923e-06 3.5434694e-10
2.6372696e-10 9.9625946e-11 2.9963285e-10 9.806282e-10 1.0583228e-10 1.4929292e-09 8.3656726e-10 2.7487543e-09
4.5074264e-10 8.358391e-08 9.725325e-10 3.0294617e-10 7.998997e-11 2.0762936e-10 1.3369418e-10 1.5052657e-09
7.237665e-11 1.09390434e-10 1.436651e-11 3.306063e-11 1.5099287e-08 2.6157673e-10 2.4023515e-07 1.0108127e-11
4.5883883e-10 1.8528021e-11 3.5886114e-11 4.0634975e-11 1.3980132e-07 1.1280065e-11 6.39416e-08 4.931904e-11
9.35014e-11 1.787808e-11 3.692183e-11 2.3999092e-10 1.3083347e-11 4.20332e-10 4.860676e-11 4.2808493e-10
4.250881e-11 1.8402163e-08 1.9412066e-10 1.4790278e-11 7.648711e-12 1.9435757e-11 1.1715803e-11 6.4467556e-11
2.9080864e-09 2.8922453e-09 6.3437755e-10 1.7921846e-09 3.8534918e-07 4.015678e-09 6.242639e-06 1.0720271e-09
5.9520775e-09 8.439544e-10 4.5730206e-09 9.545318e-10 1.7703682e-06 1.8213607e-09 1.4408213e-05 1.6634625e-09
1.2455894e-09 4.2766288e-10 9.291467e-10 3.432923e-09 3.5020553e-10 5.9173195e-09 4.271586e-09 1.0157177e-08
1.6979119e-09 4.0186757e-07 3.601881e-09 1.0066746e-09 4.0809978e-10 6.394263e-10 5.2585036e-10 4.175145e-09
2.062882e-10 1.4922252e-10 2.6098833e-11 2.0640105e-10 4.0500414e-08 2.1758693e-10 9.072375e-07 7.635172e-11
2.2275845e-10 4.1535025e-11 9.950074e-11 1.5522415e-10 6.638254e-08 5.7957743e-11 6.2199086e-07 5.7785828e-11
7.419255e-11 1.3096907e-11 1.4217166e-10 1.2057871e-10 2.3976054e-11 1.2085588e-10 4.469482e-10 9.862154e-10
3.96864e-11 3.537953e-08 6.4888345e-10 9.720105e-11 2.6287958e-11 4.3460693e-11 1.6037071e-11 1.8628234e-10
7.268101e-12 7.363766e-12 1.479554e-12 3.0600806e-12 1.5513183e-09 2.6819302e-11 1.36917135e-08 1.162094e-12
3.633098e-11 2.1583907e-12 2.5536522e-12 3.1647616e-12 1.0801653e-08 9.77959e-13 6.336514e-09 4.3906866e-12
6.2139356e-12 1.9799347e-12 2.8296224e-12 1.8433186e-11 1.0469545e-12 4.126409e-11 4.700152e-12 2.2188433e-11
3.4217035e-12 1.1529019e-09 1.1876469e-11 1.1665328e-12 6.771303e-13 1.1509994e-12 6.118733e-13 4.656877e-12
00000000: 6784 482e 3e01 2a2e 1060 c82d 764b 222e
00000010: e912 6933 581b 3b2f 1d62 2734 4633 d82d
00000020: 8892 272f 2d8c b92d 44e3 5e2e 6b64 cc2d
00000030: 6f39 1633 d40b 592d 0e9f d833 9769 5c2e
00000040: 760a 832e 685e be2d 6fdc d52d 73ac 8c2e
00000050: 64b6 002d b802 752f f7a8 c72e 9c94 112f
00000060: 7794 152e 12f1 fd32 59a2 582e 4af6 322d
00000070: 2ffd 6d2d 1e18 842c c815 832d 7a6f 0a2e
00000080: 17b3 a42c dbdb b02c 98e1 062c 54d4 532c
00000090: 4cbe 0832 6f6f 812d 7634 ec32 58e2 4e2b
000000a0: 0db8 402d 0e2c c02b e69c 432c f14f 872b
000000b0: 1e38 7e31 e225 d22b 390a e831 ac25 b82c
000000c0: 89a1 bd2b 00b4 882c 7645 9b2b 5237 d32c
000000d0: 7331 a62b 989d aa2d 3720 6b2c dc61 782c
000000e0: e088 ef2c c2ae 8531 739b 242c d312 842b
000000f0: adc0 582c b9fd 612b 4b6d 042c 2404 3b2c
00000100: 4213 1b30 d299 a92f c2ed d62e 93ac 1a30
00000110: 7d34 0534 dddc 0330 7323 6d35 7213 802f
00000120: 4ea0 8f2f d93d 762f 669e 4d30 a9a7 712f
00000130: 9f5f 4e33 d459 c72f f10a 4336 a32c cf2e
00000140: 7e56 e22e f880 192e e90a 2e2f 6f33 452f
00000150: b3ae 732e a27d 652f 3b53 ab30 89c3 b330
00000160: 1a0e fb2e 5be7 6933 cab0 4530 8e3f 712f
00000170: 6a74 a82e 1b9c b42e 3f4b 132e 3a9f 5130
00000180: ae26 7530 04c4 7430 1316 4f2f 7531 e52f
00000190: a4d5 9e33 5420 8f30 b531 a935 d1b0 c62f
000001a0: 68b4 d530 5fd1 8d2f 9cc9 c030 cad9 8c2f
000001b0: 9591 fb34 87c5 3a30 d908 9c36 e6cd c22f
000001c0: 45fc 902f 6c14 db2e 93b9 a42f cac6 8630
000001d0: 47ba e82e c72f cd30 30f4 6530 99e4 3c31
000001e0: 63cc f72f be7e b333 f2a9 8530 e28b a62f
000001f0: 5ae6 af2e 784a 642f 91ff 122f d4e1 ce30
00000200: 6f28 9f2e 578d f02e 02bd 7c2d f666 112e
00000210: afb3 8132 a7cd 8f2f abf9 8034 f5d2 312d
00000220: d33f fc2f 65f9 a22d 2cd4 1d2e eab6 322e
00000230: 4b1c 1634 e670 462d 4450 8933 4de8 582e
00000240: 9c9c cd2e db41 9d2d 4962 222e b8ef 832f
00000250: 282a 662d 7814 e72f 59c6 552e 9957 eb2f
00000260: aaf4 3a2e c912 9e32 1c70 552f bf18 822d
00000270: bb8e 062d 6ff5 aa2d 491b 4e2d 02c4 8d2e
00000280: 99d7 4731 ebc0 4631 5a60 2e30 e450 f630
00000290: fde1 ce34 47fa 8931 dc77 d136 9a56 9330
000002a0: 0783 cc31 03fc 6730 b720 9d31 9a30 8330
000002b0: 639d ed35 6f53 fa30 ceba 7137 e29f e430
000002c0: 4831 ab30 331c eb2f e366 7f30 9fe8 6b31
000002d0: 0c87 c02f 4b51 cb31 45c5 9231 bd7f 2e32
000002e0: f75b e930 42c0 d734 f684 7731 375b 8a30
000002f0: f05a e02f a0c3 2f30 6e8b 1030 f774 8f31
00000300: f7d0 622f 6812 242f 5991 e52d bbf0 622f
00000310: adf2 2d33 473d 6f2f e388 7335 32e6 a72e
00000320: eeec 742f 48ac 362e f0cd da2e b7ab 2a2f
00000330: 308e 8e33 9ee6 7e2e e3f6 2635 0f25 7e2e
00000340: b126 a32e 3a67 662d c451 1c2f e493 042f
00000350: 46e5 d22d e8e1 042f 5eb6 f52f 5f8b 8730
00000360: ea8a 2e2e 34f4 1733 1d5d 3230 54bf d52e
00000370: 383b e72d 6424 3f2e 4610 8d2d d1d1 4c2f
00000380: 3cb9 ff2c 748b 012d 8d3a d02b 8355 572c
00000390: 2936 d530 b3e7 eb2d cb38 6b32 d98c a32b
000003a0: 0cc9 1f2e 1ce2 172c 82b2 332c 47b3 5e2c
000003b0: 2c92 3932 b0a2 892b 91b8 d931 ca7b 9a2c
000003c0: 28a2 da2c 5553 0b2c f21d 472c d823 a22d
000003d0: 8358 932b 3c7b 352e 355f a52c e92b c32d
000003e0: eec7 702c 2174 9e30 ddee 502d c62c a42b
000003f0: 6198 3e2b 20fd a12b 1e3a 2c2b 6bd9 a32c

exp_avg f4 [128]
3.6515e-05 1.655956e-06 -0.00033451722 -4.7512412e-06 1.2259215e-05 -0.00010617424 0.00020372897 3.978565e-05
-0.0013798344 0.00086951815 0.0006145952 -0.0001063833 0.0002610013 0.00033625428 -3.7612479e-06 0.00016925005
-0.00017108594 0.00039631026 9.7836884e-05 -0.00018345125 -0.0002105908 0.0022532963 0.00054840423 -0.00029997967
1.6264704e-06 -0.00026806715 -0.00056447025 -0.00027892983 1.9925035e-07 -0.0005304861 3.885623e-05 8.424957e-06
6.323108e-05 -0.0003150072 0.00048815113 2.546608e-05 9.661515e-05 0.00025837825 -0.0004510077 -0.0004277193
6.648889e-05 0.00011913475 5.429323e-05 6.638014e-05 -0.00033621906 -8.93334e-05 -0.000119374025 0.00041206766
0.0003006933 -6.280292e-05 -0.000861934 0.00016204578 8.558419e-05 -0.00084759924 0.0005420107 0.0003691022
0.00026760405 0.00027461376 0.00033705882 -0.0005923545 -0.000105665626 0.00024321079 -7.1711115e-06 0.00061905873
0.00014474514 3.5397916e-05 2.4753159e-05 1.4407e-05 -0.00037623852 -8.6557484e-05 0.00046024148 0.0007921682
2.3222941e-05 2.466528e-05 -7.208719e-05 -0.00037334106 9.039048e-05 -2.766574e-05 -0.0012740811 0.00027851845
0.00027600603 0.00018218378 -0.00020320964 -0.00062853046 -1.06507e-05 6.3106945e-06 7.287473e-05 0.0006106293
0.00014680254 -4.845586e-05 -1.14875875e-05 7.55778e-06 0.00026569923 -1.5168489e-05 0.00021712508 0.00016431374
-0.00015026424 -5.474174e-06 -2.0882399e-05 -0.00014802934 0.00028743065 0.00016033981 5.6094785e-05 -1.7096723e-05
-6.924457e-05 -0.00012998377 0.00066750904 0.00026166445 0.00025222395 0.00012684293 0.00039103942 0.00019182493
5.959879e-05 0.00028067856 0.00021213439 0.00019163018 0.00013048966 -3.9045746e-05 0.00067339937 0.0007327163
0.0006010955 0.0016736663 -8.3403735e-05 -0.00061843795 0.00014733455 -0.0009064476 -0.00084123184 -0.0009052313
00000000: af27 1938 3742 de35 2462 afb9 da6c 9fb6
00000010: edac 4d37 dca9 deb8 14a0 5539 84df 2638
00000020: 8fdb b4ba 60f0 633a c91c 213a 191a dfb8
00000030: 00d7 8839 494b b039 bf69 7cb6 b778 3139
00000040: 8865 33b9 ddc7 cf39 c72d cd38 d25c 40b9
00000050: 0ad2 5cb9 0aac 133b c9c2 0f3a 9746 9db9
00000060: 194d da35 5d8b 8cb9 f5f8 13ba 543d 92b9
00000070: 85f1 5534 5210 0bba 8ff9 2238 ea58 0d37
00000080: ed9a 8438 8d27 a5b9 89ee ff39 fe9f d537
00000090: dd9d ca38 f176 8739 3b75 ecb9 833f e0b9
000000a0: f36f 8b38 fbd7 f938 e9b8 6338 9135 8b38
000000b0: 8f46 b0b9 8158 bbb8 7158 fab8 c90a d839
000000c0: 5fa6 9d39 10b5 83b8 69f3 61ba d5ea 2939
000000d0: aa7b b338 6c31 5eba b915 0e3a 0f84 c139
000000e0: 354d 8c39 09fa 8f39 45b7 b039 3d48 1bba
000000f0: cd98 ddb8 6606 7f39 619f f0b6 5448 223a
00000100: bac6 1739 3978 1438 01a5 cf37 98b5 7137
00000110: e141 c5b9 3286 b5b8 914c f139 82a9 4f3a
00000120: e3ce c237 49e8 ce37 842d 97b8 fdbc c3b9
00000130: 0590 bd38 b913 e8b7 11ff a6ba 1d06 9239
00000140: e7b4 9039 9608 3f39 ac14 55b9 f7c3 24ba
00000150: 68b0 32b7 74c0 d336 53d4 9838 a312 203a
00000160: 02ef 1939 153d 4bb8 d0ba 40b7 d698 fd36
00000170: 8c4d 8b39 2a7c 7eb7 12ac 6339 a24b 2c39
00000180: 4090 1db9 ccae b7b6 9c2c afb7 5338 1bb9
00000190: 4ab2 9639 e420 2839 5147 6b38 ef6a 8fb7
000001a0: 6537 91b8 414c 08b9 c6fb 2e3a 0230 8939
000001b0: ed3c 8439 2401 0539 6c04 cd39 9d24 4939
000001c0: b7f9 7938 0a28 9339 6470 5e39 56f0 4839
000001d0: 0dd4 0839 0dc5 23b8 1187 303a c213 403a
000001e0: d692 1d3a ec5e db3a 0ae9 aeb8 ab1e 22ba
000001f0: d17d 1a39 ab9e 6dba 1d86 5cba 0b4d 6dba

exp_avg_sq f4 [128]
1.6925392e-07 1.358714e-08 3.0848157e-06 4.5001e-06 2.3632163e-07 1.775334e-05 1.1331387e-06 1.6106698e-08
1.8863753e-05 1.0572857e-05 5.783161e-06 6.4507053e-06 9.461026e-07 1.4144214e-05 7.335108e-07 1.0229289e-06
2.3756921e-07 3.326686e-06 4.8164375e-06 7.38619e-06 3.9694285e-07 9.270991e-06 4.169791e-06 4.8054403e-06
2.3634623e-06 3.0390256e-06 3.620763e-06 2.891069e-06 1.01311154e-10 1.1688035e-05 2.418422e-07 9.959904e-08
1.2047363e-07 1.7931578e-06 1.4584958e-05 2.948701e-07 2.4666886e-06 6.8083755e-06 1.3828954e-07 2.365237e-06
1.7215443e-06 2.5333415e-07 3.542084e-06 1.0931786e-06 1.3771647e-05 6.4446844e-08 3.735757e-06 5.2060536e-06
3.3171207e-07 3.8005002e-08 1.177155e-05 5.11164e-06 5.3470393e-07 1.4739751e-05 1.2263488e-06 5.0450208e-06
4.506869e-07 1.2846772e-06 3.5883006e-06 1.098033e-05 1.4046448e-07 4.3524096e-06 1.5881686e-07 2.0783336e-06
1.3247441e-06 1.1392144e-05 7.119237e-07 9.930606e-08 4.120957e-06 3.326939e-06 1.8769902e-06 4.7851886e-06
4.0622345e-07 3.4688785e-08 5.6834633e-06 1.1107404e-05 1.6100767e-06 1.2796287e-05 2.7268543e-05 2.8871818e-06
4.7218037e-07 5.8236435e-07 2.2334507e-06 5.7067373e-06 1.1926949e-08 9.205313e-06 6.338458e-08 1.2929157e-06
1.5569976e-06 5.368783e-07 1.1176293e-07 1.7807122e-07 7.0546403e-06 5.5571417e-07 3.3461479e-06 1.5325264e-06
4.6568818e-08 3.4532047e-06 1.5729037e-06 1.2502363e-07 7.792214e-06 1.0189785e-06 2.5070784e-07 1.2513124e-07
1.2573473e-07 8.164311e-07 9.449485e-06 1.0636502e-06 1.0796214e-06 4.3470436e-06 2.0728867e-06 9.511991e-07
6.256927e-07 3.74507e-06 5.526029e-07 7.239895e-06 5.3583886e-07 3.7868176e-07 2.0006364e-06 1.0079015e-05
1.461851e-06 1.11294485e-05 7.975426e-08 1.2540812e-06 1.2763267e-05 5.9163913e-06 4.8022953e-06 1.9825975e-06
00000000: 2abc 3534 e06c 6932 bb04 4f36 91ff 9636
00000010: 98bf 7d34 02ed 9437 5916 9835 015b 8a32
00000020: 9a3d 9e37 1362 3137 fa0c c236 2373 d836
00000030: adf7 7d35 f04c 6d37 7ae6 4435 924b 8935
00000040: 8716 7f34 0840 5f36 e29c a136 e4d6 f736
00000050: 691b d534 9a8a 1b37 3bea 8b36 6b3e a136
00000060: f99b 1e36 10f2 4b36 3cfc 7236 3004 4236
00000070: 1cc9 de2e ba17 4437 8ad6 8134 27e3 d533
00000080: 8a5b 0134 6fac f035 ebb1 7437 a34e 9e34
00000090: 6389 2536 8073 e436 bd7c 1434 76ba 1e36
000000a0: d00f e735 fb01 8834 8ab4 6d36 55b9 9235
000000b0: c60c 6737 0766 8a33 d1b3 7a36 a9af ae36
000000c0: 2916 b234 f13a 2333 6c7e 4537 a784 ab36
000000d0: 9388 0f35 c04a 7737 0699 a435 6648 a936
000000e0: f0f5 f134 2c6d ac35 89ce 7036 2938 3837
000000f0: 95d2 1634 ea0a 9236 3f87 2a34 8079 0b36
00000100: dccd b135 e320 3f37 061b 3f35 1542 d533
00000110: c046 8a36 6044 5f36 e4ec fb35 7590 a036
00000120: ed16 da34 b9fc 1433 94b4 be36 f059 3a37
00000130: d019 d835 a2af 5637 c0be e437 68c1 4136
00000140: fa7f fd34 c653 1c35 64e2 1536 807c bf36
00000150: 47e7 4c32 8570 1a37 0b1e 8833 3f88 ad35
00000160: 08fa d035 ff1d 1035 5202 f033 d833 3f34
00000170: e6b6 ec36 632c 1535 628e 6036 35b1 cd35
00000180: f502 4833 9bbd 6736 8f1c d335 3c3e 0634
00000190: 4ebb 0237 d6c3 8835 0699 8634 d05b 0634
000001a0: b301 0734 b828 5b35 3b89 1e37 bec2 8e35
000001b0: 82e7 9035 d2dc 9136 ec1b 0b36 e855 7f35
000001c0: 46f5 2735 d053 7b36 9556 1435 39ee f236
000001d0: 91d6 0f35 a04d cb34 ac42 0636 0a19 2937
000001e0: d134 c435 9eb8 3a37 5e45 ab33 e751 a835
000001f0: d021 5637 6a85 c636 6723 a136 c40c 0536
