notebooks/checkpoints/final_regressor_checkpoint_1.pth (torch, 195897 bytes, 24 tensors)

back.0.weight f4 [128, 32]
000000 e2 e9 2c be 30 6f 07 3f 1d 3a 94 be eb a6 ea 3f
       -0.16886094 0.52904034 -0.28950587 1.8332189
000010 af 69 22 3e 5b ad da bd e2 fc a4 bd 58 55 65 be
       0.15860628 -0.10677596 -0.08056046 -0.22395837
000020 1a d8 e1 be b7 fc 87 3f 7d 75 c4 bc c4 fd 95 bf
       -0.44110185 1.0623997 -0.023981804 -1.1718068
000030 cf 66 51 bd b7 e8 e3 bf d9 0d fb 3c dd 84 d3 be
       -0.051123437 -1.7805394 0.030646252 -0.41312304
000040 7c 01 b5 bf 78 a4 6d be 0e 1e 8b 3f 0a 91 04 bf
       -1.4141078 -0.23207271 1.0868547 -0.5178381
000050 ed 96 e6 3f b3 1a b0 be c6 6a ac bf 94 8c 1d 3e
       1.8014809 -0.3439537 -1.3470085 0.15385658
000060 58 e5 0c 3e af 8c 27 3e 33 50 bc 3e 04 91 30 3e
       0.13759363 0.1636226 0.36779937 0.17242819
000070 59 38 c4 bd f1 2b 33 3f f9 2c 45 3f 79 c9 05 3f
       -0.0958106 0.69988924 0.7702175 0.5226055
000080 6f c3 fd 3e 43 be 61 bf 20 33 e6 3e 38 b4 6d bf
       0.49563166 -0.8818094 0.4496088 -0.92853117
000090 5a 31 6b 3c 1f ad b4 3e 5d fd e7 3c 7e 0c 58 3f
       0.014355028 0.3528833 0.028319055 0.8439406
0000a0 04 af e6 bb cd 5f e0 3e 94 db 8e 3f 76 8f 63 bf
       -0.0070399065 0.4382309 1.116076 -0.8889078
0000b0 ce 1d 8e bd 07 dc 04 c0 06 3c 7c 3e dc 30 f4 be
       -0.069392785 -2.0759294 0.24632272 -0.47693527
0000c0 e0 99 ba bd 2c 0e 18 bd d1 94 92 bf 22 1d 26 bf
       -0.091113806 -0.03712289 -1.1451665 -0.64888203
0000d0 d2 1e e6 3e 6f 65 43 3e 0a e0 53 bf 2d 60 fd 3e
       0.4494539 0.19081663 -0.8276373 0.4948744
0000e0 a9 36 5f be 07 0e 2e bd 64 0d 0a 3f ef ee 12 3f
       -0.21798195 -0.042493846 0.5392668 0.57395834
0000f0 52 6a e5 3e 98 be 11 3f 74 4f b3 be 73 19 1f 3f
       0.44807678 0.5693145 -0.35021555 0.6214821
000100 c2 02 79 be 5c 11 bf 3e 29 9a b9 bd f5 8a 9d 3f
       -0.24317458 0.37317932 -0.09062607 1.2308031
000110 f9 4c 38 3e d5 1b 77 3c bf 29 80 bc 66 20 9e 3e
       0.17998113 0.015082319 -0.015644906 0.30884093
000120 13 21 86 be 12 c3 d2 3e ca 26 23 3d e7 a8 f8 3c
       -0.2619711 0.41164452 0.039831914 0.030353976
000130 f7 21 e1 3c c7 1e a9 be 58 b5 d0 bd 32 01 45 be
       0.027482016 -0.33031294 -0.101908386 -0.19238737
000140 b6 01 db bd f1 74 36 3e df 41 81 3f af 70 0c be
       -0.10693686 0.17818047 1.0098227 -0.1371486
000150 56 2a 29 3f a5 95 5c be 26 d0 18 bf ba 28 36 bf
       0.66080225 -0.2154146 -0.5969261 -0.71155894
000160 76 e5 02 3f e4 c7 cc be 80 cb 24 3f 4f 5f 9a 3c
       0.5113138 -0.39996254 0.64373016 0.018844275
000170 82 a2 da 3e 75 90 5c be ce 73 79 3f d7 6c 1b 3e
       0.4270211 -0.21539481 0.9744233 0.15178238
000180 42 dd 13 3f 28 b7 4e bd 5a 74 86 bf b8 e9 c0 3e
       0.5775949 -0.05046764 -1.0504258 0.37678313
000190 ba ce 88 3e 72 a5 1d 3e 34 d0 a8 3c f1 f2 bd 3f
       0.2672022 0.15395144 0.020607091 1.4839765
0001a0 9c ac e2 3d 17 72 08 be a8 fa 2c 3f d7 e7 b6 3f
       0.11068079 -0.13324772 0.6756997 1.4289502
0001b0 95 e6 f3 bc 88 22 2d 3f fc 3f e1 3b da f8 44 be
       -0.029773036 0.67630816 0.0068740826 -0.19235554
0001c0 17 d5 49 3f 5d 38 9e 3f ee 01 7e be c0 a8 24 bd
       0.78840774 1.2360951 -0.24805424 -0.040199995
0001d0 1a 16 ac 3f 77 33 54 bd ec 36 0c bd 90 e9 ee be
       1.3444245 -0.051806893 -0.034232065 -0.4666257
0001e0 77 e8 a6 3e ae 37 7d be 6f d5 02 3e 81 54 50 be
       0.32599232 -0.24728271 0.12776731 -0.20344736
0001f0 35 6c 0b 40 4d e3 9a 3f 8d 41 2a bf 1b 1b fa be
       2.1784794 1.2100617 -0.6650627 -0.48848805
000200 87 fd ad be 65 63 36 3e a5 e8 a9 3e 33 52 39 3f
       -0.3398249 0.17811354 0.33185306 0.7239105
000210 7c e2 91 3c bc 6f 7c bd 4c f3 48 bd 6d b7 0f 3f
       0.017808191 -0.061629996 -0.04906015 0.5613926
000220 9e 4a 9a be 64 db 44 bf 43 3c f5 bd 01 1b 24 bf
       -0.30135053 -0.76897264 -0.11974385 -0.64103705
000230 74 3a e4 bc 55 73 c0 3d 85 2e 6f 3d 2d 34 25 bf
       -0.027859904 0.09396998 0.058393974 -0.6453274
000240 b9 a4 ab bf 8e b3 44 bc a3 1b 77 bf 1f e9 f7 be
       -1.3409644 -0.0120057 -0.96526545 -0.48420045
000250 a4 10 af bf 06 d1 e4 be 84 07 e8 be ca a8 43 bf
       -1.3676953 -0.44690722 -0.45318234 -0.76429427
000260 d3 fd a0 3e e9 41 59 be 7b 86 68 3f 96 45 10 bf
       0.31443653 -0.21216549 0.908302 -0.5635618
000270 ec bf 25 be 26 1e c8 bf 65 01 c0 3f 58 08 a9 3f
       -0.16186494 -1.56342 1.5000426 1.3205671
000280 1e 7e d5 3c 15 88 28 3f d8 cc 3d 3e d4 8a 1e be
       0.026061114 0.65832645 0.18535173 -0.15482646
000290 da d0 58 3c 4d 72 ec 3e 9b 0d e6 bd 77 96 2f be
       0.013233388 0.46180955 -0.11233064 -0.17147242
0002a0 bd 19 97 3e a9 f5 33 3d cd f5 fa 3d e4 6f f5 3d
       0.29511824 0.04393545 0.12253914 0.11984232
0002b0 92 37 a8 3d ea d9 d4 be 7e 55 02 bc bf 3d 52 bd
       0.08213724 -0.41572505 -0.007954953 -0.051328417
0002c0 99 6d 2a be 36 0a a1 be 43 0d d4 39 33 f9 92 be
       -0.1664337 -0.31453103 0.00040445672 -0.2870575
0002d0 cb f5 3e bd 87 72 db be c7 9a 16 bf e4 d6 86 be
       -0.046621125 -0.42860815 -0.5882992 -0.26335824
0002e0 94 74 4a 3e 29 f3 c7 3e e2 f0 8d 3e 97 be 4f 3e
       0.19771034 0.39052704 0.27722842 0.20287548
0002f0 75 27 42 bf b1 64 09 bf 07 58 94 3f b5 4d 5b 3c
       -0.75841457 -0.5366927 1.1589364 0.013385226
000300 02 af b6 be c9 4a ef be 60 ee 0f bf 52 70 11 40
       -0.35680395 -0.46736744 -0.56223106 2.2724805
000310 f5 9c 36 3d 29 e1 20 bf 43 ad 9d bb 8b 66 f5 bd
       0.04458328 -0.6284357 -0.004811914 -0.11982449
000320 57 94 c6 3c 78 40 24 3f 3d af 0e bf f2 81 92 bf
       0.024240656 0.6416087 -0.5573614 -1.1445906
000330 f4 71 5a 3e 53 a3 0e 3f dd 58 0b be 1c 8f 51 3e
       0.21332532 0.55717963 -0.13608117 0.20464748
000340 13 1d 12 3f 1f cd 52 3f a8 77 b3 3f 01 30 01 3f
       0.57075614 0.8234424 1.4020891 0.50463873
000350 ff e3 db 3e 66 79 2d bd 0c 25 02 40 b0 50 46 be
       0.42947385 -0.042352103 2.0335112 -0.19366717
000360 e3 dc 4e bf 7f 06 21 be 08 c5 10 3e 55 b5 b7 3d
       -0.80805796 -0.15725134 0.14137661 0.08970133
000370 42 9f 51 bf 90 9b 59 3f cf 15 1b 3f ff 38 e5 be
       -0.81883633 0.85002995 0.6058015 -0.44770047
000380 72 97 fb 3d 17 9f 3d be c3 32 00 bf 17 bd 6c 3e
       0.12284745 -0.18517719 -0.50077456 0.23119007
000390 be 94 cc be 76 60 33 be 02 15 e7 bd 4b 87 a7 bd
       -0.3995723 -0.17517266 -0.11283304 -0.08180102
0003a0 5d 8d 2d bf 4a e2 6e 3f 3e 0e f6 be 98 c0 0b bf
       -0.6779383 0.9331404 -0.4805774 -0.5459075
0003b0 27 f9 17 bd db 28 3b be 07 01 2b bd ba d0 4e bf
       -0.037102845 -0.18277304 -0.041749027 -0.8078724
0003c0 9e 82 cd bd ed bd f0 be df 46 2c 3e 79 9d 5a be
       -0.10034679 -0.47019902 0.1682391 -0.21349134
0003d0 d5 19 33 3e 0c 5f a7 3d fc 48 72 bc 7e 2b 94 3e
       0.17490323 0.08172426 -0.014787909 0.28939432
0003e0 d8 c8 44 3e 11 44 81 be 00 20 16 be ce 97 32 bf
       0.19217241 -0.25247243 -0.14660645 -0.69762886
0003f0 8a c8 fa be f7 14 9c 3e 25 a9 5b bf 85 83 b9 3e
       -0.48981124 0.30484745 -0.8580497 0.36233154

back.0.bias f4 [128]
000000 fd f4 36 be e5 cd 02 bd 42 e4 32 be c4 dd fd 3c
       -0.17866893 -0.031934638 -0.17469886 0.030989535
000010 d7 aa 67 be c3 7b 49 bd 94 81 16 be 74 69 96 bc
       -0.22623764 -0.049190294 -0.14697868 -0.01836083
000020 55 1d 59 be 1f 45 76 be 57 3e aa bc d8 b9 11 3d
       -0.21202596 -0.24049805 -0.02078168 0.035577625
000030 b6 1b 6b be c7 f7 34 3d 5a b9 f2 3c 1a ba 40 bd
       -0.2295979 0.04418161 0.029629398 -0.04705248
000040 89 80 fa 3c 12 6c 17 bd c7 ad 09 be 2a 17 1d be
       0.030578868 -0.0369683 -0.13445197 -0.15340868
000050 39 2d 4c be af 66 cf bd 42 1c 09 be 29 0e 9c be
       -0.19939126 -0.10127007 -0.13389686 -0.30479553
000060 f1 62 70 bd 10 5d dd 3c a3 8d d8 ba 26 a3 54 be
       -0.058688108 0.027021915 -0.0016521703 -0.20765361
000070 4b c6 5c 3c 85 b5 55 be 06 22 aa bd a1 a0 80 be
       0.013475011 -0.20870025 -0.08307271 -0.2512255
000080 8d 7b 44 be 67 9f 09 be e4 41 39 be 27 b0 93 bd
       -0.19187756 -0.13439713 -0.18091542 -0.07211333
000090 23 2c bc bd d7 c0 d7 bd e5 17 45 3d 87 75 92 bd
       -0.09188106 -0.10534828 0.04811849 -0.07151323
0000a0 36 2e 9f bd 98 90 f9 bd d1 89 51 3c 58 32 03 bc
       -0.07772486 -0.12185782 0.012789206 -0.008007608
0000b0 5f ed a7 bd 05 a8 8f bd 46 6f 28 be 0a fa 9f bd
       -0.08199572 -0.07014469 -0.16448697 -0.07811363
0000c0 95 7e 37 be 29 b1 21 bd fd ae 3a bd 8d c9 21 be
       -0.17919381 -0.039475594 -0.045577038 -0.15799542
0000d0 1c 08 dd 39 f2 35 31 bd f4 0d 2f be a1 7e 52 be
       0.00042158447 -0.043264337 -0.17095166 -0.20556118
0000e0 5a 52 9a bd 68 0d 6b bd c8 10 e4 bc c2 bc 44 be
       -0.075352386 -0.057385832 -0.027840033 -0.1921263
0000f0 04 4c f6 bd 8a 7e 4c be eb 69 8f 3d de 23 a1 be
       -0.120262176 -0.19970146 0.07002624 -0.31472677
000100 5b 65 e4 bd 43 d4 3b be 19 4b a0 bd 8a ac 09 be
       -0.111521445 -0.1834269 -0.07826824 -0.13444725
000110 8c 52 af bd 35 dc 15 bd d8 4b 40 be 40 c4 62 be
       -0.085606664 -0.03658696 -0.18778932 -0.22145176
000120 8b 70 a4 3d 73 8d a6 bd ee da c4 bd b0 db 88 bd
       0.08029278 -0.08132448 -0.0961207 -0.06682527
000130 f7 b3 61 bd 1a 80 82 be 84 a2 2b be 17 e5 ff bc
       -0.05510327 -0.2548836 -0.16761214 -0.031237168
000140 f1 85 6d be f7 12 51 bc 23 8a a2 3a 4d c2 62 bc
       -0.23195626 -0.012760869 0.0012400787 -0.01384027
000150 3d c1 24 3d 27 75 b3 bd 2f d4 04 be 13 48 d8 bd
       0.04022335 -0.087625794 -0.12971567 -0.10560622
000160 8b f9 54 be 11 1d d2 bc 29 6c ea 39 ea 9a 12 be
       -0.20798318 -0.025648626 0.00044712544 -0.14316908
000170 21 38 d5 bd 2a 1b 82 3b 96 06 98 3d 86 2d 9c bd
       -0.10411096 0.0039705234 0.07423131 -0.076258704
000180 f3 84 ea bc e7 81 50 be 84 34 1b be f7 13 f6 bd
       -0.028627848 -0.20362054 -0.15156752 -0.12015527
000190 b2 cf a4 3c 92 03 04 be a6 a6 45 be 90 0f 66 3b
       0.020118568 -0.12891987 -0.19301853 0.003510449
0001a0 93 ff 12 bd d6 b0 a8 be 9a 45 8d be e1 fa 46 3c
       -0.035888266 -0.32947415 -0.27592164 0.012144775
0001b0 43 bf 20 bd 6e f1 23 be 74 87 65 be 2f 7c 4f 3d
       -0.0392449 -0.16010067 -0.22414953 0.05065554
0001c0 c2 c5 32 bc 6f 7a f9 bd ff 11 a8 bd df 70 49 bd
       -0.010911407 -0.121815555 -0.082065575 -0.049179908
0001d0 28 30 63 3d fc b6 d6 bd 63 bd bc bd b1 8e f2 bd
       0.055465847 -0.1048412 -0.0921581 -0.118436225
0001e0 2b 7e 03 be 84 7c ad bd c0 cf a8 3d df 7c e0 bc
       -0.12841098 -0.08471015 0.0824275 -0.027403293
0001f0 e8 13 b6 3d 90 b0 8b 3d 58 c5 b4 bd 17 cc 68 3c
       0.088905156 0.06820786 -0.08826703 0.014208815

back.3.weight f4 [64, 128]
000000 28 61 71 bd cc 4d 36 be c3 10 dd 3c 77 de a6 3d
       -0.058930546 -0.17803115 0.026985532 0.081479006
000010 0f 85 42 bd cb d0 04 bf 88 af 0c 3e 5f 94 dd 3c
       -0.047490176 -0.5188109 0.13738835 0.027048288
000020 fe 23 1e be 95 f9 33 bd e2 60 d2 be c9 07 cc bc
       -0.15443417 -0.04393919 -0.4108954 -0.024906056
000030 cf 49 10 3c fe 77 71 3d 56 f1 c9 3c cb 5d 00 bf
       0.00880666 0.058952324 0.02465121 -0.50143117
000040 2f c3 d0 3d b2 75 04 be a1 e3 37 3e 77 b3 c2 be
       0.10193478 -0.12935522 0.17957927 -0.38027546
000050 5b 07 a3 3e 31 b8 8d be 08 0e ea be 3b a8 a0 3e
       0.3184155 -0.2767959 -0.4571383 0.3137835
000060 93 bf db be 4a d5 24 be d6 e8 6a bf 55 1b ff 3d
       -0.42919597 -0.16096988 -0.9176153 0.12456385
000070 b3 c8 81 bc c7 e6 41 be 36 c9 fd be 81 47 67 3e
       -0.015842771 -0.18935691 -0.49567574 0.2258587
000080 e7 33 ba 3c 92 d3 05 3c 7d d8 f2 3e 4d 0c af be
       0.022729827 0.008168118 0.47430792 -0.34189072
000090 ec ab b0 3c 33 01 1e be b7 10 fe 3c d5 00 8e 3c
       0.021566354 -0.15430145 0.03101383 0.017334381
0000a0 06 22 de bc ec 00 25 bf 04 d7 9e bc 66 06 91 bb
       -0.027115833 -0.6445453 -0.019389637 -0.0044258116
0000b0 5c e4 cf 3b e7 c7 57 be fa 31 f3 3e 21 e5 3b be
       0.006344361 -0.2107235 0.47499067 -0.18349124
0000c0 c2 f9 40 bf 0d ab 03 3d 60 80 12 3e 61 61 1f 3c
       -0.753811 0.03214555 0.14306784 0.009727807
0000d0 8a d9 0a be ca b3 24 be 0a e1 9c 3d e1 c9 7e be
       -0.13559547 -0.16084209 0.0766011 -0.24881698
0000e0 09 c9 9a 3c 9e 6f 8a be 68 d4 b1 3d b3 b8 8f be
       0.01889469 -0.27038282 0.086830914 -0.28070602
0000f0 bc ac 8f be d1 27 d5 be 2b 34 75 be f2 99 d9 3e
       -0.28061473 -0.4163194 -0.23945682 0.42500263
000100 92 75 88 be ae 67 03 be a0 c8 61 3b c8 88 56 3d
       -0.266522 -0.1283252 0.0034451857 0.05237654
000110 56 71 13 bf 0a 8f 33 3b 4c f2 25 3e 4a 21 12 3c
       -0.5759481 0.002739849 0.1620571 0.00891907
000120 04 c6 76 bc c6 2d 47 3d 3b b4 0a be 99 12 9c 3c
       -0.015061859 0.048627637 -0.13545315 0.019051837
000130 35 81 91 bf c1 4b b4 3e 42 3d ed be f7 a4 af 3c
       -1.1367556 0.35214046 -0.46335799 0.021440966
000140 6f 0b a0 bd 5a f3 77 be ac 0d be bf 9d 06 0f 3d
       -0.07814681 -0.24213925 -1.4847922 0.034918416
000150 de 77 b4 3d 34 e7 57 bf 20 de 96 be 5c 1c 82 3d
       0.08811925 -0.8433716 -0.29466343 0.06353065
000160 b6 34 a5 3e 9b 07 98 3d 9b 0f 8d bf c8 46 e2 3e
       0.32266778 0.07423326 -1.1020387 0.44194627
000170 31 64 1a bc 6c 2e a2 bd 0b d4 d5 3c ab 9c 91 3e
       -0.009423302 -0.079190105 0.026102087 0.2843984
000180 b3 d8 1e bf a3 fe 1e bd 38 8f ba be b3 ab ac 3e
       -0.62049407 -0.03881706 -0.36437392 0.33724746
000190 f8 f8 d8 3b ba d4 2a bf ad af 70 3d 1a a8 d1 3c
       0.0066214763 -0.66730845 0.058761287 0.025592852
0001a0 76 69 bc bf 72 91 80 3e 5a b2 9b bd 2b c9 38 bf
       -1.4719684 0.25110966 -0.07602377 -0.7218196
0001b0 03 b4 da 3d 35 71 bb 3e 65 ac 8d be 34 09 78 bf
       0.10678866 0.36609808 -0.2767059 -0.9688904
0001c0 6c 67 6d bf d1 fe 3d 3e da 97 1d bd 3c c1 80 bb
       -0.92735934 0.18554236 -0.038474895 -0.0039292853
0001d0 0d 64 53 bf 6e f9 8c be 77 a3 5d be 59 6b 89 3c
       -0.8257454 -0.2753405 -0.21644388 0.01677482
0001e0 ae 89 b0 3e 74 e5 51 bd 44 4b 60 3d bd dc a4 3d
       0.3448004 -0.051244214 0.05475928 0.08049915
0001f0 64 23 1f 3d 41 c8 6c 3d 11 07 26 be 4a 80 30 bf
       0.03885211 0.057808165 -0.16213633 -0.68945754
000200 b2 7e 54 3d 83 e3 46 bc cd 59 ef be 17 5e 12 bf
       0.05187864 -0.012139204 -0.467482 -0.5717482
000210 9e d3 3c be 25 11 4e bd 82 a7 c3 be 0c 86 5d 3c
       -0.184401 -0.05030932 -0.38213736 0.013520729
000220 b0 7b 36 3e 4d 8e 80 3e bc c0 47 bc b1 bd a4 bb
       0.1782062 0.25108567 -0.012191948 -0.005027496
000230 32 be b4 3c 45 33 e3 be 75 07 8c bf 54 81 db bb
       0.022063348 -0.44375053 -1.0939776 -0.0066987667
000240 a6 44 2c bf 99 21 2d be d7 e8 9e be 1b ec 6a bd
       -0.6729225 -0.16907348 -0.31037018 -0.057354074
000250 f4 01 46 3f bc 72 93 3c 18 a9 eb bd 2a e8 66 3e
       0.7734673 0.017999046 -0.115068614 0.22549501
000260 c0 28 d1 3c 71 d9 9f bc e5 f3 cf 3d aa 52 47 be
       0.025532126 -0.019512864 0.10153941 -0.19465128
000270 1f ca 9b bd 93 37 a7 3c af 24 73 3d ad 51 8c bd
       -0.07606911 0.020412242 0.059361156 -0.06851516
000280 f6 01 3b 3e 50 8f ab be cb ae a5 be 71 39 33 bd
       0.18262467 -0.33507776 -0.3235992 -0.043755952
000290 5d a9 e7 3d ba 8d eb bd a4 74 03 bd 7e c8 d8 3c
       0.113116 -0.115016416 -0.03209366 0.02646279
0002a0 5e cd 02 3f bf c8 8a 3d c8 f3 b0 bd f5 47 85 3d
       0.51094615 0.067765705 -0.086402476 0.06507865
0002b0 5f e0 f5 bc 9d 83 88 3d fe 54 38 be 84 d7 23 3e
       -0.030014215 0.06665728 -0.18001172 0.16000181
0002c0 04 08 95 be 69 86 37 bf 07 90 41 3e d1 89 81 3c
       -0.29107678 -0.7168947 0.18902598 0.015812786
0002d0 9d 20 53 bd ff e2 2f be d9 57 8c bd cf 32 2a 3e
       -0.051544774 -0.17176436 -0.06852693 0.16620944
0002e0 2c dd 0f 3c ec 68 05 be c9 ac 88 bd 87 99 d2 bc
       0.008780759 -0.13028306 -0.06673581 -0.025707973
0002f0 8a 50 4d 3d 32 17 13 3e d7 25 67 3b 13 88 3c 3f
       0.050125636 0.14364317 0.0035270357 0.7364513
000300 49 e3 8d 3e 95 0c 46 3f 8e 37 18 bf 7f 43 11 3f
       0.27712467 0.7736295 -0.5945977 0.56743616
000310 85 7e 93 3f 41 47 08 3d 7d 04 68 3d a3 4c 85 3e
       1.1522986 0.033271078 0.056644905 0.26035032
000320 40 2a 33 3d e1 e2 24 bf 19 73 ef 3c bd 5f 1d 3d
       0.043741465 -0.6440869 0.029229688 0.03842138
000330 b3 d6 1f bf 72 da 82 3e 2a 4f 6c 3c 87 be be bc
       -0.6243698 0.25557286 0.014423171 -0.02328421
000340 20 16 69 be 46 88 fa bb e8 3b 11 3e c7 fd d2 3c
       -0.22762346 -0.0076456396 0.14183009 0.025755776
000350 2b b2 25 bc 23 29 0c bf 0b d5 99 3c a5 31 ed 3d
       -0.010113279 -0.5475027 0.018778345 0.115817346
000360 aa dc e9 3e f6 5b 0d bf 9c 73 ed bb a9 4f b7 be
       0.45676166 -0.55218446 -0.0072464477 -0.35802963
000370 45 34 86 3e 9a 2e 8b 3c 16 81 37 bf e4 3c ab 3e
       0.26211753 0.016989995 -0.71681345 0.33444893
000380 b5 bf 5e 3d 9f b3 9d be 32 fb 16 bd fd 84 7b be
       0.054382045 -0.30801103 -0.036860652 -0.2456245
000390 3b 2f 30 3d 41 0d 81 be 6d 92 a2 3d d4 1c 65 bd
       0.043013792 -0.25205424 0.07938085 -0.055935696
0003a0 f5 2b 0b bf a2 c9 1d 3f 1c bd 45 bd ab 5d 6e 3c
       -0.5436395 0.6163579 -0.048276052 0.014548699
0003b0 03 20 14 bf de eb 15 3f 38 79 2f be 6c 73 c9 bc
       -0.57861346 0.5856303 -0.17136085 -0.02459117
0003c0 37 f6 a1 3c b3 a8 4e be 6a 8d cd bd 46 ba 06 bc
       0.019770725 -0.20181541 -0.10036738 -0.008223122
0003d0 b3 67 f5 bc 54 d0 ae be e3 20 23 be eb db de be
       -0.029956674 -0.34143317 -0.15930514 -0.4352716
0003e0 79 dd 00 3e 4d de 3a be d6 89 02 bd 0c 93 3e bd
       0.12584485 -0.18248864 -0.03186973 -0.046526954
0003f0 7a d7 02 3d 60 1c aa bc d1 26 1b bf eb 64 c7 bc
       0.031943776 -0.020765483 -0.60606104 -0.024340114

back.3.bias f4 [64]
000000 48 c8 ef bb fd d5 c0 3c f4 d1 2b 3c 63 87 45 bc
       -0.0073175766 0.023539538 0.010487068 -0.0120562045
000010 0f 15 aa 3c df 92 1e 3b 19 02 cd 3c a0 04 6f 3c
       0.020761995 0.0024196429 0.025025414 0.014588505
000020 68 d3 49 bc 1e bb 0d 3e 40 5f 51 ba e9 07 56 3d
       -0.01231847 0.13840911 -0.00079869106 0.052253637
000030 ac 59 5d 3d a5 8f 8d bc 91 01 13 3d 45 10 b8 3d
       0.054040596 -0.01728041 0.035890166 0.08987478
000040 b7 5d 42 bc e0 40 79 3b 81 ae 7f 3d cc 96 56 3c
       -0.011863164 0.0038033053 0.06242228 0.013097476
000050 82 fc b1 3c ef d8 57 3d 56 e9 63 3b 3b 3a b3 3c
       0.02172685 0.05269712 0.003477653 0.021878352
000060 a8 da 46 3d 03 5f 38 3d b9 b4 15 3d fb 79 ee bb
       0.04854837 0.045012485 0.036549304 -0.007277725
000070 c5 13 5b 3d b5 01 82 3b fc a6 22 3c a2 96 11 3e
       0.05348565 0.0039674887 0.0099275075 0.14217618
000080 34 3d 2c 3d fc 2e b9 3c b8 6a a4 3d 8b 4a d8 bc
       0.042050555 0.022605412 0.080281675 -0.026402732
000090 38 e3 97 3d 96 d6 f6 3c ee e6 d0 3b 49 41 62 bc
       0.074163854 0.03013162 0.006375185 -0.0138095105
0000a0 b0 31 a3 3d 03 92 9b 3c d2 1f f3 3c 16 b9 84 bc
       0.079684615 0.018990522 0.029678259 -0.016201537
0000b0 6d e9 1e bc e5 67 8f 3c e1 7e 6d 3d aa ae 45 be
       -0.009699208 0.017505595 0.05798233 -0.1930491
0000c0 5e a6 22 3d 5e 33 2e 3d 36 5b 65 be b4 90 94 bb
       0.03970944 0.042529456 -0.22398075 -0.0045338515
0000d0 5b dd e0 3d ee 1b 04 3c 6e 16 06 3d 1d 8d 2f 3d
       0.1097972 0.0080633 0.032736234 0.042859185
0000e0 17 46 f2 bc 52 9f 56 bd ae 73 cf 3c 59 fa a7 3d
       -0.029574437 -0.052398033 0.025323715 0.08202047
0000f0 ef a0 12 3d 78 b0 8c 3d ee d1 40 3d 26 e4 7a 3c
       0.03579801 0.06869596 0.047075205 0.015313184

back.6.weight f4 [32, 64]
000000 a7 de 76 3b 36 04 70 3c 8c 9e 44 bd ac ab 8c be
       0.0037669332 0.0146494415 -0.048002765 -0.27474725
000010 fb 9b 36 3d d8 17 19 bf 30 b6 4b 3d 9d 58 46 bc
       0.04458235 -0.5980201 0.049734294 -0.012106088
000020 59 77 01 be ef d7 a5 3d b5 9d ac 3b b8 8a 18 bd
       -0.12643184 0.08097827 0.0052678236 -0.037241668
000030 b7 4e ba 3d 99 36 62 be e6 75 96 3a c6 be 44 be
       0.09097045 -0.2209114 0.0011479228 -0.192134
000040 a4 64 08 bd a9 e6 fe 3c 27 cf 90 3d d7 46 89 be
       -0.033299103 0.031115847 0.07070761 -0.2681186
000050 57 e4 28 3e a8 1a 63 3e 53 ee 76 be 1a 78 38 3d
       0.16493355 0.22178137 -0.24114351 0.045036413
000060 d7 c8 bb bc 83 de 17 3e 8d 8d 39 bd 42 a0 28 3e
       -0.022922916 0.14830975 -0.04530101 0.16467384
000070 85 49 d1 3c fe e5 07 bc 90 d1 61 3d ba 9f 85 3c
       0.025547752 -0.0082945805 0.055131495 0.016311515
000080 60 8d c7 bd 55 1b 71 bd 4f 8c 8a bf 7f 66 58 be
       -0.09743762 -0.058863956 -1.0824069 -0.21132849
000090 ec 00 f0 3d 25 16 08 3d 7e fd 2c bd a1 ed ea 3c
       0.11718926 0.033224244 -0.042233936 0.028677763
0000a0 48 06 16 bd 62 d6 35 ba 65 74 1b bf 3d 08 8e bd
       -0.036627084 -0.00069365476 -0.6072448 -0.06935165
0000b0 8f b2 c4 bd 36 0a 43 3e 9d 22 dc 3d 80 61 55 3e
       -0.0960437 0.19046864 0.107487895 0.20837975
0000c0 26 66 9e bc 60 44 45 3c e5 2c 6b bc 00 ea 08 bf
       -0.019335818 0.012040228 -0.014353965 -0.53482056
0000d0 6f 5a 0c bf 7e 69 3f bf 8e d2 e7 3c 08 f8 db bc
       -0.5482549 -0.74770343 0.028298642 -0.026851669
0000e0 a6 90 19 3e 76 d9 3e bf 9d 99 20 bd da 44 bd 3c
       0.14996585 -0.7455057 -0.039208997 0.02310412
0000f0 91 2c c9 3d 3c f8 06 be 4f 80 27 3c b3 a2 be 3d
       0.098229535 -0.13180631 0.010223462 0.09308376
000100 01 da e0 3d 07 54 1e 3e 5f f0 49 3e 4e b6 9c 3d
       0.10979081 0.15461741 0.197206 0.07651959
000110 f8 fb bc bc 24 bf df 3c 10 a1 fe 3d 31 d3 f6 bd
       -0.023069367 0.027312823 0.12433064 -0.12052
000120 de 5f 4e bd 1a db 48 bd e8 fa e1 3d 00 6d 3a be
       -0.050384395 -0.049037077 0.11034185 -0.18205643
000130 17 c5 26 3d 34 6b ea 3a 32 52 c8 be 32 db aa 3c
       0.040715303 0.0017884732 -0.3912521 0.020856474
000140 81 9f 85 3d 68 3f 49 3c 94 fc 5d 3e 25 c8 ee bc
       0.065245636 0.012283184 0.21678382 -0.02914817
000150 e7 74 03 3d 87 c8 52 bc 26 e2 d5 3c db c5 1d 3d
       0.03209391 -0.012865192 0.026108813 0.038518768
000160 50 ba e9 bd d8 c0 c4 3c dc 2a 71 3b 16 33 b8 3c
       -0.114124894 0.024017736 0.0036799228 0.022485297
000170 41 5a a4 3e 77 b0 fd 3d 29 fd 06 3e 31 ca c3 bd
       0.32100108 0.123871736 0.1318251 -0.09560049
000180 6c 6b ac 3c 8b e2 5c 3d 6b 05 a9 3c 5f d7 93 bc
       0.021047316 0.053926986 0.020632466 -0.018047033
000190 54 e6 5c bd 3e 50 1f 3e aa f9 68 3e d5 8e 32 3e
       -0.053930596 0.15557954 0.2275149 0.17437299
0001a0 29 b6 8a 3d ed e5 7c be 86 cf 09 3c 85 67 7f 3e
       0.067730255 -0.24697085 0.008411294 0.24941833
0001b0 1a 96 6c 3e 40 d2 89 3d 39 88 3e 3d 10 7e a3 3d
       0.23104134 0.06729555 0.04651663 0.07983029
0001c0 97 8d 3b be 65 ff ca bd c1 bd 03 be cf 06 00 3d
       -0.18315731 -0.09911994 -0.12865354 0.031256493
0001d0 81 56 98 3c 71 75 4d 3d 7d 59 5b 3e b6 7b 8f 3e
       0.018595936 0.05016083 0.21420856 0.2802407
0001e0 3d 6a 94 3d ea 25 4e 3d 29 b2 c2 bc 73 39 ab 3e
       0.07246826 0.050329126 -0.023766594 0.33442268
0001f0 b6 00 d8 3d f7 e8 13 3e fb 1b 1b 3e 84 d2 25 3e
       0.105470106 0.14444338 0.15147392 0.16193587
000200 15 d8 11 be d9 ae 27 3e ad 04 ed 3d d6 a7 9e 3d
       -0.14242585 0.16375293 0.115731575 0.07746856
000210 19 5c 46 3d 15 1c 25 bd c7 2e 57 3d ab fd ff be
       0.048427675 -0.040309984 0.052534845 -0.4999822
000220 37 c8 bd be 69 f1 be 3d dc 9d ff bd 25 f1 d2 be
       -0.37066814 0.09323389 -0.12481281 -0.41199604
000230 c3 4f 7c be f0 fa 47 3d 5e 91 14 bf 36 fc 22 3a
       -0.24639802 0.048823297 -0.5803431 0.0006217392
000240 69 85 8f 3d a3 a7 e3 3d 86 21 46 3e 0d d7 ea ba
       0.07007868 0.111159585 0.19348726 -0.0017916873
000250 6b 5c ba bc ca e0 38 bd 7d 56 85 bb 3c 18 fb 3c
       -0.022749146 -0.04513625 -0.004069148 0.030651204
000260 00 25 0d bf 86 e3 0d 3d 1a fb 8d bd 3a 1b 8b 3b
       -0.5513458 0.03464081 -0.069326594 0.004245189
000270 59 0f cd 3d f5 d0 aa 3d 3d 05 55 be 5a bf 16 bf
       0.10012693 0.08340637 -0.2080278 -0.5888573
000280 d3 e2 e0 3a 2c 79 e6 3c 90 22 6e 3c 06 81 cd bc
       0.0017157443 0.028133951 0.0145346075 -0.025085937
000290 dc 16 d4 3c 6e 74 15 be fa de 9c 3d fc a5 b2 3d
       0.025889806 -0.14595196 0.07659717 0.08723065
0002a0 0a e2 18 bc 2f 6b 10 bf 95 41 0f 3c fb 8d 38 3e
       -0.009331236 -0.5641355 0.008743663 0.18022911
0002b0 7b 28 51 be eb 2f 51 bc 43 29 a1 bc c5 16 61 bc
       -0.20425598 -0.012767772 -0.019672995 -0.013738339
0002c0 7c 4f 20 bf 3c 52 41 be 43 1f 6b be 8d 3e b4 bb
       -0.62621284 -0.18879026 -0.22961144 -0.0055006207
0002d0 c2 0c 42 bc 9f e5 ce 3c 67 12 1c 3e 1f 99 82 3d
       -0.011843862 0.025255976 0.15241395 0.06376862
0002e0 5b ca 11 3c 67 cf 9f bc 91 f9 05 3e a3 aa a0 bf
       0.008898343 -0.019508077 0.13083483 -1.2552074
0002f0 fc b7 8c be 8c 29 f6 3d ea 8c ab 3d 90 f5 d2 3d
       -0.2748412 0.12019643 0.083764866 0.103007436
000300 f9 9c 18 be a8 a1 60 3e 01 72 c0 3d 35 3a 3a 3e
       -0.1490363 0.21936667 0.093967445 0.18186267
000310 48 9c 1e 3e fd bf 48 3b 32 a8 9b 3e 38 0d cf be
       0.15489304 0.0030632012 0.3040176 -0.40439773
000320 ba 9e d9 be 0d e8 2e 3e 40 56 16 be a7 c0 b7 be
       -0.4250391 0.17080708 -0.1468134 -0.3588917
000330 1d 8d 75 bd 25 60 83 3d 85 3b 20 bf 20 98 13 bd
       -0.05994903 0.064148225 -0.6259082 -0.03603375
000340 4d 4a bb 3d 77 7a 07 3e 4a 45 93 3e 05 f4 b3 3d
       0.09145031 0.1323031 0.287638 0.087867774
000350 a5 78 84 3d c7 8a 1d bd ea 02 07 3e 9d 7e 12 3e
       0.064683236 -0.038462427 0.13184705 0.14306112
000360 02 fd f0 be f4 b9 38 3c b4 d5 1d be 72 69 8a bb
       -0.4706803 0.011274803 -0.15413553 -0.004223996
000370 45 f2 5f 3c 3e ba d4 3b f6 30 9b bc e6 bc eb be
       0.013668601 0.0064919284 -0.018944245 -0.46042556
000380 d7 5a df 3c b6 92 36 3e c5 d0 d4 ba 3c eb b7 3d
       0.027264996 0.17829403 -0.0016236535 0.08980414
000390 b8 4f 45 3b 56 ff 5f be 35 af b2 3e 15 b3 a7 3d
       0.003010733 -0.21874747 0.34899297 0.08188454
0003a0 ec 79 a8 3d 6a 7c ec be 28 1e 34 3d fa c6 8d 3e
       0.0822638 -0.4618867 0.04397407 0.2769087
0003b0 81 27 8e bc 2d 8c 9a 3d e3 fd ec bd 57 02 61 bc
       -0.017352821 0.07546268 -0.115718625 -0.013733468
0003c0 db 0a fe be 9e 87 b6 bd 36 17 c5 bd f8 37 87 3d
       -0.49617657 -0.08912586 -0.09623568 0.06602472
0003d0 37 1b 38 3b 43 61 c0 3b 52 b6 ba 3e ea e2 9a 3e
       0.0028092393 0.0058709695 0.36467224 0.30251247
0003e0 cf 90 46 3c 8f 82 f1 3d c0 38 e7 3d dc b0 d9 3b
       0.012119486 0.1179248 0.11290121 0.0066433977
0003f0 59 39 ab bd 1f 21 08 3e 4c fa 07 3e ab 3a 81 3e
       -0.083605476 0.13293885 0.13279074 0.25240073

back.6.bias f4 [32]
000000 a3 bd 82 3d 7a a6 f0 3d 7d 82 85 3d d7 a3 e9 be
       0.063838266 0.11750503 0.06519029 -0.45632812
000010 ed b4 83 3d 54 08 a6 3d a8 57 a2 bc 5b 3c cd 3d
       0.06430993 0.08107057 -0.019817188 0.100212775
000020 8f 45 fb be 07 96 10 bd 91 69 8f 3d c0 3e 91 3d
       -0.49076506 -0.035299327 0.07002557 0.07092047
000030 aa c1 38 3d d0 d7 67 3d 35 f2 ed bc cd 4a 8c 3d
       0.045106567 0.0566023 -0.029046157 0.068502046
000040 4b 91 93 bd 42 85 68 3e e2 38 51 be 97 50 bd 3d
       -0.07205447 0.22707084 -0.20431855 0.09243887
000050 c2 9e 44 3e f8 51 54 be f1 85 c7 bc cd 69 84 3e
       0.19201186 -0.20734394 -0.02435586 0.2586197
000060 b7 05 04 3d 27 83 d4 3c 4a c8 af 3d c4 44 07 3e
       0.032232013 0.025941445 0.08583124 0.13209826
000070 26 8a 47 bc 4e e0 09 3e 98 f8 a2 3e 99 35 06 be
       -0.012178933 0.13464472 0.31830287 -0.13106383

ellipticity.0.weight f4 [2, 32]
000000 cb 2f ab bc f4 b6 ff bd 19 2d 00 be 7f 99 13 3e
       -0.020896813 -0.124860674 -0.12517203 0.14414023
000010 05 7b 8e 3a 52 17 f7 3c 48 00 df bc 82 e6 14 3e
       0.0010870403 0.030162487 -0.027221814 0.14541057
000020 58 32 86 bd 8a 10 83 bc 7c cd 2d 3d 21 36 96 3d
       -0.06552571 -0.015999097 0.042432293 0.07334543
000030 db 67 d4 bd 92 b6 d6 bc 7e 2f 99 3d 63 51 47 bd
       -0.10371371 -0.026210103 0.074797615 -0.0486616
000040 01 ca ab 3b e7 41 7c 3c da a9 86 3d 0d 12 f7 3d
       0.0052425866 0.015396572 0.06575365 0.1206399
000050 fb d0 35 bb cf e7 74 bd 68 73 4e 3d 0b d5 9a 3d
       -0.002774297 -0.059791382 0.05040303 0.07560166
000060 2c d9 b8 3c 72 4e f4 3c bc 3e a9 bd 21 19 54 bd
       0.022564493 0.029822562 -0.08263919 -0.051781777
000070 3d 5b 90 3d f9 95 8e 3d 89 73 12 be 68 f0 5f bd
       0.07048652 0.06962199 -0.14301886 -0.05467263
000080 5a ff 09 3e b9 88 1a bc 1f d5 dd bc d9 2d 3b 3d
       0.13476315 -0.009432011 -0.027079163 0.04569802
000090 e8 18 8a bd b5 55 2d be 98 f6 c7 3d a4 d2 b6 3c
       -0.06743032 -0.16927226 0.09763831 0.022317238
0000a0 5e b0 e2 3d 3f a4 10 3d 21 33 c5 3d d9 31 33 bd
       0.110687956 0.035312887 0.09628893 -0.04374871
0000b0 de a4 6c bc 4a c8 14 3e 6f 64 1f 3d 48 bc 84 bd
       -0.014443604 0.14529529 0.03891414 -0.06481224
0000c0 9d 10 43 3d ab bb 13 be 16 77 25 bc 11 e2 16 3d
       0.047623266 -0.14427058 -0.010099193 0.036836687
0000d0 29 dc 0f 3e 45 a3 7d 3c 63 89 a1 3c a6 a3 d0 bd
       0.14048828 0.015480821 0.019718831 -0.101874635
0000e0 98 74 14 bd 56 3a 2f be db ae 72 3d 11 6a 73 3d
       -0.036244005 -0.17112097 0.059248786 0.059427325
0000f0 e2 9e 66 ba f4 ed 83 3b dd 8a c6 bd 96 6e 27 bd
       -0.0008797479 0.004026169 -0.09694455 -0.040876947

ellipticity.0.bias f4 [2]
000000 a7 bf 97 3c a1 81 3e 3d
       0.018524004 0.046510343

exp_avg f4 [128, 32]
000000 48 ce 78 35 11 a7 93 33 fb 99 c5 b0 9c 17 0c 34
       9.268738e-07 6.87561e-08 -1.43774e-09 1.3047105e-07
000010 42 b8 d7 37 88 9e 11 36 bb 95 c0 b6 73 54 ad 34
       2.5715799e-05 2.169896e-06 -5.739477e-06 3.2285206e-07
000020 4b 52 f9 b5 9c 07 ad 34 0f bc 63 31 38 91 e4 33
       -1.8575896e-06 3.2229298e-07 3.3139747e-09 1.06434925e-07
000030 91 fb 07 38 b6 66 95 34 9f e0 47 b6 ea e1 ed b4
       3.2420798e-05 2.7828145e-07 -2.9784057e-06 -4.4309064e-07
000040 52 36 11 34 09 0f 1e b5 02 ba 23 35 83 0d 8f b5
       1.3523939e-07 -5.8881466e-07 6.099291e-07 -1.0658263e-06
000050 47 35 58 b5 d5 f7 2c 36 d8 86 d7 b4 c6 63 ac 34
       -8.05438e-07 2.5774254e-06 -4.0144982e-07 3.211009e-07
000060 0f f6 4c 35 bf 02 a0 b4 a3 de 02 b5 6e 43 fe b4
       7.6353984e-07 -2.980432e-07 -4.8752753e-07 -4.7360248e-07
000070 82 08 1b b4 59 0e 55 b3 3e fc a7 33 41 fe 4c 35
       -1.4438595e-07 -4.9605976e-08 7.822426e-08 7.636591e-07
000080 e4 c6 70 b4 98 f3 18 b5 15 13 1f 34 a2 7c 25 b4
       -2.2424098e-07 -5.697889e-07 1.4814971e-07 -1.5412164e-07
000090 40 20 72 37 ee 3f 8f b5 94 d3 3f b8 40 bf 09 b0
       1.4431833e-05 -1.0672936e-06 -4.5734996e-05 -5.011209e-10
0000a0 95 cb 33 35 0c cd bb b2 78 b1 4d b5 67 b2 77 34
       6.697895e-07 -2.186291e-08 -7.66267e-07 2.306857e-07
0000b0 e9 60 79 b7 dc a3 e7 34 4d 3b c6 37 f8 20 69 35
       -1.486412e-05 4.3146326e-07 2.3631053e-05 8.684724e-07
0000c0 a4 b5 dc b4 22 01 55 b4 b5 d2 0c 35 87 a8 63 35
       -4.1110354e-07 -1.9837583e-07 5.2460683e-07 8.480933e-07
0000d0 5e a6 86 b2 02 65 5a b5 11 8d ea 34 1c e5 8b 34
       -1.5675308e-08 -8.1358314e-07 4.3688536e-07 2.6057467e-07
0000e0 87 79 2d b5 0f 1d 7f b7 ba ac 53 b4 e5 d4 30 34
       -6.462437e-07 -1.520595e-05 -1.9713744e-07 1.6468728e-07
0000f0 b1 f8 98 33 79 26 6e 34 d5 11 c4 b4 51 90 58 b3
       7.123288e-08 2.2179474e-07 -3.652082e-07 -5.0422674e-08
000100 4a db 78 b5 80 50 2f b5 0f 36 93 b4 76 4d bf 33
       -9.2706307e-07 -6.5309723e-07 -2.7420216e-07 8.908221e-08
000110 01 6c b9 33 e7 6a 87 b4 fa 10 a4 38 4b 69 24 b5
       8.6343796e-08 -2.522349e-07 7.8232915e-05 -6.124798e-07
000120 db 41 49 36 2e bb 49 b5 6e ea e9 b4 f8 42 5d b5
       2.9989667e-06 -7.515072e-07 -4.3570202e-07 -8.242637e-07
000130 e3 dd 2c b8 41 45 52 b5 19 eb 79 b8 d0 5b b0 35
       -4.1214644e-05 -7.8331874e-07 -5.9585178e-05 1.3139743e-06
000140 92 ed f3 b5 29 98 c8 33 96 d6 85 b4 20 ae f8 35
       -1.8174053e-06 9.3409035e-08 -2.4929312e-07 1.8528117e-06
000150 da f6 14 b4 e6 80 f8 b5 20 75 21 b5 e7 f7 89 36
       -1.3873378e-07 -1.8514954e-06 -6.0147613e-07 4.111778e-06
000160 a2 15 cf b3 8c f7 5d 38 ee c0 e6 b5 44 b9 19 34
       -9.6431236e-08 5.2921052e-05 -1.7192485e-06 1.4316635e-07
000170 c3 91 64 b3 6f d6 0e 35 e1 76 2a b5 91 77 40 b5
       -5.3217956e-08 5.3211164e-07 -6.3502927e-07 -7.1699566e-07
000180 d6 85 3c 36 2b 05 f9 35 bb 2b 57 b5 a9 c4 bf 35
       2.8092086e-06 1.855345e-06 -8.015738e-07 1.4287845e-06
000190 a5 d8 e6 38 a6 35 53 37 15 38 b7 38 e4 fb a2 35
       0.00011007608 1.2589071e-05 8.736566e-05 1.214325e-06
0001a0 ea ba 43 b6 85 b0 21 b4 23 b3 10 35 ac 86 02 b6
       -2.9166063e-06 -1.5058511e-07 5.390486e-07 -1.94499e-06
0001b0 d6 4b 53 38 b7 83 de b6 03 df 0f b9 1b d8 06 b6
       5.0376948e-05 -6.631449e-06 -0.00013720621 -2.0093346e-06
0001c0 5f 65 99 b5 69 1c 2a b6 32 eb 88 35 65 c0 9f b6
       -1.1428891e-06 -2.534851e-06 1.020124e-06 -4.760967e-06
0001d0 5f 11 6c b5 d3 fc cc 36 5b fd 1b b7 57 8b a3 36
       -8.794213e-07 6.1091064e-06 -9.297709e-06 4.874e-06
0001e0 a0 e5 c0 35 64 3c db 38 cb 05 5f b4 24 d7 93 b3
       1.4371944e-06 0.000104539824 -2.0770601e-07 -6.884355e-08
0001f0 51 33 65 b5 2f 1f 0b b6 e7 a4 3c b5 f2 6b 79 36
       -8.5383823e-07 -2.0730765e-06 -7.027542e-07 3.7166724e-06
000200 5a 72 64 b5 9d 98 8a 35 aa f0 2f b5 ad c9 95 b4
       -8.510302e-07 1.0326218e-06 -6.554279e-07 -2.790015e-07
000210 08 c5 c7 b7 e3 00 83 b5 0d 7b 28 38 d5 ad 0b b5
       -2.3814398e-05 -9.760519e-07 4.016892e-05 -5.2034494e-07
000220 80 fb 2c 36 b3 5d d5 b4 60 61 f2 33 b7 5f c5 34
       2.577639e-06 -3.9742517e-07 1.12867156e-07 3.676375e-07
000230 81 ab 9e b7 d1 be 18 b5 a9 a5 ab b8 8f 83 58 35
       -1.891493e-05 -5.6902087e-07 -8.184772e-05 8.0657713e-07
000240 a9 11 25 b5 8e d2 30 34 7d 0a dd 33 e9 eb 97 35
       -6.149299e-07 1.6467877e-07 1.0293022e-07 1.1319036e-06
000250 bb d4 43 35 88 39 2a b6 47 28 46 b5 e6 99 b9 35
       7.2952724e-07 -2.5365462e-06 -7.381936e-07 1.3828364e-06
000260 75 41 57 35 3b 47 7e 38 2a c1 91 b4 2d 14 7b b3
       8.0188994e-07 6.0624658e-05 -2.71489e-07 -5.845884e-08
000270 04 61 84 34 22 56 16 35 1f a8 36 b4 db b5 9d b5
       2.4657504e-07 5.6004694e-07 -1.7011233e-07 -1.1750338e-06
000280 1b 8b 5c 35 72 f4 4b b5 1a 61 a3 b4 63 c3 f5 34
       8.215881e-07 -7.597911e-07 -3.0431767e-07 4.577697e-07
000290 f9 65 69 38 f2 4e 60 b3 47 52 2b 38 2c f8 8d 34
       5.56465e-05 -5.2225865e-08 4.0846204e-05 2.6443865e-07
0002a0 82 e6 58 35 58 b0 8b b3 74 93 ab b5 a5 4e ab 33
       8.0801703e-07 -6.5047686e-08 -1.2783407e-06 7.9771134e-08
0002b0 f0 10 8d b7 43 e3 a4 35 8e 84 b6 38 94 d0 11 35
       -1.6816397e-05 1.2285094e-06 8.7031265e-05 5.432023e-07
0002c0 60 6c c1 b5 9a d3 1a b5 4f d1 d6 34 3d 3d bb 35
       -1.4411162e-06 -5.767739e-07 4.0012898e-07 1.3950408e-06
0002d0 e9 41 74 b5 28 9d bb b4 58 7d 60 33 b4 a3 17 36
       -9.0992995e-07 -3.494581e-07 5.2268064e-08 2.2596041e-06
0002e0 42 cc d2 34 99 64 a1 37 81 dc ac b5 82 0a b6 b5
       3.9264165e-07 1.923954e-05 -1.2879174e-06 -1.3563115e-06
0002f0 54 6e fb b3 b9 4b 7f 35 0a bf 0e b5 cc 75 08 34
       -1.1708167e-07 9.5105094e-07 -5.317712e-07 1.2708841e-07
000300 46 0a 41 b7 81 bb a5 37 37 13 66 35 a8 f8 d5 b5
       -1.1506088e-05 1.9756846e-05 8.570964e-07 -1.5942105e-06
000310 1c 71 e6 b8 d5 c2 a4 b4 c2 d2 dd 39 8b 51 af 36
       -0.00010988323 -3.068914e-07 0.00042309432 5.2248993e-06
000320 d6 07 49 b4 45 bc 05 b7 c6 0b a7 37 59 06 1e 36
       -1.8722434e-07 -7.971253e-06 1.9913434e-05 2.354753e-06
000330 15 10 a6 38 e9 94 a0 b7 b5 d8 86 ba 82 a3 3f b6
       7.918492e-05 -1.9142828e-05 -0.0010287972 -2.8556392e-06
000340 ba 61 91 b6 f2 6f cb 35 b7 dc f8 35 01 78 22 b7
       -4.3327136e-06 1.5157259e-06 1.8541676e-06 -9.683893e-06
000350 ea 03 eb 36 72 41 2d b7 c8 0b 38 b7 07 a3 60 b7
       7.0040014e-06 -1.0326841e-05 -1.0969998e-05 -1.3389398e-05
000360 8f 87 61 37 04 41 41 39 b8 79 03 37 5b 7d 81 36
       1.3442607e-05 0.00018430135 7.836548e-06 3.859093e-06
000370 be 75 02 36 73 18 b7 b6 f5 37 9c 36 76 a5 8d 37
       1.9440045e-06 -5.4566713e-06 4.6556765e-06 1.6885559e-05
000380 9b 48 13 37 48 2c c0 36 eb 25 9f b6 2b e6 c8 36
       8.778788e-06 5.727201e-06 -4.7429835e-06 5.9872596e-06
000390 4e cb c6 b8 2d c1 11 37 86 89 59 39 db d2 97 b6
       -9.479244e-05 8.687651e-06 0.00020745964 -4.5246975e-06
0003a0 9b 62 dc b5 f1 f6 99 36 cd 55 03 b6 5f 53 f2 b5
       -1.6419975e-06 4.588503e-06 -1.9570464e-06 -1.8054669e-06
0003b0 98 b4 c9 38 61 a2 2f b5 b0 12 a8 39 b6 3c de b6
       9.618065e-05 -6.542887e-07 0.0003205738 -6.6231833e-06
0003c0 f5 48 86 36 8a b5 e2 b5 4f a9 9d b6 df 8d cb b6
       4.0020045e-06 -1.6891147e-06 -4.6986747e-06 -6.0663874e-06
0003d0 46 e8 07 36 d6 9a 96 36 3c eb 62 b7 d9 ec a1 35
       2.0251769e-06 4.4883736e-06 -1.35254195e-05 1.2064367e-06
0003e0 54 5f 94 36 47 76 9a 38 46 61 60 b5 81 6c 63 b6
       4.4218414e-06 7.365323e-05 -8.3588054e-07 -3.3888793e-06
0003f0 71 1d a2 b4 cb 55 75 34 8f 36 89 34 a9 8a 59 b6
       -3.0196273e-07 2.2848614e-07 2.5557935e-07 -3.241623e-06

exp_avg_sq f4 [128, 32]
000000 e7 af b0 2e dc bf 00 2e 00 70 c9 2d 13 7c db 2d
       8.0348e-11 2.9274236e-11 2.2900792e-11 2.4952517e-11
000010 84 e3 2b 33 a6 01 89 2f c3 ec 57 33 ed 06 b4 2d
       4.0020964e-08 2.4921326e-10 5.0273922e-08 2.0466706e-11
000020 91 b6 6a 2f bc bf 20 2e 99 ca 02 2e 8e c0 bc 2d
       2.1347037e-10 3.6550082e-11 2.973852e-11 2.1458637e-11
000030 ec 91 7e 33 20 e0 03 2d 43 35 e2 33 ed c6 e1 2d
       5.92717e-08 7.496254e-12 1.0533633e-07 2.566788e-11
000040 1a a0 ea 2d ee 70 14 2e 1c 72 97 2d d9 18 da 2e
       2.667382e-11 3.3751606e-11 1.7217387e-11 9.917906e-11
000050 85 e4 29 2d 75 d7 b9 2f 44 f5 18 2e 6c 5a 6e 2e
       9.657279e-12 3.3804395e-10 3.477864e-11 5.4195246e-11
000060 1b a8 20 2e 0f 78 e9 32 2c 7a 2d 2e d5 ca 2d 2d
       3.6529096e-11 2.7179366e-08 3.9444156e-11 9.878949e-12
000070 69 84 22 2d 2f d3 db 2c 96 5c 21 2d ca fa 21 2e
       9.238035e-12 6.2478005e-12 9.172349e-12 3.6829907e-11
000080 82 5a 80 2f cf 46 b2 2e 7e ba 24 2e bf 97 be 2e
       2.3347374e-10 8.107081e-11 3.745492e-11 8.667155e-11
000090 37 10 b4 33 11 d4 2e 30 9d 78 70 34 88 3e 08 2d
       8.3848526e-08 6.3602196e-10 2.239562e-07 7.74459e-12
0000a0 46 c3 59 30 e5 1d 23 2e fc 39 a0 2e ac 7f db 2d
       7.922164e-10 3.708846e-11 7.286258e-11 2.4954115e-11
0000b0 ab c0 67 34 21 b9 45 2d a3 c8 fa 32 92 ff 53 2f
       2.1583644e-07 1.123926e-11 2.919507e-08 1.9281135e-10
0000c0 68 23 40 2f 7b 7a 67 2e 0c d7 56 2e c5 3c c0 2f
       1.7474877e-10 5.2632104e-11 4.8848967e-11 3.4967776e-10
0000d0 07 70 8f 2d 98 d3 a1 30 a5 85 e8 2e 24 0b 08 2f
       1.6306968e-11 1.177443e-09 1.05738786e-10 1.2373086e-10
0000e0 cd 2a 16 2f d8 80 93 33 24 82 79 2e 79 c5 f6 2d
       1.3657626e-10 6.8686575e-08 5.6731633e-11 2.8054658e-11
0000f0 17 ae e7 2d 89 e4 0e 2d 60 2a c8 2d 45 18 9a 2e
       2.6338971e-11 8.1225105e-12 2.2756186e-11 7.00742e-11
000100 ba 74 77 2f 0b 04 ab 2f 1b 99 27 2e 99 72 ab 2e
       2.2505989e-10 3.1107592e-10 3.810739e-11 7.796536e-11
000110 62 60 d4 32 d1 b2 83 2f 71 2d 61 34 6c 9a ac 2e
       2.4723878e-08 2.3955818e-10 2.097129e-07 7.849085e-11
000120 cb 63 d3 2f 2f 53 76 2e 85 03 df 2f 8e 33 70 2e
       3.8451584e-10 5.6007806e-11 4.0565964e-10 5.4615472e-11
000130 e8 75 05 34 e7 14 76 2f 3b 0b 9e 35 f3 3d 9d 2e
       1.2429484e-07 2.2380996e-10 1.1775186e-06 7.150538e-11
000140 f2 1c 98 2e 85 22 d1 2d 75 e7 98 2e f0 81 9d 2f
       6.9173015e-11 2.3775879e-11 6.953275e-11 2.865046e-10
000150 a2 cd 33 2e a2 18 bb 2f 9f b8 c1 2e dc 97 61 30
       4.0882527e-11 3.4032605e-10 8.809419e-11 8.207033e-10
000160 91 e5 1e 2f ab 38 dc 32 9a 95 92 2f af 96 a8 2e
       1.4451575e-10 2.563714e-08 2.6663544e-10 7.666522e-11
000170 b0 11 5c 2d fc 80 7f 2e c4 e5 22 2e 66 fc ed 2f
       1.25094796e-11 5.809485e-11 3.703861e-11 4.328939e-10
000180 f3 03 70 30 60 ec 96 30 a9 81 1b 2f 28 e7 3e 30
       8.7317104e-10 1.0981118e-09 1.4143232e-10 6.945009e-10
000190 41 02 12 34 1d aa e7 30 17 de 0f 36 d4 51 9a 2f
       1.359813e-07 1.6855811e-09 2.1437934e-06 2.807058e-10
0001a0 7b c3 28 31 a8 37 95 2f 82 a1 96 30 8d 25 eb 2f
       2.4558335e-09 2.7142488e-10 1.095984e-09 4.2772932e-10
0001b0 5d 7b 4b 35 4a 0f 0a 30 fd 1b 76 36 f7 83 33 30
       7.580291e-07 5.0225835e-10 3.6673148e-06 6.5307354e-10
0001c0 98 53 2c 30 89 92 18 2f 4f 84 78 2f c9 bb c5 30
       6.269203e-10 1.3876379e-10 2.2602474e-10 1.4387008e-09
0001d0 b7 25 1e 2f be 91 30 31 a9 1d e6 30 8c 11 5f 31
       1.4383415e-10 2.5694216e-09 1.6743132e-09 3.2460745e-09
0001e0 c2 9d 14 30 36 fb f9 33 8e 37 d3 30 fb 1e a1 2f
       5.4066274e-10 1.1640661e-07 1.536806e-09 2.9307742e-10
0001f0 8d 5e 1f 2f a5 93 2e 2f 73 69 11 2f fc f3 87 30
       1.4494557e-10 1.5877662e-10 1.3225136e-10 9.891887e-10
000200 55 db cd 2d b4 4c 88 2d a8 33 69 2d 41 0b 14 2d
       2.3403205e-11 1.5495473e-11 1.3255987e-11 8.415325e-12
000210 15 4f 81 32 e9 05 cd 2e 72 fa 2f 33 16 e0 40 2d
       1.5053539e-08 9.3233705e-11 4.097314e-08 1.09636935e-11
000220 47 e5 b8 2e 31 85 3e 2d e4 85 8d 2d ca 5c 44 2d
       8.408079e-11 1.0829824e-11 1.6089304e-11 1.1161913e-11
000230 0a b2 b8 32 e3 9d 10 2d 76 28 99 33 88 f0 4f 2d
       2.1501382e-08 8.22051e-12 7.1319775e-08 1.1819996e-11
000240 ce 9f 86 2d 06 fe 54 2d 6c 99 f5 2c e8 a4 23 2e
       1.5305004e-11 1.2107209e-11 6.980352e-12 3.7208375e-11
000250 b7 47 18 2d f4 b7 0c 2f 74 26 66 2d 15 cf 9c 2e
       8.6561236e-12 1.2798279e-10 1.3082525e-11 7.130844e-11
000260 04 10 9f 2d 7d 0b 06 33 6f 20 d9 2d 19 e4 b7 2c
       1.808332e-11 3.1209755e-08 2.4684447e-11 5.2264968e-12
000270 2c 41 93 2c f1 a7 96 2c 13 db bf 2c 17 10 c9 2d
       4.185227e-12 4.2819017e-12 5.4528686e-12 2.28582e-11
000280 00 c6 40 2f 6a 00 59 2f 26 4e e5 2d 52 67 be 2e
       1.7532642e-10 1.9736182e-10 2.606899e-11 8.658553e-11
000290 9e a7 ce 32 45 e7 96 2f f9 7f b2 34 29 a2 85 2e
       2.405778e-08 2.7449168e-10 3.3248196e-07 6.076945e-11
0002a0 d1 3e f3 2f 15 84 29 2e d1 64 66 2f c7 7c 81 2e
       4.4246076e-10 3.8543464e-11 2.0954195e-10 5.888406e-11
0002b0 2b 2b 11 34 4b 94 e4 2e 00 e1 3d 35 f6 8f 97 2e
       1.3519882e-07 1.0394582e-10 7.0735405e-07 6.8922576e-11
0002c0 22 c6 ab 2e 32 55 a4 2d a6 16 c5 2e 8b 2f 93 2f
       7.811375e-11 1.8682476e-11 8.962546e-11 2.6772926e-10
0002d0 59 02 bc 2d 88 5a c1 2f 39 a9 23 2f 14 f3 5e 30
       2.1374168e-11 3.5170822e-10 1.4884884e-10 8.1108564e-10
0002e0 29 d6 bd 2e 4f a0 d6 32 de e1 a4 2f 53 c7 94 2e
       8.6327674e-11 2.4985779e-08 2.9991915e-10 6.765668e-11
0002f0 c5 10 42 2d 75 16 63 2e fc f4 0f 2e b4 f7 98 2f
       1.1031347e-11 5.163377e-11 3.2732025e-11 2.7824643e-10
000300 2b 67 c1 30 7a 4e b5 30 27 66 aa 2f fc b5 1d 30
       1.407192e-09 1.3191788e-09 3.0995403e-10 5.737488e-10
000310 6a 23 ed 33 c7 21 f4 30 fd 72 01 36 34 04 f5 2f
       1.1042614e-07 1.7762937e-09 1.928943e-06 4.4568227e-10
000320 22 99 24 31 6b 15 b9 2f ed 57 05 31 86 20 82 2f
       2.3952187e-09 3.3666522e-10 1.9404027e-09 2.3669972e-10
000330 9f 45 47 35 23 40 82 30 7d b6 d9 36 55 ba 2a 30
       7.423459e-07 9.476974e-10 6.4883484e-06 6.2110433e-10
000340 c1 0e d7 2f 13 31 16 2f 2f bf fd 2f ad 00 d4 30
       3.9118755e-10 1.3659855e-10 4.6156276e-10 1.5425222e-09
000350 53 41 37 2f 8a 52 26 31 c6 ff a9 30 18 0b 8b 31
       1.6666961e-10 2.4203097e-09 1.2369064e-09 4.0466936e-09
000360 73 2f 4b 30 6b ce 79 34 2c fd af 30 cf 8b f2 2f
       7.39184e-10 2.3265027e-07 1.2804882e-09 4.4118884e-10
000370 13 03 f5 2e f7 8f b0 2f ee dc 78 2f 54 a3 0f 31
       1.1141856e-10 3.2116507e-10 2.2633959e-10 2.090208e-09
000380 65 18 6e 2f 00 32 4b 2f ae f3 18 2e 67 0c 1a 2f
       2.165464e-10 1.8480506e-10 3.477723e-11 1.4010625e-10
000390 3c 38 91 32 26 18 e4 2f 6d 91 01 35 a0 55 80 2e
       1.6905794e-08 4.1490117e-10 4.826787e-07 5.835976e-11
0003a0 5c 70 24 30 be b2 59 2e cd a6 10 2f 4e 5b f6 2e
       5.9822525e-10 4.9498843e-11 1.3155983e-10 1.1203004e-10
0003b0 1a 25 39 34 cf 83 b0 2e 20 af 23 35 a1 92 ba 2e
       1.7242965e-07 8.026967e-11 6.097707e-07 8.484347e-11
0003c0 9f a1 f3 2e 11 ab 05 2e e6 7e ca 2e 7a e3 ab 2f
       1.107907e-10 3.0392636e-11 9.208438e-11 3.126635e-10
0003d0 2d 01 ef 2d ab 5f 28 30 8b 6e 92 2f 95 99 41 30
       2.7171676e-11 6.1253996e-10 2.663579e-10 7.0431244e-10
0003e0 2d e5 8d 2e ea 34 b5 32 78 28 ef 2f 88 11 9b 2e
       6.4526474e-11 2.1095236e-08 4.3502602e-10 7.051698e-11
0003f0 1e c4 ca 2d 86 a7 30 2e 9d 58 6d 2d dc ea 66 2f
       2.3051835e-11 4.0166558e-11 1.3491566e-11 2.1001817e-10

exp_avg f4 [128]
000000 50 1c cc 37 b4 20 59 b7 51 e0 e0 b8 57 b0 42 b9
       2.433188e-05 -1.2941822e-05 -0.000107229345 -0.00018566973
000010 5f 56 d2 b8 1e fc 76 b7 82 4b 54 39 54 b8 d7 b9
       -0.00010029668 -1.4721443e-05 0.00020246024 -0.0004114533
000020 45 a2 6b b8 27 12 a2 b9 58 12 2f b9 22 72 86 39
       -5.617949e-05 -0.00030912572 -0.00016696134 0.00025643507
000030 4e a3 2e b8 a4 66 16 ba 05 93 48 ba 2b f7 8e 38
       -4.1636922e-05 -0.00057373405 -0.0007651302 6.817126e-05
000040 42 c0 0f ba 65 9e b8 b9 14 a9 9e 39 27 24 9a 3a
       -0.0005483666 -0.00035213228 0.0003026208 0.0011760042
000050 08 93 09 3b 75 0c 7a 39 71 90 a6 b8 a2 f6 fc 39
       0.0020992178 0.00023846499 -7.942401e-05 0.0004824894
000060 07 32 ff 39 0d 2d 63 b6 90 d5 cd b6 42 41 b5 39
       0.00048674663 -3.385186e-06 -6.134338e-06 0.0003457163
000070 70 8b 7a 39 04 4c 8b b8 4c ca f1 b8 16 67 0b 3a
       0.00023893802 -6.6421955e-05 -0.00011529456 0.000531779
000080 70 51 1b b8 2b 35 d5 b9 04 bd 55 3a 90 7a 93 b7
       -3.7030724e-05 -0.0004066614 0.00081534707 -1.7580838e-05
000090 6c ed bd b9 f7 91 17 35 a6 8e 70 b6 f4 3f 1f 39
       -0.00036225782 5.646429e-07 -3.584582e-06 0.00015187246
0000a0 8b a7 1c b9 c9 a7 00 b8 ef 0c 17 ba 48 68 37 39
       -0.00014939734 -3.067384e-05 -0.000576212 0.00017491088
0000b0 67 95 07 39 7c 50 10 37 96 9b 3f 3a 34 26 79 37
       0.0001293026 8.601808e-06 0.0007309256 1.4850451e-05
0000c0 31 d8 d9 b9 b5 6a 80 b9 8d 8f c7 39 07 4b d5 37
       -0.0004155054 -0.00024493565 0.00038063191 2.5426516e-05
0000d0 87 09 fd 39 d3 72 09 b8 29 37 01 b9 34 ac 1d b9
       0.0004826302 -3.2770284e-05 -0.00012322947 -0.00015036837
0000e0 c0 5d 86 b8 cb 21 5a 39 bc f6 6d 39 45 d0 12 b9
       -6.40708e-05 0.00020802689 0.00022693997 -0.00014001231
0000f0 d1 b7 8d 39 2d 3f b3 39 ae 2a a1 3a ad 70 5f ba
       0.0002703057 0.0003418861 0.0012296045 -0.0008523565
000100 f1 44 14 3a 51 c5 6e 38 d8 15 54 ba 53 a4 cb 37
       0.0005656025 5.6927387e-05 -0.0008090413 2.4276005e-05
000110 43 e0 58 3a fa dd 02 39 f1 31 40 b8 f5 73 47 b9
       0.00082731637 0.00012480459 -4.582288e-05 -0.00019021316
000120 89 2e 52 39 45 3a 9c 38 15 13 0f ba 79 38 8f b8
       0.00020044496 7.449513e-05 -0.00054578605 -6.82929e-05
000130 a5 7c 42 3b 40 f5 29 b8 c5 72 00 b9 31 f6 47 b9
       0.0029676345 -4.0521147e-05 -0.00012249786 -0.00019069832
000140 1c c1 9a b9 3b b5 00 38 ff a6 7d 3a 42 c3 a7 39
       -0.00029517047 3.0686362e-05 0.00096760684 0.000319982
000150 7c cb e9 39 70 31 12 39 f3 f3 04 b9 b8 e1 f9 b8
       0.0004459283 0.00013942062 -0.00012679379 -0.000119152886
000160 60 74 9d b8 81 a0 4a 3a ad 62 0a 3a 47 8a e2 3a
       -7.50802e-05 0.00077296054 0.0005278986 0.0017283642
000170 62 1f 13 3a 38 7b 0a 3a 43 67 6d ba ba e2 56 ba
       0.00056122814 0.0005282643 -0.000905622 -0.0008197237
000180 98 aa 65 b9 95 80 61 b8 da 28 6e 3a e1 3a ae 3a
       -0.00021902693 -5.376393e-05 0.0009085067 0.0013292694
000190 3c a2 85 b8 93 e6 9d b8 be dd 00 36 4d 08 02 3a
       -6.372153e-05 -7.529291e-05 1.9202557e-06 0.00049603434
0001a0 40 57 b7 ba 97 b0 82 39 77 b4 dd b7 89 f6 8c 3a
       -0.0013987795 0.00024927102 -2.6429288e-05 0.0010754626
0001b0 21 30 48 3a e6 7d 9d ba 50 6a d8 37 d3 f0 88 39
       0.00076365663 -0.001201567 2.5798712e-05 0.0002611937
0001c0 34 71 de 39 9c 53 26 b9 39 00 ce b8 53 e1 0c 38
       0.00042427483 -0.0001586214 -9.822887e-05 3.358845e-05
0001d0 6d b4 49 3a 96 44 9a 37 a0 4a 5e b9 fa 8b 94 37
       0.0007694427 1.8390168e-05 -0.0002119937 1.7708157e-05
0001e0 01 db 79 38 1c 90 9a ba 6e 40 3e 39 db d0 fe 39
       5.957019e-05 -0.0011792216 0.00018143814 0.00048602265
0001f0 c2 b5 dc 39 43 83 37 39 80 d0 d7 b9 37 25 d0 3a
       0.0004209709 0.00017501139 -0.0004116334 0.0015880232
