notebooks/checkpoints/regressor_checkpoint_no_filtered_ellip.pth (torch, 194157 bytes, 24 tensors)

back.0.weight f4 [128, 32]
00000000: bdff fbbd 8c21 2ebe f855 e73e 43ee 823e
00000010: 2c20 5fbe cfa3 a13c fd4f f2bd fd8f 96bf
00000020: d3c1 0c3e 866e 5e3e 6d8d 3bbf d074 66bf
00000030: 2a28 773e 5eee 3c3e cf35 67be 3063 043e
00000040: b544 18bf 585f a2bf 5242 093f af8b ff3e
00000050: a8e4 d3bf 72d3 963e 3bd0 4c3f 13f0 da3e
00000060: 14f9 9dbf 3619 423e 9b80 b7be 325d 3d3f
00000070: eb03 dbbf 796b 6fbe 67ac 903f 7d57 3bbf
00000080: 9ba1 63be c366 013f 582f 9f3e 0f42 bb3e
00000090: a97b 9fbe 3cf8 f13d 1294 d2bc 5464 7b3f
000000a0: df51 c8be 99fc 71bd 04bb 523f 4dec a53e
000000b0: f444 3fbd 24e0 1fbf 0ed9 2d3c 3203 efbe
000000c0: ce50 edbd 5e7e 5b3d dce1 b1be 6793 2bbf
000000d0: f0f2 353f b7d4 43be e64b 73bf c281 64bf
000000e0: 8c65 413f 4b38 1bbe 484f 373f 63e7 3dbf
000000f0: d905 fa3e 096e 17be ae77 213f 546f 7d3f
00000100: 06d7 5bbe 7cfa 13bf 6670 12be dee4 38bc
00000110: 3d31 d83d c81f 703f 506a 99bb daf0 12bd
00000120: d587 fd3e f1bc 96bf 7800 a6be e1ea 933e
00000130: 424a 453e 14b7 363f 4593 ffbd 68ac 2d3f
00000140: 58cc b83f b89d b43f 61ed a93e de9e 063f
00000150: f840 b2bf f407 5bbb f56e e33f bb9b 43be
00000160: edfa eebe b1ef 4d3d cc83 453e bbaf dabd
00000170: ef34 72bf d979 cebe 2493 ee3f 1cd6 a4bf
00000180: 1c20 9a3e f164 e2bd 37b9 8dbe 2b93 08bf
00000190: e480 5d3e 2ab2 273e 366e 873c d30d 88bf
000001a0: dd4d 113f 8baf 81bf bc92 8ebe 0c03 233f
000001b0: e444 d83d 5a64 303f 15d7 83bc 5ca1 3d3e
000001c0: d2d8 c43e 9d25 9e3e 26bf a3bf 40a5 6f3e
000001d0: 5ddd 45bf 7187 2e3f 5032 89bd dc11 42bf
000001e0: fe78 2dbf c04e b53e 1490 82be 7dbc 303f
000001f0: 8596 49be b41a c5bf f67b 9e3e 2936 83bd
00000200: b73a ebbe 649c 593e 4298 a43d 1169 a73f
00000210: 7f9a cfbe 3062 5cbf 2499 4ebd fd77 53bf
00000220: b14a 78be 90ad bd3e 8974 14bf a513 c4bf
00000230: 43bd cc3d 8915 57be c5bd 6dbd 7e5e a2be
00000240: 012d 7bbf c8b0 66bf 6e0d 373f efca d43e
00000250: 691c c9be 4dc5 7cbe 077f 223f 6023 9e3e
00000260: 7816 3c3b e227 a5bd b5a7 2dbe 93f9 e0be
00000270: 064d b7bf 23a7 0e3e 8df0 8abe 772f 3b3e
00000280: 14e2 c9bd 29a5 b9be f3e5 7b3f bc6c f8bd
00000290: 153c ccbd 37ec 5d3e 64aa 14bd 5e01 963f
000002a0: f7e5 09be c8e8 89bf 538d 0b3f 7838 16bf
000002b0: 8ffb 2d3c d617 5d3e a735 c63d 79ca 78be
000002c0: 9b1f f2be bda5 573e 4c1b 85bf f7fd 06bf
000002d0: de2b 87bf a5d4 d1be 8b5d 15bd 41c1 0ebf
000002e0: 2366 6b3e d41e 5dbe 161b 7d3f ac26 72bf
000002f0: 59c5 a83e 22d4 0fbf e272 9a3f ccb7 543f
00000300: 7b62 13bf 6dac c3be db6b bb3f 894a 523f
00000310: e1f9 2fbe e3f3 613e bc66 7abd 0dc6 8c3f
00000320: 79c2 13be e78b afbf d1d8 ba3e 80f6 42bf
00000330: 6700 4e3d 84f5 ed3f edeb 75bc 6fc4 ebbe
00000340: 1a3f cabc 2e02 603f b434 8cbf 7f10 fdbe
00000350: 469a dbbe 1fa4 22be c9ae 443c e091 5bbf
00000360: ddbf ce3e d6f1 2dbe 0a50 583f 121e a6bf
00000370: 0d46 25bf d8be 7f3e a9d4 da3f eced 4d3e
00000380: d33c 40be 4ca6 833d 82c5 f4be 5e80 a13f
00000390: d79b c03e cf37 47bd dc4e 313b fa43 403e
000003a0: 6e56 7ebe 7de1 bd3e a4c7 133e 29ae 1e3f
000003b0: c724 88bc 4a8d 6a3d 6197 1abd 9803 0bbf
000003c0: 8c6a 16bd a52e ea3e e27a a53e 2a04 c6be
000003d0: 8d8a a33f 9998 1abe 19c1 83be b80a b8be
000003e0: 9811 fe3e e004 04bf 0a31 3f3e daa4 b9be
000003f0: 0ebe 4d3f acea 9e3e 4c56 173e d39d c13d
-0.123046376 -0.17004985 0.45182776 0.25572404 -0.21789616 0.01973143 -0.11831663 -1.1762692
0.13745813 0.21721849 -0.73262674 -0.9002199 0.24136415 0.18450305 -0.2257912 0.12928462
-0.5947984 -1.2685347 0.5361682 0.49911258 -1.6554155 0.29458195 0.80005234 0.42761287
-1.2341638 0.1895493 -0.35840306 0.7397033 -1.7110571 -0.23380841 1.1302613 -0.7318037
-0.22229616 0.50547427 0.31090808 0.36573836 -0.31149033 0.11814925 -0.025705371 0.98199964
-0.39124963 -0.059078787 0.82316613 0.32406846 -0.04669662 -0.62451386 0.010610832 -0.46682125
-0.11587678 0.05358731 -0.3474263 -0.67021793 0.7107382 -0.19124113 -0.95037687 -0.89260495
0.75545573 -0.15158193 0.7160535 -0.74181193 0.48832586 -0.14788069 0.6307324 0.98998
-0.21468744 -0.57804084 -0.14300689 -0.011285035 0.105562665 0.93798494 -0.004681863 -0.035874225
0.49517694 -1.177641 -0.32422233 0.28890136 0.19266608 0.71373105 -0.12479261 0.67841196
1.4437361 1.4110632 0.33188918 0.5258616 -1.3926077 -0.0033421488 1.7768236 -0.19102375
-0.46675816 0.050277416 0.19288558 -0.10678049 -0.9461202 -0.40327337 1.8638654 -1.2877841
0.30102623 -0.11054409 -0.2768037 -0.5334956 0.21631199 0.16376558 0.016532045 -1.0629219
0.56759435 -1.0131696 -0.27846324 0.63676524 0.10560015 0.68903124 -0.01609377 0.18518585
0.3844667 0.30888072 -1.2792709 0.23402882 -0.772909 0.6817542 -0.066990495 -0.758085
-0.67762744 0.35411644 -0.25500548 0.6903761 -0.19686325 -1.5398774 0.3095395 -0.064068146
-0.45943233 0.21251065 0.080368534 1.3078939 -0.4054756 -0.8608732 -0.050439015 -0.8260496
-0.24247243 0.3704648 -0.5799032 -1.5318495 0.09997036 -0.21004309 -0.058042306 -0.31712717
-0.98115546 -0.90113497 0.7150487 0.41561076 -0.39279488 -0.2468464 0.6347508 0.30886364
0.0028699916 -0.08064248 -0.16958506 -0.4394041 -1.4320381 0.13930945 -0.2713665 0.18279825
-0.09857574 -0.3625882 0.9839775 -0.121301144 -0.09972397 0.2167214 -0.03629531 1.1719167
-0.13466631 -1.0774164 0.5451252 -0.58679914 0.010619058 0.21591124 0.09678202 -0.24295987
-0.47289738 0.21059318 -1.0398955 -0.5273127 -1.0560262 -0.40982547 -0.036466163 -0.5576363
0.22988181 -0.21593791 0.98869455 -0.9459026 0.32963064 -0.56183064 1.206631 0.8309295
-0.57572144 -0.38217488 1.464229 0.8214498 -0.17185165 0.22065692 -0.06113313 1.099794
-0.14429654 -1.371457 0.36493543 -0.7615738 0.050293352 1.859055 -0.015009862 -0.46048304
-0.024688292 0.87503326 -1.0953584 -0.49426648 -0.4289114 -0.1588292 0.012004563 -0.8576946
0.40380755 -0.16986784 0.8449713 -1.2977927 -0.64560014 0.24975145 1.7096149 0.20110291
-0.18773203 0.06428203 -0.47806937 1.26173 0.37618896 -0.048637208 0.002705506 0.18775931
-0.24837658 0.37086096 0.14431626 0.619845 -0.0166191 0.05726365 -0.037742022 -0.5430236
-0.036722705 0.45738712 0.32320315 -0.38675052 1.2776657 -0.15097274 -0.2573326 -0.35945678
0.49622798 -0.5156994 0.1867105 -0.36258584 0.80368125 0.31038415 0.14779013 0.09453931

back.0.bias f4 [128]
00000000: 2de7 6fbe edae d4bd b1f3 0abe c8a1 bcbc
00000010: 12db a0bd 50e7 81be 4f6b 5abe 225c 9bbd
00000020: ef58 28be 3e56 67be 04d8 36be b5d0 bcbc
00000030: f582 4ebd a4ba b43b 52f5 b23d 0688 59bd
00000040: ea76 18bd 1483 c9bd ac88 5ebe d701 32be
00000050: 78b2 7fbd 4995 2dbe 83ac 58bd 3c9b cabd
00000060: e062 8cbd 16ed 80be f2e9 a8bc 0597 44be
00000070: dd09 c3bc 4390 3bbe c112 e2bd 10e1 0abe
00000080: a814 d4bd 2be5 47be e065 b43b 26bd 4b3d
00000090: c6d4 03be fd29 72be d5be 86bd 5f68 93bd
000000a0: 5eee d1bd c008 e6bd e123 11be 4a0e f6bd
000000b0: 79ba 0ebe 4e40 003d 1150 f1bd 4110 e5bd
000000c0: bdbb 67be 0200 693d 104a ad3a 5d78 17be
000000d0: cb37 9b3d 403d 6abe bd4b c33c 5984 e5bd
000000e0: 7533 6dbc d319 85be 2317 0bbd 87ee 423c
000000f0: acd3 02be d6ea 2fbe 3297 79bd cb99 f4bd
00000100: 9f2b d6bc c7e2 8cbd abd7 d7bd 7cb6 26be
00000110: 45b5 c5bd 72f8 99be 0b6a b5bd 4bdd e6bd
00000120: ba92 8f3c 321b 53bd 523a e63a 0d94 94bd
00000130: dca3 80be 64a5 5dbd 21a5 043d a495 b6bd
00000140: 8bce 28bd aca9 a83c d1bb 22be d8c6 703d
00000150: c99c 3d3c c2e2 91be 819a 39bc 94ed 1abd
00000160: d4da dbbd 1091 4b3d 127e dbbc 8046 ad3d
00000170: a079 a1bd 4bc0 9ebd 5857 2fbe f679 4fbe
00000180: b315 20be 0def 90be 3dbb cfbc c8bb e7bd
00000190: f33a c6bb 4266 dfba a3ff 54bd 2427 abbc
000001a0: f8bd 643d b314 57bd 4d64 23be 7db9 c1bd
000001b0: 1af0 01be 7c99 15bd ab14 53bd c90c 443c
000001c0: 3079 9dbd ef21 85bd 4779 b5bd c73a 533c
000001d0: dfbc 31be a209 02be 7ac1 9cbe 389d 993d
000001e0: 7358 6ebe e374 d3bd 2924 7e3d 1668 6a3d
000001f0: 6602 3ebe c771 bebc 2765 93bd eda7 0ebe
-0.2342803 -0.10384927 -0.13569523 -0.023026362 -0.07854284 -0.2537179 -0.21329997 -0.07585932
-0.16440175 -0.22591493 -0.17855841 -0.023048738 -0.05041786 0.0055154134 0.087381974 -0.053108238
-0.03722278 -0.09839454 -0.21731824 -0.17383514 -0.06242606 -0.16951479 -0.052898895 -0.0989289
-0.068547964 -0.25180882 -0.020619366 -0.19198234 -0.023808414 -0.1831675 -0.11038733 -0.13562417
-0.10355502 -0.19521014 0.0055053085 0.049740933 -0.12874135 -0.2364883 -0.06579367 -0.071976416
-0.10250543 -0.11232138 -0.14173843 -0.12014444 -0.13938321 0.031311326 -0.117828496 -0.11184741
-0.2263021 0.056884773 0.0013220925 -0.14792009 0.07579001 -0.22874928 0.023839826 -0.11206884
-0.0144776 -0.25996265 -0.03395761 0.01189769 -0.12776059 -0.17179427 -0.060935207 -0.11943396
-0.026143847 -0.06879192 -0.10539182 -0.1628055 -0.09653715 -0.3007236 -0.08858117 -0.11272677
0.01752602 -0.051539607 0.0017564988 -0.07254801 -0.25125015 -0.054112807 0.03238404 -0.089152604
-0.0412126 0.020588718 -0.15891959 0.058783382 0.011573025 -0.28493315 -0.0113283405 -0.03782423
-0.107350975 0.04969889 -0.026793513 0.084607124 -0.07884526 -0.07751521 -0.17123163 -0.20261368
-0.15633278 -0.2830738 -0.025357837 -0.11315113 -0.0060495078 -0.0017044025 -0.052001607 -0.020892687
0.05584523 -0.052509975 -0.1595623 -0.09459207 -0.12689248 -0.036523327 -0.051533382 0.011965939
-0.0768913 -0.06500613 -0.088610224 0.012892432 -0.17357205 -0.12698987 -0.3061636 0.0750069
-0.23275928 -0.10325029 0.062046204 0.05722817 -0.18555602 -0.023247613 -0.07197028 -0.13931246

back.3.weight f4 [64, 128]
00000000: 71d5 183f e9b8 9cbd a514 37bd 2cee 493c
00000010: de6b cc3d 40fe 17be f356 eabd 6638 26bf
00000020: cf38 0d3c 2648 1ebe 8c45 953f a48f a13c
00000030: 6c2d 33bf e2ed f13c cf83 fcbc d36c 29bd
00000040: 2066 a5be bbad d5bd 062c 05be bb77 2bbe
00000050: 4e14 8b3d a19d e03e dbc8 90be 98e7 d1bd
00000060: 9027 9fbf 1c18 a2bd 4334 08bd 9565 b03d
00000070: a2c6 ecbd f90f b03e 55ea c2be 7dbd 7e3c
00000080: b3c9 b03e ea13 14be 93a7 55bd 9e9a 1dbd
00000090: 2897 193d 1aa2 40bf 274b 57bf 8746 4cbb
000000a0: f713 2cbc c999 d33e 7dfa 223d 0651 923e
000000b0: 617d e0be 9001 b1bc 2a31 7ebe 09c9 4c3e
000000c0: 683e dfbd b50b 28bf c083 07bd a030 08bf
000000d0: 724b 223d 7ad9 6e3d b3ec 0a3d 85cf 2ebd
000000e0: f2ca 58bd 6971 76bc 7a50 58bd 9cf4 bbbe
000000f0: 0d4c 7139 c024 1dbf 0b81 91bd 2594 bc3e
00000100: 40f7 e83c 31db 24bf 78c3 32bd e044 36be
00000110: a516 83be 40f8 c53e ed5a a73d adbc b9bd
00000120: 4b2c afbe 2d2a 98be 7e32 f8bd 8cec 2bbf
00000130: 44c1 50be b8e7 4f3d 708c fc3c 0892 11be
00000140: 10ac 333e 6a61 dfbc b5ab ddbe 48e1 bcbd
00000150: 2a37 61be 1fa0 043f b9f2 e5bb 627b a0bd
00000160: 9e0d 273e 960a d6bc bce8 a63c 3e5f 763c
00000170: ad7d 6c3e 4f0e 6ebf ecd6 903b 999c 01be
00000180: 2e48 6fbe 723e 3a3e d5ab 7abf 903f 3cbf
00000190: ee15 013c 5f9c cabd 66d4 72bb 7002 c03d
000001a0: 5a60 2e3c bd70 8a3d c276 bf3b ddd0 bbbd
000001b0: c7db 9bbe b294 b83d c914 04be 6489 21bf
000001c0: 2a70 493d 0550 3fbe 375d 703e 7bcd 5abc
000001d0: 520c 3dbf 81eb ba3e 0e05 7b3e 8093 efbc
000001e0: eb14 02be 4172 29be c953 023d 58af b73b
000001f0: 5842 3fbf 2d7b 163d 7e2f dd3e a020 cabe
00000200: 8e17 68bd 837e 10bf 9be6 013f 7795 93bd
00000210: 6710 62be 3f5d cdbc b529 92bd 6c6e a2bc
00000220: 08af 8cbe e269 8d3d 6025 ac3d b163 f03b
00000230: 54fe c0bd ae7b 7abd 8742 88bd 57bd cbbe
00000240: 9d02 0fbc 4b4d 3b3e 63fa 823e d932 a1be
00000250: 7410 713c c742 49be f5e9 e43c da9a 813d
00000260: 4305 c4bd a8ee 9b3e fe1b e53c 13ab 1a3e
00000270: a1d0 19be 5ccd 82be 39d5 75bc 6b62 15be
00000280: 576e 9b3e b82d 09bd 5e4d c1bd b7fe 2e3d
00000290: 2881 fb3d a942 593e 9929 753d efac a1be
000002a0: 1242 503d 600b 513e a0e0 453b 98db 503f
000002b0: 9cd8 1d3e f49e b73c 1d75 9cbc 6a70 14bf
000002c0: 49cd 983e 3adb 9c3c 0503 a4be 660b 31bc
000002d0: d48d e8be dd40 3abe 2b4c cc3c 0077 f6be
000002e0: b24e 003d f0ce 143f 6866 053d 6475 313c
000002f0: c224 31bd 41b7 5e3e bd6f 43bc 8a6b d53e
00000300: 0f6b c4bd ed91 d7bb 238b 9f3d 8480 fd3d
00000310: 8846 d03c 278f 373e 72ab 3fbe bf57 433e
00000320: 914b 11bc 4e19 143d 91c7 b93c c1db e23c
00000330: 6e0c 043e a797 95bd 2489 3dbf 761f 9d3d
00000340: 634f 2cbf 2cf9 16bf 5a83 ac3c 67ca 283d
00000350: f867 b63d fa13 24bd 71ca 093d cd96 38be
00000360: 3a71 03be ea17 a4bc 8c0b 583d ac82 19bf
00000370: f094 9e3d 9bde 6d3d d75b 1abd 9f3f 3b3d
00000380: 5cca f53e bd36 603e 3269 eb3c 1ccc 4dbd
00000390: dd94 22bc 5246 3cbf b662 13bf 781d cebd
000003a0: 561e 07bd a424 d4bc 2357 573e 1418 c6bc
000003b0: 2a20 31be 5868 0bbf b98a 7f3d 313e 1d3c
000003c0: 1f3e 1b3c bc15 013d 0741 e83d 4bb7 183c
000003d0: ab75 cf3e ba3d 823e 3c70 03be 1b6e f0be
000003e0: 52f1 96be 93c2 9e3d 0f48 cf3d af75 9bbb
000003f0: dbc8 033e 4d7f 803c 6ad4 633e b2ac 55bd
0.59700686 -0.07652456 -0.044697423 0.012324851 0.099815115 -0.14843082 -0.114423655 -0.6492981
0.008619501 -0.1545721 1.1661849 0.019721813 -0.69991183 0.029532377 -0.03082457 -0.04136355
-0.32304478 -0.10433527 -0.13005075 -0.16744892 0.06790982 0.4387026 -0.2827824 -0.10249251
-1.2433949 -0.07914755 -0.033252966 0.08613125 -0.11561324 0.34387186 -0.38069406 0.015548107
0.34528884 -0.14460722 -0.052161764 -0.038477533 0.03749767 -0.7524735 -0.8409905 -0.0031169967
-0.010502807 0.41328266 0.039789665 0.2857744 -0.43845657 -0.02160719 -0.24823442 0.19998564
-0.10900575 -0.65642864 -0.03308463 -0.53199196 0.03962273 0.05831287 0.03391714 -0.042678375
-0.05292792 -0.0150416875 -0.052811123 -0.3671006 0.00023011882 -0.613842 -0.07104691 0.36831775
0.02843821 -0.6439696 -0.043643445 -0.17799711 -0.25603214 0.38665962 0.081716396 -0.0906919
-0.3421348 -0.29719678 -0.121190056 -0.67157817 -0.20386225 0.050758094 0.030828685 -0.14215863
0.17546105 -0.02726813 -0.43295065 -0.092226565 -0.219937 0.51806825 -0.00701746 -0.078360334
0.16313788 -0.026128095 0.020374648 0.015037356 0.23094817 -0.92990583 0.004420152 -0.12657394
-0.23367378 0.18187883 -0.97918445 -0.7353449 0.007878764 -0.09893107 -0.003705287 0.09375465
0.010643089 0.06759784 0.0058430145 -0.09170697 -0.30441114 0.090127364 -0.12898554 -0.63100266
0.049179234 -0.18682869 0.23473059 -0.013354654 -0.73846924 0.365078 0.24513647 -0.029245138
-0.12703292 -0.1654749 0.031818185 0.0056056194 -0.7471061 0.036738563 0.43200296 -0.39478016
-0.05666309 -0.5644304 0.507425 -0.072062425 -0.2207657 -0.025068877 -0.07136861 -0.019828044
-0.27477288 0.06904961 0.08405566 0.007336103 -0.09423509 -0.061153106 -0.06653314 -0.39792892
-0.00872865 0.18291204 0.25581655 -0.31484106 0.014713395 -0.1965438 0.02794359 0.06328364
-0.09571316 0.30455518 0.02796745 0.15104322 -0.15020992 -0.25547302 -0.0150044495 -0.14588325
0.3035762 -0.033490866 -0.09438585 0.042723384 0.12280494 0.21216835 0.059854124 -0.3157725
0.05084426 0.20414495 0.0030193701 0.81585073 0.15414661 0.022414662 -0.019098813 -0.5798403
0.2984412 0.019147504 -0.32033554 -0.01080594 -0.45420706 -0.18188806 0.024938663 -0.48137665
0.03132505 0.5812826 0.032568365 0.010831211 -0.043247946 0.21749593 -0.011928496 0.41683608
-0.09590732 -0.006578675 0.0779021 0.12378028 0.025424257 0.17925702 -0.18717745 0.19076441
-0.008868114 0.036156945 0.022678168 0.027692677 0.12895367 -0.07304316 -0.74037385 0.07672016
-0.67308635 -0.58973956 0.021058727 0.04120865 0.08906549 -0.040058114 0.03364033 -0.18026276
-0.12836161 -0.020030934 0.052745387 -0.59965014 0.07743251 0.05807362 -0.03768524 0.04571497
0.4800595 0.21895881 0.028736684 -0.050243482 -0.009923187 -0.735448 -0.57572496 -0.100642145
-0.032987915 -0.025896378 0.21029334 -0.024181403 -0.17297426 -0.5445609 0.062388156 0.009597347
0.00947526 0.03151487 0.11340528 0.009321044 0.4051946 0.2543772 -0.12835783 -0.46959004
-0.29480988 0.07751956 0.10121166 -0.0047442536 0.12869589 0.015685702 0.22248998 -0.05216665

back.3.bias f4 [64]
00000000: fe45 13bc fc09 123c b862 df3c 2d12 4f3d
00000010: 07bc 823d 90ca 103e c634 593a 6602 f43c
00000020: 0e7d 6bbb 6ca5 423d ecfa 393d 7acd 153d
00000030: 91e6 65bc 124d 2dbc 3d58 9abc ab83 f83d
00000040: 2414 b5bb 0d5b e73a b503 e33c d232 c33b
00000050: 5f9c 3a39 51e3 b53c 3f70 853d 7d96 5dbc
00000060: 7444 d13c a76d dc38 7c46 a43c f26a cb3c
00000070: 4a8c ab3c 1359 703d dd08 a23c 4b49 c6bb
00000080: 7acc d33c e860 c13b f3fc b83b bb8d 503d
00000090: db97 fa3c 577a 9939 69a7 943b 7143 debd
000000a0: a9e5 cf3c 6ae5 1e3c 9bfa 47bd c091 8b3c
000000b0: f376 8a3d 3901 ac3d 6847 16bc ef6b 9fba
000000c0: 76bb dfbb b2ea 963d dc56 0d3d afa5 413d
000000d0: 3dc3 b7bc b87d 7abc f6b1 a23c f768 103d
000000e0: f62f 293b 63c3 8ebc 5521 e93d c8be 473d
000000f0: 8bd9 90bc 5052 273a ebbf 81bc 2ce7 bb3c
-0.008988855 0.008913513 0.027268752 0.050554443 0.063835196 0.14139771 0.0008285757 0.0297863
-0.0035932693 0.04752104 0.045405313 0.03657291 -0.014032022 -0.010577457 -0.018840903 0.12134489
-0.0055260826 0.0017651037 0.027711729 0.005956986 0.00017796595 0.02220312 0.0651555 -0.013524649
0.025545336 0.00010510842 0.02005314 0.024831269 0.020940918 0.058678698 0.019779617 -0.0060512177
0.025854338 0.0059014447 0.0056453883 0.050916415 0.030589988 0.00029273584 0.0045365584 -0.10852707
0.025378065 0.009698251 -0.04882298 0.017037272 0.06760969 0.08398671 -0.009172298 -0.0012162904
-0.006827767 0.07368983 0.034506664 0.04727715 -0.022431964 -0.015288763 0.019860249 0.035256352
0.002581594 -0.017427152 0.11383311 0.048765928 -0.017681858 0.000638281 -0.015838584 0.02293738

back.6.weight f4 [32, 64]
00000000: bc7b 06bd 3ae5 25bc 5ad6 2a3d 4c69 923d
00000010: ddb3 f8bc 8b14 77bd e221 183f 7ae7 15bd
00000020: b9c7 0d3f a25d 2a3d 5a14 84be 5c0b 683d
00000030: eff7 81bc dd19 4b3e 77a8 2b3f 0c81 50bb
00000040: 9236 233e cc4a 4bbe 06a4 21ba c57e 4a3d
00000050: 5023 293f fe42 703e 6868 ae3d 3e11 b93d
00000060: 6d45 babc 76fd bc3c 8b4f 1cbb 4817 46be
00000070: f995 d1bc 479c c43e 5199 943d 639b e93e
00000080: 7114 a33e 3c4f dd3c 8b87 063e 9a70 f83d
00000090: 859f 233e eda3 463e aa1c 4e3d 9de5 893c
000000a0: 823e 59be e534 35bd 9772 a4bd 9a6c 1e3d
000000b0: af1a fb3c e4f7 29bd 97a0 4dbe 6c60 acbc
000000c0: ad4d 233e 6ca3 80bd 767e 3c3e 6bc7 67bc
000000d0: 89b0 08be 2607 d13e 2db2 81bc 47ef e93e
000000e0: 86f5 0c3d 3d84 c73d f0b5 eabd 680d 663e
000000f0: 8012 0bbc 52c2 993d 117d 1a3f b12d afbd
00000100: 085d c2be f790 0ebd c2fb 713d 6798 f6bc
00000110: 4b86 cabd c82e 81bc 6a22 f43c da17 e8bc
00000120: 52c0 c6bd f46b 2e3e 041d 2abd 0b50 9b3e
00000130: d9ca efbe e642 123e d12a 7e3d 5bac 88ba
00000140: e4c7 cb3d adfc 01bb c6b7 e7be 8c10 ec3d
00000150: 25dc 8a3d a4b6 773e 4b18 803c 652c 3c3e
00000160: e6b2 dd3c 783d ce3d 2bf9 0dbf bc97 af3d
00000170: daa9 0abd 1bad 2a3e 17e9 adba 8ec4 a63d
00000180: d843 9fbd 3117 863e 9552 d23e 630e 0b3e
00000190: 3d1a 1d3e a88a 0d3e 17f9 bdbe bdb9 543e
000001a0: b89d c33d 555b 80bb f6b1 113e 0fe6 433e
000001b0: 0b5b 3abc 7eaf 10bd 2a01 b43d f32c 03bf
000001c0: 2770 bc3e fb3a 243d 9833 07be 71c5 6fbd
000001d0: 262c cb3d be54 9b3d 5a58 113e c321 993d
000001e0: af47 ae3d e054 2b3e c714 debb 8183 673e
000001f0: 0451 02bf 16bd ab3d 29d8 f83d 08e2 a9bc
00000200: 8c40 2e3e 946d 89bd ade8 aabd 2b18 0f3e
00000210: c22f d03e e83a 413c 57ef 8fbd 9076 723c
00000220: d0d7 0ebe e16c 9fbc 1a2a 87bc 7f67 0cbc
00000230: 80e8 14be 89d9 59be 86a4 3e3d 783d 933c
00000240: a2b8 88bd 6b75 b03d 4f1c 2b3e 72d5 8b3d
00000250: b165 523c 9fa0 c33d 3d2c d0bc d017 d9bc
00000260: 385f d3bd 222e 07be 297c a3bd 0a85 9abd
00000270: 8e84 37bd 425f e13d 5062 c0bd f2e1 d03c
00000280: 25af 97bd 7688 31bd cf72 943d 0085 133e
00000290: 8e47 17bd 775f 8abc 628d 283e 9bea 1dbe
000002a0: 08fe b3bc 0a1d 023c 78ad 8fbe 3927 acbd
000002b0: 97d1 c8bc b679 39bd c7f1 f6bd 97eb b1bd
000002c0: 4b43 a93d 1458 273e 3033 d93b 46b3 cebd
000002d0: 8c98 343e a6ef a0bd 043f 0a3e a1e8 a3bd
000002e0: cbc9 0bbf 91ea 19be ccb5 fdbc 770a 263e
000002f0: 89e0 b33b ba91 7abd ec7c 063e 670c 28bd
00000300: d525 703d 8d52 0b3d 9e18 c33d 7092 03be
00000310: 09f3 5d3d 8822 29bc b829 e4bd 2f6e 04bf
00000320: d4d4 823c 7e22 693d 8e15 a3be 5c45 07bd
00000330: 7927 023c eb5b c83c 7fdb 973d 978b 8bbf
00000340: f21d 993c 7963 0dbf 306f 4ebb ae85 d5bd
00000350: 4eab b13c 9b21 57be 3f77 3f3e fc40 66bd
00000360: bcd4 9f3b 4165 5fb9 aef6 f63c b2b8 9fbd
00000370: 1602 e7bd 48b6 c6ba 0217 eb3d d4a4 b9bc
00000380: 5cf5 5cbc a7bf 043c 3d61 1b3a 9b14 4e3e
00000390: 096c f2bd 45ba 26be 0930 6abc 8c58 f6bd
000003a0: 5cdd 19bd 4f1a 80be d61c 14bf ed01 97bc
000003b0: e332 8a3e c4f1 1dba 23e7 5cbd 6855 8d3c
000003c0: af2f 98bc 8a65 3ebd 2768 783d 495b 99be
000003d0: 5e10 19be 9aea 80bc ba4b 2f3e be58 2d3e
000003e0: 5264 8db9 0d97 9b3d 3827 1c3c 1b9b 8f3c
000003f0: 83ce 743c d15f 20bc 332b 423d 2335 86be
-0.032832846 -0.010125453 0.041708328 0.0714899 -0.030359203 -0.060322326 0.594267 -0.036597706
0.5538288 0.0415932 -0.25796777 0.05665146 -0.015865294 0.19834085 0.6705393 -0.00318152
0.15938786 -0.19852751 -0.0006166104 0.049437303 0.6606951 0.23463055 0.08516008 0.09036492
-0.022738183 0.023070078 -0.0023851122 -0.19344819 -0.025584208 0.3840048 0.07255805 0.45626363
0.31851533 0.027015321 0.13137643 0.12130852 0.1597882 0.1939847 0.050320305 0.016833121
-0.21215251 -0.044239897 -0.08029669 0.03867779 0.030652372 -0.041496173 -0.20080791 -0.021042071
0.159476 -0.0628117 0.18407616 -0.014146666 -0.13348593 0.40825766 -0.015832031 0.45690367
0.034413837 0.09742019 -0.11460483 0.22466052 -0.008488297 0.07507767 0.60347086 -0.08553637
-0.37961602 -0.034806218 0.059077986 -0.030101968 -0.098888956 -0.015769377 0.029801566 -0.028331686
-0.09704651 0.17033368 -0.041531578 0.30334505 -0.46834448 0.14283332 0.06205255 -0.0010427342
0.099502355 -0.0019834444 -0.45257396 0.115265936 0.067802705 0.24190766 0.015636584 0.1837631
0.027062844 0.10070318 -0.55458325 0.08573863 -0.03385339 0.16667597 -0.0013268319 0.081429586
-0.07776612 0.2618957 0.4107863 0.13579707 0.1534204 0.13822424 -0.37104103 0.20773979
0.09551567 -0.0039171376 0.14228043 0.19130729 -0.011374245 -0.035323612 0.087892845 -0.5124046
0.36804315 0.04009531 -0.13203275 -0.058537904 0.0992053 0.07584523 0.1419386 0.07477143
0.08509766 0.16731596 -0.006777379 0.22608759 -0.5090487 0.08385675 0.12150604 -0.020737663
0.1701681 -0.067103535 -0.08345161 0.13974063 0.40661436 0.0117938295 -0.07028072 0.014798775
-0.13949513 -0.019461097 -0.016499568 -0.008569597 -0.14541817 -0.2127439 0.04654362 0.017973647
-0.06675841 0.08616146 0.16710018 0.06827821 0.012841628 0.095521204 -0.02541172 -0.026500612
-0.10320896 -0.13201192 -0.07982666 -0.075449064 -0.04480415 0.11004497 -0.093937516 0.025498364
-0.07406453 -0.04334303 0.072484605 0.14406204 -0.036933474 -0.016891224 0.16460183 -0.15421526
-0.021971717 0.007941494 -0.28062034 -0.08405919 -0.024514003 -0.04528209 -0.12057834 -0.08687513
0.08264788 0.16342193 0.0066284165 -0.100927874 0.17636317 -0.07858209 0.13500601 -0.08003355
-0.54604787 -0.15030886 -0.030970477 0.1621493 0.005489413 -0.061174132 0.13133591 -0.041027453
0.05862983 0.034014273 0.0952618 -0.1284883 0.054186855 -0.010323174 -0.1114077 -0.51730627
0.015970625 0.05691766 -0.31852382 -0.03302513 0.007943981 0.024457892 0.074149124 -1.0901974
0.018691037 -0.5522991 -0.0031499378 -0.10425888 0.02168813 -0.21008913 0.18697833 -0.056214318
0.004877655 -0.00021304657 0.030146923 -0.077989 -0.11279695 -0.0015160525 0.11478998 -0.022661604
-0.013486233 0.008102334 0.00059272704 0.20125048 -0.11837012 -0.16281994 -0.014293679 -0.12028608
-0.03756462 -0.25020072 -0.578565 -0.018433535 0.26991948 -0.00060251006 -0.053931367 0.017252639
-0.018577425 -0.046483554 0.060646202 -0.29952458 -0.1494765 -0.015736867 0.17118731 0.16928384
-0.0002696836 0.0759717 0.009530835 0.017530015 0.014941814 -0.009788469 0.04740448 -0.26212415

back.6.bias f4 [32]
00000000: 3567 ab3d 380e 04bf 6a95 ce3d 8bbb be3d
00000010: e8b5 cabe 2bbd 8b3c 67b0 893e 85e6 963d
00000020: d00d de3d a6b7 3bbe 7b74 4d3d 22ed 9a3c
00000030: 403e 91bd 7bed e0ba ac5a 4e3d 7b64 963c
00000040: 8a82 28be 918a 1a3d a227 d03d 2c8c e6be
00000050: f6c9 693d 3e12 ad3d e487 5f3e 2b94 013e
00000060: 3f68 813e b693 a3bd ce09 253e 7d70 1cbd
00000070: 929d 9a3d ca5f f73c 6c7e e73d 26ae b53d
0.083692946 -0.51584196 0.10087092 0.09313115 -0.39591908 0.017057976 0.26892397 0.07368187
0.10842478 -0.18331775 0.050159913 0.018911902 -0.07091951 -0.0017160618 0.05037944 0.01835846
-0.16456047 0.037729803 0.10163809 -0.45028818 0.05707737 0.08450745 0.21829182 0.12654178
0.25274846 -0.07987158 0.16117021 -0.038193215 0.075495854 0.030197043 0.1130341 0.08871107

ellipticity.0.weight f4 [2, 32]
00000000: 9728 9abd a26c 08be 2554 4cbd 38f0 3dbd
00000010: 05e1 c63b bc5e 103d 3b15 a6bd 5174 dc3d
00000020: 0fa6 f7bd 2afe 62bd 448f e1bc 78af 55bb
00000030: 452c 9fbc 617e 45bd bf7f 813c 0c60 9a3d
00000040: b86d 00bd 61d2 333c 9e60 1a3d 6e84 fa3d
00000050: 40a9 0dbe cca4 ea3c 0b45 aa3c 35c8 adba
00000060: 7f52 fe3d b860 063c 2779 023e 0ba9 a03c
00000070: 7968 833c 25b0 a5bc 3116 c0bd bf11 1f3e
00000080: 5d79 89bd 869b 133c ef6b 413d ff7c bcbd
00000090: 3112 043e 7cd1 203d 39d6 14be 7459 12bd
000000a0: e94f 163b 04c4 2f3c 007a 463e 9d03 2b3d
000000b0: 74df 1b3e 9bae 7ebc 0fb2 4fbd 4800 f4bc
000000c0: e1ea a53c 12cb 0cbe adc4 9b3d 8557 533d
000000d0: 1353 6fba 0d31 ddbc a608 c3bd 0ca8 e23d
000000e0: 0419 67bd db52 1ebb 60ea c63c 1ff2 793d
000000f0: 0105 bebd 8ae9 03be c223 8c3d 76ab d9bb
-0.07527273 -0.1332269 -0.049884934 -0.04637167 0.006069305 0.035246596 -0.08109518 0.10764373
-0.1209222 -0.05541817 -0.027534135 -0.0032605808 -0.019430289 -0.048216227 0.015807984 0.07537851
-0.031354636 0.010975451 0.037689798 0.1223229 -0.13834095 0.028643034 0.020784875 -0.0013258519
0.12418079 0.0082017705 0.12741528 0.019611856 0.016041027 -0.020225594 -0.09379233 0.15534113
-0.06712601 0.009009248 0.047222074 -0.092035286 0.12897564 0.03926228 -0.14534844 -0.03572984
0.0022935814 0.010727886 0.19382477 0.041751493 0.1522196 -0.015544559 -0.05070692 -0.02978529
0.0202536 -0.1374934 0.07605872 0.051597137 -0.00091295055 -0.027000928 -0.09523134 0.11067209
-0.05642034 -0.0024158272 0.02428168 0.06102192 -0.09278298 -0.12882057 0.06842758 -0.006642754

ellipticity.0.bias f4 [2]
00000000: bc23 90bc 7f61 5b3d
-0.017595164 0.053559776

exp_avg f4 [128, 32]
00000000: aba9 fab5 3c26 8db6 7ad1 8535 1563 28b5
00000010: c379 9d38 3fe8 46b6 132b 4539 a991 f534
00000020: eb01 ce36 2a1b 48b6 184d 36b5 be96 f3b5
00000030: c42e 11b9 18e1 53b5 e108 e6b8 8250 4136
00000040: 04c5 a4b6 30df 6935 9ffb abb5 d371 c036
00000050: bd5d b3b5 aaf8 3cb6 60bb de35 3376 3037
00000060: 53fd f5b5 41f6 a038 abec b1b6 482c 2f34
00000070: da05 cab2 281e 2735 8cde 29b6 77cb 21b5
00000080: f1e6 2c36 6830 9f36 2410 1cb6 6a47 0834
00000090: 703b 7937 7787 b636 e73c 5bb9 a2af c135
000000a0: bd5e 28b7 0c33 c435 2aea d435 8135 5136
000000b0: f2a4 3439 e177 02b6 d497 48b8 1286 41b6
000000c0: cfd3 ad36 90f7 9bb5 67f3 1336 e738 f8b6
000000d0: c7cb db35 e643 f036 f273 8ab4 16ec 01b7
000000e0: 61ce aa35 42bf 2537 97b8 c936 c437 21b2
000000f0: 4c53 bb35 0b17 adb5 5e35 2934 c0bf 4c36
00000100: 9015 ab35 47b3 12b7 0d2f dab5 1d3d 75b6
00000110: fed5 8337 9f08 16b7 4241 76b9 e642 57b6
00000120: cc9e d036 4360 a435 6a69 29b7 5d8b 1535
00000130: c42a 00b9 09cf 0337 698e b339 bf9e 8336
00000140: 758c 21b4 1c9f d435 8cc9 3db6 6390 1337
00000150: f07c c0b5 0d4f 9db6 86ef 2037 2699 e936
00000160: f520 10b7 9638 b537 faf6 3635 0641 0535
00000170: 690e a634 576d 6136 5fa1 6eb6 adcf 1fb7
00000180: 4a53 bbb4 e514 87b6 b2c9 03b5 f694 60b5
00000190: b195 6e37 27fe e9b5 753d 18b9 c5ec b2b4
000001a0: a1d7 1f36 328d 39b5 c32e 69b6 d063 f4b4
000001b0: f774 8db8 f573 0a36 bbea 8b38 5c51 8336
000001c0: ce70 bbb5 0299 c6b4 394d 0a35 c05e 8036
000001d0: 7b12 92b5 53d1 f0b5 7d7c 0836 7171 c336
000001e0: 63ff 41b6 9184 dc37 574a 17b5 c97f deb4
000001f0: cb43 8735 06d8 b835 8a5d 00b6 4d89 28b6
00000200: c2c1 7db5 91c1 e8b5 0942 a9b4 d27b f7b4
00000210: 58fc 5638 c0bf d8b5 ea21 9937 27ed 2ab2
00000220: adf4 4e36 ac5c 93b5 ff44 cfb5 b18a c7b4
00000230: e8be 7ab8 f447 8fb5 d4be 55b8 b9f2 e835
00000240: 0a59 01b6 c1e2 6d34 02b9 6cb3 b2e5 2936
00000250: 1219 0bb4 8eef 15b6 9da3 8b35 9140 8e36
00000260: f3db 04b6 d11e 2d38 3fa9 67b5 5c73 af34
00000270: cebd b3b1 708b cb34 0068 b1b5 84a1 e6b4
00000280: ff75 7034 767b 8ab5 3960 5535 c9b1 cdb5
00000290: 933d 98b8 2d26 4db6 21a1 a9b8 4a70 2234
000002a0: b21c f0b5 ddba bc34 259a 9d35 e71c 5fb3
000002b0: 4961 f1b6 8238 f934 da25 eb38 0e62 63b5
000002c0: 1dbd 1236 3589 1c35 8c3e 93b5 3def 0bb5
000002d0: 7111 4d35 d971 2bb5 8e14 5736 f3e0 5bb6
000002e0: 755a e6b5 143d cab8 5691 b435 366b 5535
000002f0: 5850 ba34 b76b f433 ad35 4534 1412 52b5
00000300: 5f0c acb4 89fc 97b6 c681 c633 b085 5834
00000310: e0ef 8338 0eb9 56b6 fa55 ee38 8414 1eb5
00000320: cc80 bf36 94f9 4fb5 4769 4ab6 d134 24b6
00000330: dac0 0fb9 b295 63b5 b328 d438 116e 1f36
00000340: 775a 34b6 f97d bb35 83f0 b3b5 db8c ab36
00000350: 4fc0 e734 b919 a9b6 a89e 0d36 9217 1d37
00000360: 0a47 97b6 9f5a 9737 9caf 67b6 d47c b334
00000370: bcec 4db5 1410 aa35 5fd9 3db6 2069 75b6
00000380: dc70 97b6 de4f 3b36 fe09 0e36 4e9b 13b6
00000390: a835 1037 c0ea 3ab6 f856 0f39 de1c f335
000003a0: 2994 0136 9931 d9b5 7434 a436 6848 e234
000003b0: f38a acb7 5ac0 8db6 1638 93b9 152a 3bb5
000003c0: dea8 e5b5 80cf ec35 b70e 1035 de92 5db5
000003d0: 0494 c635 b6d2 88b6 59f9 ce34 7b80 9eb6
000003e0: c957 0236 66bf 34b7 4f48 0436 1101 2136
000003f0: 57d5 c4b5 abbe dfb5 8720 be35 d211 8036
-1.8675831e-06 -4.2065785e-06 9.970238e-07 -6.272906e-07 7.509023e-05 -2.9639484e-06 0.0001880343 4.5740788e-07
6.1395017e-06 -2.9818134e-06 -6.791247e-07 -1.8148783e-06 -0.00013845699 -7.893118e-07 -0.000109689085 2.8806103e-06
-4.9105165e-06 8.7124045e-07 -1.2813724e-06 5.735297e-06 -1.3363821e-06 -2.8158925e-06 1.6594822e-06 1.0517938e-05
-1.832765e-06 7.675263e-05 -5.302563e-06 1.6314254e-07 -2.3518556e-08 6.225623e-07 -2.5312502e-06 -6.0273254e-07
2.5764423e-06 4.7442045e-06 -2.3255207e-06 1.2691967e-07 1.4855395e-05 5.439793e-06 -0.00020908155 1.4430736e-06
-1.0035638e-05 1.4617995e-06 1.5863382e-06 3.117457e-06 0.00017227585 -1.9441288e-06 -4.7825117e-05 -2.883728e-06
5.1804595e-06 -1.162045e-06 2.2046386e-06 -7.3976003e-06 1.6376079e-06 7.160462e-06 -2.5788864e-07 -7.743967e-06
1.2726051e-06 9.879297e-06 6.011756e-06 -9.384113e-09 1.3956828e-06 -1.2896211e-06 1.5758766e-07 3.0509982e-06
1.2746768e-06 -8.744019e-06 -1.6255959e-06 -3.6543418e-06 1.5716065e-05 -8.942704e-06 -0.00023484699 -3.2076437e-06
6.2173694e-06 1.2246968e-06 -1.0097729e-05 5.5709626e-07 -0.00012222963 7.856413e-06 0.00034247644 3.9225847e-06
-1.5045391e-07 1.5841538e-06 -2.828051e-06 8.7955e-06 -1.4341476e-06 -4.6881673e-06 9.592512e-06 6.96177e-06
-8.590742e-06 2.1603231e-05 6.815968e-07 4.964098e-07 3.0930394e-07 3.3591257e-06 -3.5558694e-06 -9.525492e-06
-3.4892065e-07 -4.025746e-06 -4.909481e-07 -8.366327e-07 1.4220758e-05 -1.7433821e-06 -0.00014518744 -3.3327356e-07
2.3818359e-06 -6.9123337e-07 -3.4746924e-06 -4.5521165e-07 -6.74519e-05 2.0631098e-06 6.6717585e-05 3.9135757e-06
-1.3965416e-06 -3.6991702e-07 5.152138e-07 3.8257276e-06 -1.0883226e-06 -1.7942315e-06 2.033804e-06 5.824659e-06
-2.8907896e-06 2.6287775e-05 -5.636006e-07 -4.1443698e-07 1.0078014e-06 1.3771939e-06 -1.9127933e-06 -2.511387e-06
-9.45318e-07 -1.7341682e-06 -3.152675e-07 -4.6097426e-07 5.125659e-05 -1.6149061e-06 1.8254814e-05 -9.9492246e-09
3.0838812e-06 -1.0979325e-06 -1.5442782e-06 -3.716755e-07 -5.978244e-05 -1.0675271e-06 -5.096088e-05 1.7355989e-06
-1.9274325e-06 2.2154838e-07 -5.5116296e-08 2.5316663e-06 -1.2954504e-07 -2.234217e-06 1.0403925e-06 4.2394463e-06
-1.979756e-06 4.1275114e-05 -8.630049e-07 3.2680225e-07 -5.231164e-09 3.791315e-07 -1.3217796e-06 -4.2958357e-07
2.2394669e-07 -1.0317733e-06 7.9488706e-07 -1.5325433e-06 -7.259394e-05 -3.0569602e-06 -8.0885606e-05 1.5128276e-07
-1.7889745e-06 3.515369e-07 1.1742274e-06 -5.194752e-08 -7.193685e-06 4.642098e-07 0.000112127236 -8.470678e-07
2.1865774e-06 5.831419e-07 -1.0970557e-06 -5.212967e-07 7.639383e-07 -6.3868134e-07 3.204946e-06 -3.276448e-06
-1.7162662e-06 -9.643487e-05 1.3453343e-06 7.9504696e-07 3.4703658e-07 1.13817286e-07 1.8366582e-07 -7.8257403e-07
-3.2046498e-07 -4.5295496e-06 9.243699e-08 2.0165203e-07 6.291247e-05 -3.19962e-06 0.00011364739 -5.888944e-07
5.7072375e-06 -7.7476693e-07 -3.0161625e-06 -2.4468648e-06 -0.00013709386 -8.4781925e-07 0.000101165286 2.3756913e-06
-2.6874748e-06 1.3969249e-06 -1.3406537e-06 5.112595e-06 4.3167026e-07 -5.039587e-06 2.1102987e-06 9.363417e-06
-4.5084207e-06 1.8042801e-05 -3.45239e-06 3.3432173e-07 -7.6712945e-07 1.2670666e-06 -2.8289721e-06 -3.6569036e-06
-4.5132892e-06 2.791166e-06 2.1165465e-06 -2.1995106e-06 8.595562e-06 -2.7852802e-06 0.00013669941 1.8113312e-06
1.9308739e-06 -1.6182195e-06 4.893687e-06 4.2148463e-07 -2.0568701e-05 -4.22452e-06 -0.00028079812 -6.9724166e-07
-1.7110976e-06 1.7643761e-06 5.3665593e-07 -8.2542635e-07 1.4795228e-06 -4.077646e-06 3.8551914e-07 -4.723724e-06
1.9422607e-06 -1.07733995e-05 1.9711622e-06 2.399149e-06 -1.4665228e-06 -1.6670286e-06 1.416557e-06 3.816772e-06

exp_avg_sq f4 [128, 32]
00000000: a97d 7c30 1eed 9430 c43c 1f2f ccbd 3930
00000010: fc34 0934 688a a630 ad4e c135 81f5 c22f
00000020: 8231 0731 bee5 932f 0ca2 b230 a07d 0b30
00000030: 862e 1b35 f8b4 4630 b767 9f36 7454 aa2f
00000040: 68c2 de2f a58b ba2e 6477 af2f 3a56 a130
00000050: 136d 1f2f 93d5 e330 057a 8f30 9f6b 6a31
00000060: 0678 b82f 11e8 dd33 02f6 fa30 6982 cb2f
00000070: 8612 102f 9d38 582f 7f27 a52e 41f5 be30
00000080: 7b13 8e2f dd33 d52f e3c4 3c2e 4424 d62e
00000090: 023c ac32 e5c5 1630 0d55 8134 8648 9a2e
000000a0: c9ee 3830 dec2 8b2e 9f6c cc2f 6461 812e
000000b0: 2750 7334 15d5 7a2f ee92 9235 056f 1d2f
000000c0: ed10 d82e ffda 312e 05f1 b32e 2140 0130
000000d0: ac32 562e 2a7d 4630 f535 0e2f 3286 5330
000000e0: 8ad8 642f ea0e db32 f660 922f 897a 9a2e
000000f0: 5c3e 8e2d 2c67 892e ae0e 412e 7d20 e12f
00000100: f966 1631 0e52 1931 50f9 e12f cb97 a130
00000110: e5c8 9f34 4908 7031 c2bb 8036 d4ba 5730
00000120: 9c7a 9431 7fef 2d30 851f 3f31 3678 4330
00000130: ae59 bb35 883b c730 17be 2e37 bf9d 9930
00000140: ba2e 3130 9ed3 9d2f d004 5b30 d378 3d31
00000150: dd38 9f2f eec9 ae31 cffb 2f31 045c c031
00000160: ff27 b530 4e8f 7234 8021 2931 d834 3130
00000170: e385 812f 158d fc2f 26a0 a52f 09c9 5431
00000180: 24d5 892f 593e 802f aeb1 892e 0733 e42e
00000190: d367 2f33 4ada 3630 53d1 0935 e2c6 982e
000001a0: 0ec0 4430 3774 b82e a619 ae2f fb3f 462e
000001b0: 712f 6d34 64c5 032f f937 6235 f33f 772f
000001c0: 3ea4 022f 68bf b22e 501f 832e 8c42 e42f
000001d0: fcff 102e 6d4c 8630 ec26 602f 00da f12f
000001e0: 6a06 7d2f 7b0f af32 a005 152f e29e 5f2e
000001f0: 6edc 522e e83a 2b2e 3bef 802e 0c55 8c2f
00000200: dc6e b42f dcc3 c22f e65e 8c2e d5f2 262f
00000210: 4632 1033 21d8 d92f 06d0 c634 aa2c 062f
00000220: eddd 1d30 ab90 c72e 9bbc 0c30 185f bc2e
00000230: 8510 3434 1c3b 972f def4 e235 b7af 0b2f
00000240: a1fb e72e 2a40 132e c4fa e82e f042 cf2f
00000250: 26a7 482e 8881 1530 679a 9c2f 503b 8730
00000260: 1795 2d2f e93d 1e33 06c2 cb2f 3516 f52e
00000270: 3454 f32d 6eb5 a82e 77cd 442e 75f4 1130
00000280: 10ca 412e 471d 9c2d 1619 782d 8530 812d
00000290: b6fb b332 3345 112f 9a01 4233 6db3 802d
000002a0: 4259 132f c14c 902d ca31 c32d 7949 672d
000002b0: 7857 0633 81d7 1c2d ad68 ad33 aa9d c22d
000002c0: 3649 e82d 24a6 a12d c581 332d 2c7b 712e
000002d0: bef2 302d 7551 642f c82b b02d 559c 8c2e
000002e0: aae5 db2d 884a cc32 4083 f02d 37d9 052d
000002f0: b7ff e22c 3e2d 992c e871 eb2c c45d df2d
00000300: a936 1a2f ceb9 9b2e 9642 a42d 2961 742e
00000310: 4e75 8733 0ba1 f42f 3a70 4834 dbef 352d
00000320: 2547 2430 ff5f ee2d 597a b22e f81e ce2d
00000330: 39ab 2934 d278 a22d cb79 b933 6bca 002f
00000340: 9b97 fe2e 74fa 362e 7907 db2d 8667 952f
00000350: 9d31 c52d 2184 5c30 a334 b02e 394b 942f
00000360: 79fc 012f c3aa 8833 64e9 b92e e574 ce2d
00000370: 740c 8c2d f34b 622d ef60 de2d 49e7 b32e
00000380: 042d f52f 9bc0 1e30 9620 982e 13fc 262f
00000390: 6bac e232 d358 0d30 f427 d634 f6b5 242f
000003a0: 02ca 5930 debb f32e 6f31 5330 24aa c72e
000003b0: 7b39 8534 a6e4 f82f 0ec0 1e36 144a 312f
000003c0: f2bc 052f fe9d 442e 936b 052f 36e3 1b30
000003d0: 1442 a42e fcff 4d30 e20e 442f 3345 be30
000003e0: da2c 8a2f 1eac a432 f12e 0130 a453 202f
000003f0: f818 da2d 6639 ef2e 1704 882e 7111 5b30
9.185564e-10 1.083581e-09 1.4482554e-10 6.7572326e-10 1.2778395e-07 1.2117427e-09 1.4402518e-06 3.5462835e-10
1.9673227e-09 2.6902386e-10 1.2997261e-09 5.074643e-10 5.78097e-07 7.228915e-10 4.7506433e-06 3.0982827e-10
4.05197e-10 8.4831066e-11 3.1917147e-10 1.1738799e-09 1.4499717e-10 1.6577125e-09 1.0439299e-09 3.4112657e-09
3.3554687e-10 1.0333327e-07 1.8259814e-09 3.7018147e-10 1.3103305e-10 1.9665199e-10 7.510347e-11 1.3894025e-09
2.584349e-10 3.8781325e-10 4.292112e-11 9.7380354e-11 2.0050724e-08 5.4850907e-10 2.4090005e-07 7.015992e-11
6.7278144e-10 6.3556035e-11 3.7184564e-10 5.883541e-11 2.2660298e-07 2.281307e-10 1.092061e-06 1.4318509e-10
9.8255494e-11 4.0439648e-11 8.182791e-11 4.702106e-10 4.8702972e-11 7.220985e-10 1.2933994e-10 7.6952056e-10
2.081341e-10 2.5501738e-08 2.662614e-10 7.024876e-11 1.6171224e-11 6.248366e-11 4.3896158e-11 4.0950346e-10
2.1886406e-09 2.2311073e-09 4.110441e-10 1.1757434e-09 2.9762228e-07 3.4929306e-09 3.836555e-06 7.8482043e-10
4.321306e-09 6.327738e-10 2.7812075e-09 7.1111417e-10 1.3958686e-06 1.4496075e-09 1.0415467e-05 1.1177049e-09
6.445863e-10 2.8708497e-10 7.9678575e-10 2.75718e-09 2.8962335e-10 5.0870232e-09 2.5608988e-09 5.5983964e-09
1.3180851e-09 2.259014e-07 2.461178e-09 6.446732e-10 2.3560096e-10 4.5938778e-10 3.0127117e-10 3.0964336e-09
2.50716e-10 2.3327365e-10 6.261601e-11 1.0377304e-10 4.083979e-08 6.652142e-10 5.1341084e-07 6.9474884e-11
7.157731e-10 8.387995e-11 3.166864e-10 4.5076814e-11 2.2089604e-07 1.1984508e-10 8.427301e-07 2.2487238e-10
1.1881782e-10 8.1285034e-11 5.9627525e-11 4.1520243e-10 3.296917e-11 9.771505e-10 2.0386509e-10 4.3992543e-10
2.3012495e-10 2.0379721e-08 1.355347e-10 5.0845446e-11 4.7944253e-11 3.8933218e-11 5.863262e-11 2.552628e-10
3.282058e-10 3.542756e-10 6.38332e-11 1.5183883e-10 3.3573336e-08 3.962564e-10 3.703173e-07 1.2203097e-10
5.743164e-10 9.0751705e-11 5.119973e-10 8.566142e-11 1.6769816e-07 2.750874e-10 1.6909578e-06 1.2704403e-10
1.0549362e-10 3.348092e-11 1.05946835e-10 3.7700643e-10 4.5623193e-11 5.438996e-10 2.8485944e-10 9.8394e-10
1.5787226e-10 3.684355e-08 3.7063347e-10 1.1145255e-10 2.7663295e-11 7.671984e-11 4.474773e-11 5.3098087e-10
4.4062587e-11 1.7748148e-11 1.4102738e-11 1.4687149e-11 2.0952807e-08 1.3212258e-10 4.51706e-08 1.4631596e-11
1.3401283e-10 1.640499e-11 2.2191044e-11 1.3147144e-11 3.127886e-08 8.915425e-12 8.074981e-08 2.2125263e-11
2.6407859e-11 1.8377362e-11 1.0203787e-11 5.4906454e-11 1.0058341e-11 2.0765419e-10 2.0028326e-11 6.394233e-11
2.4999409e-11 2.3782619e-08 2.7343128e-11 7.608406e-12 6.4516964e-12 4.3535444e-12 6.691748e-12 2.5393805e-11
1.4025638e-10 7.0815895e-11 1.8674211e-11 5.5565472e-11 6.307765e-08 4.449777e-10 1.8667279e-07 1.0341917e-11
5.9763955e-10 2.7100098e-11 8.116236e-11 2.3433241e-11 1.5801642e-07 1.8470923e-11 8.636888e-08 1.1713445e-10
1.1577513e-10 4.1604456e-11 2.4900736e-11 2.71765e-10 2.241834e-11 8.02233e-10 8.0129035e-11 2.6974492e-10
1.1822178e-10 6.364055e-08 8.4542845e-11 2.34714e-11 1.5921688e-11 1.2863477e-11 2.5281525e-11 8.181062e-11
4.4597226e-10 5.7753774e-10 6.917948e-11 1.5187167e-10 2.638827e-08 5.142173e-10 3.9889676e-07 1.4980359e-10
7.923121e-10 1.10837325e-10 7.68316e-10 9.079695e-11 2.4815003e-07 4.5273402e-10 2.3655625e-06 1.6124374e-10
1.2163406e-10 4.4705566e-11 1.2134498e-10 5.671156e-10 7.4695944e-11 7.494234e-10 1.7831384e-10 1.3843987e-09
2.5133923e-10 1.9170383e-08 4.6996634e-10 1.458163e-10 2.4794819e-11 1.0878658e-10 6.1852905e-11 7.969652e-10

exp_avg f4 [128]
00000000: a4b5 47b8 201d 7439 238f a9b7 77a7 36b9
00000010: 7888 84b8 f24c 1939 b934 67b8 846b 5339
00000020: 217d f539 0557 a9b8 8fc0 91b8 48f4 1a3a
00000030: 8483 80ba 6063 06b9 ede7 a1b8 a0db fe38
00000040: 4f1c abb9 ff43 4ab8 6844 0739 a7b7 a938
00000050: 781b 12b9 0e2f 2239 b4ed 6db9 5d10 9cb7
00000060: 2188 3739 da9b afb8 9dd4 cb38 1b65 b539
00000070: a8ef 9cba fbc3 ecb8 0978 5939 890f 1cb9
00000080: 8502 e1b8 04bd 0939 13c6 8ab9 3aae 0838
00000090: 313c 12b9 ca89 f437 6992 c4b9 b453 753a
000000a0: acd1 9739 3d20 40b9 830b 3ab9 ddb2 76ba
000000b0: 0f8d 2f38 d941 9a38 98c2 16ba ca57 95b8
000000c0: 3c7f 77b9 16e8 6bba 7ae6 243a c2b0 0b3a
000000d0: 9b59 0b3a 00c7 a4b9 c8ee 4639 3100 2ab9
000000e0: 35e3 9c38 a597 c3b8 85d4 8738 984c 92b7
000000f0: daf4 5ab9 2180 50b9 d5ff 5eb9 6222 6239
00000100: 1b00 cd39 68d6 04ba 87fe 4d39 6553 22b9
00000110: 97c4 efb8 eea1 98b8 37fb 0eb8 b276 26b9
00000120: 9a19 6cb7 43e4 3a37 5817 30b8 9fbd 2fb9
00000130: 7963 0eb6 aa40 3db9 cff0 3eba 371e fd38
00000140: 3362 033a 012f 82b9 f61d cbb7 60ec 50b9
00000150: a4f0 61b9 83d3 e937 39fb 5239 3375 ae38
00000160: 5432 dbb8 8e5f 5eba 763b fa38 c6b0 3c3a
00000170: 1442 2e38 8f4a 0839 3c63 e639 a0c8 d638
00000180: 6a53 2b3a ada3 09ba dc7d abba b75a 3637
00000190: 2b8f 0639 9f81 273a d4d7 1b3a 5d26 f3b7
000001a0: 06a9 b539 e2c9 c339 7078 05ba d4ed 1cb8
000001b0: 0789 c339 6279 a738 d0a6 f638 0b54 f4b9
000001c0: df3d 2038 5050 98ba 3a07 2137 d2fd 17ba
000001d0: bc61 0e3a 99b5 3bb8 ed0d cdb9 f0db e338
000001e0: 9a88 3638 ff2e dd38 421d 153a a5cb 2b39
000001f0: 16ce 1fba 3010 a6b9 7bd5 24ba c61a 093a
-4.7614463e-05 0.00023280503 -2.0213023e-05 -0.00017419258 -6.31967e-05 0.00014619881 -5.5123794e-05 0.00020162581
0.0004682327 -8.0747566e-05 -6.9500056e-05 0.00059110345 -0.000980482 -0.00012816256 -7.720278e-05 0.00012152572
-0.00032636753 -4.822388e-05 0.00012900087 8.092756e-05 -0.00013933878 0.00015467053 -0.00022690633 -1.8604269e-05
0.00017502952 -8.37368e-05 9.7193966e-05 0.0003459834 -0.0011973279 -0.00011289861 0.00020739449 -0.00014883107
-0.00010729305 0.00013135752 -0.00026468988 3.2587188e-05 -0.00013946068 2.915123e-05 -0.00037493117 0.0009358481
0.00028957182 -0.00018322557 -0.00017742631 -0.0009410808 4.1854622e-05 7.355557e-05 -0.00057510426 -7.121226e-05
-0.00023603154 -0.0008999122 0.0006290447 0.0005328768 0.00053157815 -0.00031428784 0.00018971704 -0.00016212535
7.48098e-05 -9.3265706e-05 6.4768865e-05 -1.7440223e-05 -0.00020881314 -0.00019884158 -0.00021266875 0.00021565848
0.00039100726 -0.00050673494 0.00019645142 -0.00015480591 -0.00011433026 -7.2780866e-05 -3.40894e-05 -0.00015875211
-1.4072657e-05 1.113961e-05 -4.198341e-05 -0.0001675994 -2.121755e-06 -0.00018048534 -0.0007283808 0.00012069608
0.0005011886 -0.00024830553 -2.4213437e-05 -0.00019924482 -0.00021547318 2.7874257e-05 0.00020120748 8.3187966e-05
-0.00010452108 -0.00084828667 0.000119320044 0.0007197972 4.1546373e-05 0.00012997746 0.00043942954 0.000102416845
0.0006535562 -0.0005250525 -0.0013083774 1.08691665e-05 0.0001283257 0.00063898595 0.00059449417 -2.8985722e-05
0.00034648943 0.00037343713 -0.0005091494 -3.7414793e-05 0.00037295392 7.98579e-05 0.00011761265 -0.00046601924
3.8204595e-05 -0.0011620615 9.59803e-06 -0.0005798015 0.00054314337 -4.47534e-05 -0.00039111022 0.0001086517
4.35194e-05 0.00010546855 0.00056882587 0.00016383694 -0.0006096078 -0.00031674048 -0.00062879146 0.0005230125

exp_avg_sq f4 [128]
00000000: fff0 a036 8844 4435 ad9d 3737 5cae 6335
00000010: f550 be35 5f59 1a33 5282 2734 ec4f dc35
00000020: 3769 9536 4835 1d33 86b0 b033 9e68 c335
00000030: 89cd d337 5490 0636 71ee 7d36 4ad6 6235
00000040: e338 ac34 3971 8833 5c23 ae35 b471 e133
00000050: 97fe 5a35 0b11 8d36 c620 8636 fb46 6835
00000060: c973 5637 09d2 0033 11d9 1236 e6f9 7135
00000070: bcf1 3b37 237b 8b34 815e 8136 999e 6535
00000080: 4093 a034 f173 bb35 bf38 3736 38c2 4536
00000090: 19af 4435 c913 0835 1c89 d034 2286 a535
000000a0: af3e 8735 c637 e136 9c65 f633 e09f 8337
000000b0: b3a6 d734 c657 c034 92c5 ec33 25cc 4836
000000c0: 6c12 4a37 b3da 8736 fd89 e235 1092 5537
000000d0: 1ae0 5036 78fe ae35 e85f 2336 c695 de33
000000e0: 0d52 ae35 93d5 0633 871a 3b34 c5a6 e335
000000f0: 1258 ea33 3187 6736 86ff ce34 7628 8237
00000100: 0d7a 5435 ccce 9c37 89be 3535 6551 af35
00000110: e2cc 3f35 4293 3536 87d2 2635 fe90 ae35
00000120: 8c83 0236 0ac2 8134 3a01 e134 f0bc 4034
00000130: 146d 4533 3963 7d35 89e0 e935 e557 f534
00000140: 215c 6e37 63c2 8035 e7e8 8135 37e3 4936
00000150: 77ba 8637 4b28 ce34 446e 5435 18c5 7936
00000160: 5119 0037 1038 9636 34a5 7935 239f 4136
00000170: c6ee 6036 cbdf 2a36 e3e4 f335 f007 3a33
00000180: 8316 8f37 184e ac36 5cbc 1138 b230 b235
00000190: 77e8 0435 db91 a935 3c70 1535 109d e734
000001a0: 45b1 1e36 d303 2a36 b112 d135 4710 9935
000001b0: 5ce5 6537 2687 e935 a80c 4435 7314 4c36
000001c0: c383 0535 a5ea c335 3248 b933 1b21 1736
000001d0: a23c e136 6805 5b33 138b 7736 8d17 f335
000001e0: dc81 2933 36e6 6235 862c aa36 6d9e 0736
000001f0: 8ef8 9a36 d3ab 0035 68bf 5537 d7d3 a736
4.796427e-06 7.3115416e-07 1.0944362e-05 8.4817816e-07 1.4179665e-06 3.59372e-08 1.5600497e-07 1.6414538e-06
4.4527947e-06 3.660287e-08 8.227748e-08 1.455908e-06 2.524887e-05 2.0051566e-06 3.783873e-06 8.450339e-07
3.2078887e-07 6.3535886e-08 1.2974301e-06 1.04980614e-07 8.1581805e-07 4.2041115e-06 3.9973265e-06 8.6530025e-07
1.2782352e-05 2.999335e-08 2.1882045e-06 9.0143146e-07 1.1202352e-05 2.598036e-07 3.8555013e-06 8.553994e-07
2.990946e-07 1.3966329e-06 2.7302156e-06 2.9468338e-06 7.327049e-07 5.069274e-07 3.884278e-07 1.2332496e-06
1.0076527e-06 6.7120154e-06 1.147375e-07 1.5690865e-05 4.016816e-07 3.582665e-07 1.1025544e-07 2.992115e-06
1.2044427e-05 4.0487735e-06 1.6878472e-06 1.2729797e-05 3.112486e-06 1.303807e-06 2.4344718e-06 1.0364924e-07
1.298789e-06 3.139355e-08 1.7425383e-07 1.6961354e-06 1.0912494e-07 3.4500374e-06 3.8556408e-07 1.5516049e-05
7.915376e-07 1.8692946e-05 6.770502e-07 1.3062205e-06 7.145119e-07 2.7056817e-06 6.2146177e-07 1.3006209e-06
1.944808e-06 2.4169304e-07 4.1910408e-07 1.7950128e-07 4.5966843e-08 9.439423e-07 1.7425201e-06 4.5698758e-07
1.4207356e-05 9.593317e-07 9.679032e-07 3.008359e-06 1.6060874e-05 3.8399807e-07 7.913661e-07 3.7218615e-06
7.635289e-06 4.476875e-06 9.300013e-07 2.885187e-06 3.3517586e-06 2.5462239e-06 1.8171526e-06 4.331372e-08
1.7057411e-05 5.1350908e-06 3.4746117e-05 1.3276206e-06 4.951211e-07 1.2633931e-06 5.567015e-07 4.314138e-07
2.364702e-06 2.53342e-06 1.5577153e-06 1.1404126e-06 1.37028655e-05 1.7399186e-06 7.3034107e-07 3.0410272e-06
4.97381e-07 1.4596923e-06 8.627866e-08 2.2520023e-06 6.712581e-06 5.0994828e-08 3.688682e-06 1.8111765e-06
3.9466485e-08 8.452656e-07 5.071578e-06 2.0208784e-06 4.618493e-06 4.7933753e-07 1.2740355e-05 5.0016492e-06
