notebooks/checkpoints/regressor_checkpoint.pth (torch, 194921 bytes, 24 tensors)

back.0.weight f4 [128, 32]
0	0xbe0ee4e8	-0.13954508
1	0x3d139ee8	0.036040217
2	0xbded80cf	-0.11596834
3	0x3c3cd00e	0.0115242135
4	0x3d5bb607	0.05364039
5	0x3f026f8d	0.50951463
6	0xbdafa069	-0.08575518
7	0xbe717527	-0.23579846
8	0x3dde3277	0.10849469
9	0xbf73f0bb	-0.952892
10	0xbee75766	-0.45183867
11	0xbecc9e5d	-0.39964572
12	0x3df1b8dd	0.11802838
13	0x3d8e782a	0.06956513
14	0xbdb959d8	-0.090503395
15	0x3df5c38b	0.120001875
16	0xbe832c4f	-0.25619742
17	0xbe32d88a	-0.17465416
18	0x3e1c8c7f	0.1528797
19	0x3ea3c3fc	0.31985462
20	0xbfd9c172	-1.701216
21	0xbd07575c	-0.033042297
22	0x3f195a22	0.59903157
23	0xbe6a57f0	-0.22885108
24	0xbe189471	-0.14900376
25	0x3ed40fde	0.41418356
26	0x3d933332	0.07187499
27	0xbe85847d	-0.26077643
28	0xbfae98e6	-1.3640411
29	0xbf753d76	-0.95796907
30	0x3fb9483f	1.4475173
31	0xbe7a86a2	-0.24465421
32	0xbd93a8fa	-0.07209964
33	0x3cf5f53f	0.030024169
34	0x3f459e83	0.77194995
35	0xbfee768c	-1.8629928
36	0xbe9d0948	-0.30671144
37	0x3d81b1b4	0.06332722
38	0xbca15a22	-0.019696299
39	0xbf16e252	-0.5893909
40	0xba30b38c	-0.0006740622
41	0xbeb53eed	-0.3539957
42	0xbe5d551f	-0.21614502
43	0xbf37f759	-0.718618
44	0x3aa1a55c	0.0012332606
45	0x3d15d13d	0.0365765
46	0x3cdc0099	0.026855754
47	0xbebce33f	-0.36892125
48	0xbee125e9	-0.43974236
49	0xbe8beb3e	-0.27327913
50	0xbf534309	-0.8252416
51	0xbd876c7f	-0.06612491
52	0xbfb3f969	-1.4060489
53	0x3e52d2aa	0.20588174
54	0xbf4f5788	-0.8099294
55	0x3e853203	0.26014718
56	0x3e394d1d	0.18095823
57	0x3e89ca13	0.26911983
58	0xbe174184	-0.14771086
59	0xbeb02132	-0.34400326
60	0xc00846e6	-2.1293273
61	0xbf9f45b4	-1.2443147
62	0xbec8f8de	-0.3925237
63	0x3eb2a180	0.3488884
64	0xbd8b51f9	-0.068027444
65	0x3e97e805	0.29669204
66	0xbe645c58	-0.22300851
67	0x3f8602d5	1.0469614
68	0x3e21d170	0.1580255
69	0xbe7d3385	-0.24726684
70	0xbc47aa70	-0.012186632
71	0x3f17bded	0.5927418
72	0xbe6d3362	-0.23164132
73	0x3e384c6f	0.17997907
74	0x3daa77d6	0.08323638
75	0x3f39fbe6	0.7264999
76	0x3cf20bcc	0.02954664
77	0xbc47a242	-0.012184681
78	0xbd9e4cb9	-0.077294774
79	0xbe5e687c	-0.21719545
80	0xbde1e5c1	-0.1103015
81	0x3cb0d86a	0.02158757
82	0x3f2a230c	0.6645973
83	0xbec5ab0c	-0.3860706
84	0x3f029774	0.5101235
85	0xbdfdbaf5	-0.12389175
86	0xbeedf74c	-0.46477735
87	0xbf5c54dd	-0.8606699
88	0x3f28163f	0.65658945
89	0xbed3b460	-0.41348553
90	0x3f15377c	0.5828779
91	0xbe0cdaa7	-0.13755284
92	0x3f789a96	0.9711088
93	0xbe45e84f	-0.193269
94	0x3f79edee	0.97628677
95	0x3ea318b6	0.3185479
96	0xbe737c01	-0.23777772
97	0x3eba06d2	0.36333328
98	0x3e40d242	0.18830207
99	0xbf1fd5ab	-0.62435406
100	0xbee107f5	-0.43951383
101	0xbf5b7271	-0.857215
102	0xbd31db13	-0.043421816
103	0xbf4f0aa3	-0.80875605
104	0xbe86c7f5	-0.2632443
105	0x3f652f27	0.89525074
106	0xbe74be63	-0.23900752
107	0xbf556400	-0.8335571
108	0x3d8245f4	0.06360999
109	0xbe9d1a09	-0.30683926
110	0x3cd3c659	0.025851415
111	0xbf1a92e1	-0.6038037
112	0xbf8f0c33	-1.1175598
113	0xbf202e24	-0.62570405
114	0x3ea03840	0.31292915
115	0x3ea14969	0.3150132
116	0x3ed42d6d	0.41440907
117	0xbded7acf	-0.115956895
118	0xbf060328	-0.52348566
119	0x3f265931	0.64979845
120	0x3e9c3351	0.305079
121	0xbc538917	-0.012911103
122	0xbf0ac0dd	-0.54200536
123	0xbef58585	-0.4795343
124	0xbfd26f19	-1.6440154
125	0x3de61def	0.11236178
126	0xbf9fa318	-1.2471647
127	0x3f025267	0.50906986
128	0x3e839747	0.25701353
129	0xbeba4d2c	-0.36387002
130	0xbf157c19	-0.58392483
131	0x3dceb21e	0.10092567
132	0x3ea83a42	0.32856947
133	0x3e85be5d	0.26121798
134	0x3c4feceb	0.012690763
135	0x3f202eeb	0.6257159
136	0x3ed44022	0.4145518
137	0xbfad5d9c	-1.3544192
138	0x3e980098	0.29687953
139	0x3fcce162	1.6006281
140	0x3d3f8409	0.046756778
141	0x3f849f90	1.0361195
142	0xbcfd38fa	-0.030910958
143	0x3e54e780	0.20791435
144	0x3f8d21cf	1.1025943
145	0x3fbec509	1.490388
146	0xbf5e3ce1	-0.86811644
147	0x3e26a8b4	0.16275293
148	0xbdbfd931	-0.09367598
149	0x3e8219e3	0.25410375
150	0x3e8c8426	0.2744457
151	0xbf22cf82	-0.6359788
152	0x3d740d21	0.059582833
153	0xbdca255c	-0.09870407
154	0x3ea03ebe	0.31297868
155	0xbdd3759a	-0.10325165
156	0x3fa293c0	1.270134
157	0xbeafa8b4	-0.34308398
158	0x3f44fbef	0.7694692
159	0xbec4daa9	-0.38448074
160	0xbe173290	-0.14765382
161	0xbf0e4bdc	-0.555845
162	0xbee586e5	-0.4482948
163	0x3fdc3d75	1.7206255
164	0xbe2116c0	-0.15731335
165	0xbf3e1369	-0.7424837
166	0xbd9eff25	-0.07763509
167	0xbf37838b	-0.71685094
168	0xbec05d55	-0.37571207
169	0x3f8a7aa7	1.081868
170	0xbf0b589c	-0.5443208
171	0xbfc0c566	-1.5060241
172	0x3e1413f9	0.14460744
173	0x3f232322	0.63725483
174	0xbe549765	-0.20760877
175	0xbdd3fcfb	-0.103509866
176	0xbe534718	-0.20632589
177	0xbe888c30	-0.26669455
178	0x3f718ba1	0.9435368
179	0x3f135566	0.5755218
180	0xbe71d826	-0.2361761
181	0xbcca2fe6	-0.024681043
182	0x3f9448a6	1.158467
183	0x3eb5e395	0.35525194
184	0xbef3e864	-0.47638237
185	0xbe1ddf26	-0.15417156
186	0xbeb14c97	-0.34628746
187	0xbe4aa168	-0.19788134
188	0xbfc1963a	-1.512397
189	0x3f5eaadb	0.86979455
190	0xbe1f206f	-0.15539716
191	0xbf11fb8e	-0.57024467
192	0xbdd85664	-0.10563353
193	0xbf233209	-0.6374822
194	0xbe63fa0d	-0.22263356
195	0x3df98210	0.121830106
196	0x3e8518ad	0.2599539
197	0x3f69a1f9	0.91262776
198	0x3c80143a	0.015634645
199	0x3e14685a	0.14492932
200	0x3f4cfb37	0.80070823
201	0xbfbe6d6c	-1.4877143
202	0xbdb74d9c	-0.0895035
203	0x3f98e1fb	1.1943964
204	0x3e0a25f9	0.13491048
205	0x3f92041d	1.1407505
206	0xbd8f7e64	-0.07006529
207	0x3edcb826	0.43109244
208	0x3f5f1761	0.8714505
209	0x3fd1030d	1.6329056
210	0xbf1275e6	-0.5721115
211	0x3ecc3fe1	0.39892486
212	0xbf8c9d83	-1.0985569
213	0x3db3ce60	0.08779597
214	0x3f5efe1d	0.87106496
215	0xbf253021	-0.64526564
216	0xbe3b3290	-0.18281007
217	0x3e36a5e3	0.17836718
218	0x3e857fb7	0.26074
219	0xbed9a044	-0.42505085
220	0x3ea1365a	0.3148678
221	0xbedfc034	-0.43701327
222	0x3fbea9ec	1.4895606
223	0xbf0c9643	-0.5491678
224	0xbb331ae9	-0.0027329272
225	0x3e955d0a	0.29172546
226	0xbf2d646e	-0.6773137
227	0x3fcd127b	1.6021265
228	0xbe443a6d	-0.19162913
229	0xbf5edcf5	-0.87055904
230	0xbd06c01f	-0.032898065
231	0xbe72c2f2	-0.23707178
232	0xbf2daa9f	-0.6783847
233	0x3f7e5bdc	0.99358916
234	0xbedb59a6	-0.42841834
235	0xbf870008	-1.0546885
236	0xbc9876a8	-0.018611267
237	0x3e7675ed	0.24068423
238	0xbd565b78	-0.052333325
239	0xbf1f6035	-0.62256175
240	0xbf3c1533	-0.7346985
241	0xbeff588a	-0.49872237
242	0x3f888dc9	1.0668269
243	0x3dea0d6b	0.114283405
244	0x3f8f6498	1.1202574
245	0xbedff177	-0.4373891
246	0x3dd888d4	0.10572973
247	0x3f04b34e	0.518361
248	0x3e09cd6a	0.13457265
249	0xbeadcba5	-0.3394443
250	0xbe449603	-0.1919785
251	0xbf5caa5c	-0.8619745
252	0xbf0f8b35	-0.5607179
253	0x3f31aada	0.69401324
254	0xbf26517d	-0.6496809
255	0x3e447d18	0.19188344

back.0.bias f4 [128]
0	0xbdec84c2	-0.11548759
1	0x3d4d13c5	0.05006768
2	0xbe367435	-0.17817767
3	0x3d50119a	0.050798036
4	0xbcda4b97	-0.026647372
5	0xbe4384eb	-0.19093673
6	0xbdc43217	-0.095798664
7	0xbb60f822	-0.0034327586
8	0xbe4c7130	-0.19965053
9	0xbe722ec4	-0.23650652
10	0xbe543bf0	-0.2072599
11	0x3d83e264	0.06439665
12	0xbcca00d2	-0.024658594
13	0xbea15410	-0.31509447
14	0xbe343d5a	-0.17601529
15	0xbc9ed937	-0.019390685
16	0x3c30242d	0.0107508125
17	0xbe5b9f3e	-0.21447465
18	0x3cbef795	0.023311416
19	0xbe6be27b	-0.23035614
20	0xbd72f852	-0.059318848
21	0xb9b7b41d	-0.00035038675
22	0x3d62697a	0.05527637
23	0xbe80bc15	-0.25143495
24	0xbcc37d2e	-0.023863401
25	0xbbe7a55a	-0.007069272
26	0xbd9c880f	-0.076431386
27	0xbdfe6309	-0.12421233
28	0xbb5e32e8	-0.0033904854
29	0xbe213eff	-0.15746687
30	0xbd084b94	-0.033275202
31	0x3c73d478	0.0148821995
32	0xbc6743aa	-0.014115253
33	0xbe51c706	-0.20486078
34	0xbdeae04b	-0.11468562
35	0xbc0ea06b	-0.008705239
36	0xbd2fd8a1	-0.042931203
37	0xbe8c88b0	-0.27448034
38	0xbe49c7f3	-0.19705181
39	0x3d07db06	0.03316786
40	0x3bb96cca	0.0056587206
41	0xbdf61683	-0.120160125
42	0xbdefbdc3	-0.11706116
43	0xbdc71171	-0.097201236
44	0xbe08ecba	-0.13371554
45	0xbde62bb6	-0.11238806
46	0xbcffa1b4	-0.031205036
47	0x3d57a5bd	0.052648295
48	0xbdeb3e51	-0.11486495
49	0xbda1111a	-0.0786459
50	0xbe883a9b	-0.26607212
51	0xbdc9f1be	-0.09860562
52	0xbe507f2a	-0.20361009
53	0x3c994eae	0.018714275
54	0x3d7a4dd8	0.061109394
55	0x3cad94e6	0.021189164
56	0xbd5a4951	-0.053292576
57	0xbd56c2fb	-0.05243204
58	0xbe451c26	-0.19249019
59	0xbdd8f521	-0.1059363
60	0xbe4f06a1	-0.20217372
61	0x3d9581c6	0.07300143
62	0x3a9b751f	0.0011860466
63	0xbaab936f	-0.0013090203
64	0xbe374bfc	-0.1790008
65	0xbe155ba0	-0.14585733
66	0xbdafe851	-0.08589233
67	0xbdc98b33	-0.09841003
68	0xbbf55056	-0.0074863834
69	0xbd08189e	-0.0332266
70	0x3cfc2abd	0.030782098
71	0xbe852c73	-0.26010475
72	0xbca3f8ae	-0.02001604
73	0xbe3b0e75	-0.18267234
74	0x3ca7085b	0.020389726
75	0xbe31c90e	-0.17361853
76	0xbdd1ebf5	-0.10250083
77	0xbd1713f1	-0.036884252
78	0xbea245fe	-0.31694025
79	0xbe049979	-0.1294917
80	0xbdefd011	-0.117096074
81	0xbe09b20f	-0.1344683
82	0xbe081ac1	-0.13291456
83	0xbe081fc5	-0.13293369
84	0xbd51a54f	-0.05118304
85	0xbdff13ee	-0.12454973
86	0xbdbf23f9	-0.09333033
87	0xbdf9d21c	-0.12198278
88	0xbe1675bb	-0.14693348
89	0xbdc84952	-0.0977961
90	0x3d05de0a	0.032682456
91	0xbe8b2898	-0.27179408
92	0xbe0935cd	-0.1339943
93	0xbe807fc4	-0.25097477
94	0x3dc3a516	0.09552972
95	0xbdcec7f7	-0.10096734
96	0xbca3a9dd	-0.019978458
97	0xbe197f0b	-0.1498987
98	0xbd7e0a44	-0.06202151
99	0xbe1c2493	-0.15248327
100	0x3d4e4174	0.05035539
101	0xbcf7970e	-0.030223396
102	0xbd2f843f	-0.04285073
103	0xbda7b221	-0.08188272
104	0xbd632b9b	-0.055461507
105	0xbd51d810	-0.051231444
106	0xbe97a23b	-0.2961596
107	0xbe076aa4	-0.13224274
108	0xbd959705	-0.07304195
109	0xbb0b2a74	-0.002123502
110	0x3ccb8283	0.024842506
111	0xbd93a900	-0.072099686
112	0xbda3d443	-0.0799947
113	0xbd82d7ee	-0.063888416
114	0x3db9f5ca	0.09080084
115	0x3ce94c3d	0.028478736
116	0xbe17e0ac	-0.148318
117	0xbe005b00	-0.12534714
118	0x3c86249b	0.016374877
119	0xbe1606cb	-0.14651029
120	0xbe257f4d	-0.16161843
121	0xbe2465f3	-0.16054516
122	0xbe1911fd	-0.14948268
123	0x3d5e8179	0.054322693
124	0xbd8a633f	-0.06757211
125	0xbdfd5dea	-0.12371428
126	0xbd8a8958	-0.067644775
127	0xbdffb43e	-0.1248555

back.3.weight f4 [64, 128]
0	0xbe57285f	-0.21011494
1	0xbc8ea246	-0.017411362
2	0x3dc7c747	0.09754806
3	0xbd761ed8	-0.06008801
4	0x3d37cfe5	0.044875998
5	0x3e1971a4	0.14984757
6	0xbc3b5ce5	-0.011435722
7	0x3a616095	0.00085974607
8	0x3d99fd76	0.07519047
9	0x3bbf0ae0	0.005830154
10	0x3e05f2a8	0.13080847
11	0xbf228dcf	-0.6349763
12	0xbec2bbe3	-0.3803397
13	0x3efe71b9	0.49696139
14	0x3ea398c6	0.31952494
15	0xbd0a6fd9	-0.033798072
16	0x3baea639	0.005329874
17	0xbc6bd1a8	-0.014393248
18	0xbdfad512	-0.12247671
19	0x3e35c348	0.17750275
20	0xbf185a8e	-0.59513175
21	0xbd0a00b9	-0.033692095
22	0xbeb56f79	-0.3543661
23	0x3ec5bea1	0.38622
24	0xbe09041a	-0.13380471
25	0xbe3801b0	-0.17969394
26	0xbcd3a75e	-0.025836643
27	0xbd53e9a8	-0.051736504
28	0x3d04be22	0.032407887
29	0x3e9f0635	0.31059423
30	0xbf1c5bcd	-0.61077577
31	0xbc4cd509	-0.012501963
32	0xbda0ffc3	-0.07861283
33	0x3e1fe486	0.15614519
34	0x3ec5b99d	0.38618174
35	0xbe46273d	-0.19350906
36	0x3ce66933	0.028126335
37	0x3e96c6de	0.294486
38	0x3e3fe549	0.18739809
39	0x3aabb7fc	0.0013101096
40	0x3d240642	0.04004503
41	0x3e379b3d	0.17930312
42	0xbef4232b	-0.4768308
43	0xbef47bd0	-0.4775071
44	0x3e6c7927	0.23093091
45	0x3e72318e	0.23651716
46	0x3d86058e	0.06544028
47	0xbd82439e	-0.06360553
48	0xbe47d7ed	-0.19515963
49	0xbec10950	-0.37702417
50	0x3ef03835	0.46917883
51	0x3da1751e	0.078836665
52	0x3e2a57ba	0.16635028
53	0xbd5b0232	-0.05346889
54	0xbe0238de	-0.12717006
55	0xbe939821	-0.28827003
56	0x3db017b5	0.08598272
57	0xbf196da9	-0.59932953
58	0xbf0bf93f	-0.54677194
59	0xbd561c23	-0.052272927
60	0xbe8eb8d1	-0.2787538
61	0xbe9a70d6	-0.30164212
62	0xbe5af8b0	-0.21383929
63	0xbd18eebb	-0.037337046
64	0x3ae20824	0.0017244858
65	0xbf0e07ea	-0.55480826
66	0x3e080cf3	0.1328619
67	0x3dfa20fb	0.12213322
68	0xbdfc86c6	-0.123303935
69	0xbf438d05	-0.76387054
70	0xbe9d1ec5	-0.30687538
71	0xbe23ad49	-0.15984072
72	0xbe289d0e	-0.16466162
73	0x3e90c67d	0.28276435
74	0x3d34ffa8	0.044189125
75	0x3eb6d626	0.35710257
76	0x3db4f917	0.088365726
77	0xbec0c364	-0.3764907
78	0x3e2770c4	0.1635161
79	0x3ef4d82d	0.4782118
80	0x3d9de456	0.07709567
81	0xbebf1a06	-0.37324542
82	0x3d59205c	0.053009376
83	0x3eac42ce	0.33644718
84	0x3dceb671	0.10093392
85	0xbdf0c160	-0.11755633
86	0xbe1bead6	-0.15226302
87	0x3ec50957	0.38483688
88	0xbe4bf369	-0.19917072
89	0xbeb98ba4	-0.3623935
90	0xba061942	-0.0005115458
91	0x3e759430	0.2398231
92	0xbe4afc8a	-0.19822899
93	0x3df9b745	0.12193159
94	0x3b06e0d9	0.0020580797
95	0xbeaddf2f	-0.33959338
96	0x3d721879	0.05910537
97	0x3df8477d	0.1212301
98	0x3e08e13a	0.13367167
99	0x3e97f2f4	0.29677546
100	0xbed2bfcd	-0.41161957
101	0x3cec657c	0.028856985
102	0xbe811c8d	-0.25217095
103	0x3f639ae1	0.889082
104	0xbf2b3baf	-0.66887945
105	0xbe81b3b1	-0.25332406
106	0x3ec81527	0.39078638
107	0x3c8fb2bf	0.017541287
108	0xbe7d4f38	-0.24737251
109	0xbe0a75f9	-0.13521565
110	0x3c7c28d3	0.015390593
111	0xbed2837d	-0.41115943
112	0x3ddd876f	0.108168475
113	0x3f00aa0b	0.50259465
114	0xbeb86862	-0.36017138
115	0xbc9199d9	-0.017773556
116	0xbeaff614	-0.3436743
117	0xbdd47315	-0.10373513
118	0xbd430614	-0.04761322
119	0x3eba2547	0.36356565
120	0xbe92696c	-0.28596056
121	0x3d384a0e	0.0449925
122	0x3e3f2f65	0.18670423
123	0x3c107358	0.008816563
124	0xbd289cf1	-0.041165296
125	0xbe42d73a	-0.19027415
126	0xbebf3d5a	-0.37351495
127	0x3d1507f4	0.036384538
128	0x3cc8785c	0.024471454
129	0xbe8636be	-0.2621364
130	0xbd6b97e9	-0.05751792
131	0xbe08ef86	-0.13372621
132	0x3da0b80a	0.07847603
133	0x3d0cfe58	0.03442225
134	0xbc11d249	-0.008900234
135	0x3db8308b	0.08993634
136	0x3cff9aed	0.031201804
137	0xbea8fe40	-0.33006477
138	0x3e615d23	0.22008185
139	0xbc9b9e76	-0.018996459
140	0xbee1f239	-0.44130114
141	0xbe7f7ce7	-0.2494999
142	0x3d0ecfb9	0.03486607
143	0xbccc8bb3	-0.024968958
144	0xbe72df87	-0.23718081
145	0x3e557120	0.20843935
146	0x3bd29dab	0.006427487
147	0xbeb980f4	-0.36231196
148	0x3ce5bbce	0.028043654
149	0x3d605233	0.05476589
150	0xbe50b245	-0.20380504
151	0xbdf4129c	-0.11917612
152	0x3b9adaea	0.0047258036
153	0xbb9d7837	-0.0048055905
154	0x3d167927	0.036736634
155	0x3db9010c	0.09033403
156	0xbecbadff	-0.39781186
157	0x3ef0e6b3	0.4705101
158	0xbd8e7d3d	-0.06957481
159	0xbdef5104	-0.116853744
160	0xbb14e14c	-0.0022717295
161	0x3ca44cc1	0.02005613
162	0xbdb4d392	-0.08829416
163	0xbd1cd828	-0.03829208
164	0xbede45c3	-0.434126
165	0x3d42f028	0.047592312
166	0xbca28070	-0.019836634
167	0xbc23850e	-0.009980453
168	0x3c29d603	0.010365966
169	0x3b87b888	0.004141871
170	0xbd0cde4f	-0.034391697
171	0xbee5ebd8	-0.44906497
172	0xbd03fd2e	-0.032223873
173	0x3cf751d7	0.030190391
174	0xbda04d2d	-0.0782722
175	0xbd2d881c	-0.042366132
176	0xbdb8d37b	-0.09024712
177	0xbd9919cd	-0.07475624
178	0x3d84922d	0.06473193
179	0x3cd5f7b3	0.026119089
180	0x3eaefe60	0.34178448
181	0xbeec0c53	-0.46103153
182	0xbe7ddcf2	-0.24791315
183	0xbec20207	-0.37892172
184	0x3d8c30a6	0.068452165
185	0x3c42b75f	0.011884539
186	0x3c8dee90	0.01732567
187	0x3de01308	0.1094113
188	0xbdc66a8a	-0.096882895
189	0xbb72c09c	-0.0037041074
190	0xbc3cce36	-0.011523774
191	0xbd5dc65c	-0.05414425
192	0xbea9bf4c	-0.3315376
193	0xbdd0bfb3	-0.10192814
194	0xbbd0fe86	-0.006377998
195	0x3df81ce6	0.12114887
196	0xbd43d89f	-0.047814008
197	0x3d6fc8af	0.058540996
198	0x3ce5c598	0.028048322
199	0xbbc9a947	-0.0061542126
200	0xbc08fef9	-0.0083615715
201	0xbdde1397	-0.1084358
202	0xbca49a60	-0.020093143
203	0xbea7b378	-0.3275411
204	0x3e309ac4	0.17246538
205	0xbc6655dd	-0.014058557
206	0x3dd1f39a	0.102515414
207	0x3d970124	0.073732644
208	0x3da08dbc	0.07839534
209	0x3c7b3d7f	0.015334486
210	0x3c5edda8	0.013602652
211	0xbd878acd	-0.06618271
212	0x3ce25aac	0.027631126
213	0x3e687828	0.22702086
214	0x3d8ee097	0.06976431
215	0x3e0dd6ee	0.1385152
216	0xbd11e46a	-0.035618223
217	0x3dff3b06	0.1246243
218	0xbc4fa917	-0.0126745915
219	0xbdb9c338	-0.09070438
220	0x3d048938	0.032357424
221	0xbe0ce830	-0.13760448
222	0xbcc31fcf	-0.023818878
223	0xbea660f2	-0.32495838
224	0xbca2ec83	-0.019888168
225	0x3d747a68	0.05968705
226	0x3c6d6260	0.014488786
227	0xbdf3878e	-0.118910894
228	0x3c645d4a	0.0139382575
229	0x3cced585	0.025248298
230	0xbf146318	-0.57963705
231	0xbe80486c	-0.25055254
232	0x3e10eaf1	0.14152123
233	0xbd75dda6	-0.060025834
234	0x3e07f682	0.13277629
235	0xbba38d63	-0.00499122
236	0xbdb808bd	-0.08986042
237	0xbf1d9c7a	-0.6156689
238	0xbb550e33	-0.0032509684
239	0xbd8c6e8b	-0.06857022
240	0xbeacc6b9	-0.33745363
241	0x3e0f0031	0.13964917
242	0xbc0effb9	-0.008727961
243	0xbe9de0aa	-0.30835468
244	0xbdda7956	-0.10667674
245	0xbc627cdd	-0.013823715
246	0x3cae99a3	0.021313494
247	0x3ecf924f	0.40541312
248	0x3e000574	0.1250208
249	0xbd896523	-0.067087434
250	0xbd2663fe	-0.040622704
251	0x391dffc4	0.00015067967
252	0x3cf9f9d9	0.030514644
253	0xbe3a09b9	-0.18167771
254	0x3ccf5795	0.025310317
255	0xbd4e98c4	-0.050438657

back.3.bias f4 [64]
0	0x3d428265	0.047487635
1	0x3d6c625a	0.057710983
2	0x3d2b441b	0.041812997
3	0x3e20cf69	0.1570412
4	0x3d121ca1	0.035671834
5	0x3c9dfbc0	0.019285083
6	0x3ea57f11	0.32323506
7	0xbbdb2843	-0.006688149
8	0xbc87764c	-0.0165359
9	0x3ceb2f43	0.02870906
10	0x3d219385	0.039447326
11	0x3debd621	0.11515451
12	0x3d97978c	0.07401952
13	0x3d9950a0	0.07486081
14	0x3d87bb49	0.06627519
15	0x3d29afd5	0.041427452
16	0x3cb3ed65	0.021963784
17	0x3dda1ecc	0.10650405
18	0xbd020bf0	-0.031749666
19	0xbd709409	-0.058734927
20	0x3c58dd9e	0.013236431
21	0xbc718adb	-0.014742578
22	0x3d4e2ea5	0.050337452
23	0x3d1b527e	0.037920468
24	0x3e395b27	0.18101178
25	0x3ce6ddba	0.0281819
26	0x3c433c87	0.011916286
27	0x3dce9812	0.10087599
28	0x3d6c69ee	0.05771821
29	0x3c6661ac	0.014061373
30	0x3d1ac745	0.037787694
31	0x3d2bb05b	0.041916233
32	0x3b89402b	0.0041885576
33	0xbc296f19	-0.010341429
34	0x3d842155	0.0645167
35	0x3d63b400	0.055591583
36	0x3d5f076e	0.054450445
37	0xbcab7221	-0.020928444
38	0x3cba44f0	0.02273795
39	0xbb13cbba	-0.002255185
40	0x3d43961b	0.047750574
41	0x3ded6691	0.115918286
42	0xbd1c0df2	-0.038099237
43	0x3d298917	0.041390505
44	0x3d0d12c8	0.03444174
45	0x3cafe188	0.021469846
46	0x3c054c6f	0.008135899
47	0xbb322081	-0.0027180018
48	0x3ca94fba	0.0206679
49	0x3d022caf	0.031780895
50	0xbcb84c2d	-0.022497261
51	0x3e87f914	0.2655722
52	0x3d61fb8e	0.055171542
53	0x3d0dc03d	0.03460716
54	0x3d7a8eb3	0.061171245
55	0x3c1fb5d2	0.009747939
56	0x3df224dd	0.11823437
57	0x3e0c45a7	0.13698445
58	0x3d1c80a8	0.038208634
59	0x3c6f41f3	0.014603126
60	0x3e17b44e	0.14814875
61	0x3d25c31e	0.04046928
62	0x3d4cf761	0.050040606
63	0xbcd249fb	-0.025670042

back.6.weight f4 [32, 64]
0	0x3d92246e	0.07135855
1	0x3c49153e	0.012273131
2	0x3dbdbe09	0.09264762
3	0x3e8b535f	0.27212045
4	0xbd45cf58	-0.04829344
5	0x3c9d257a	0.01918291
6	0x3c62b474	0.013836969
7	0xbd87a597	-0.06623381
8	0x3e52f28b	0.20600335
9	0x3b29d5cd	0.0025914789
10	0xbe271555	-0.16316731
11	0x3cf2b0df	0.029625354
12	0xbd4d8210	-0.050172865
13	0x3ceb2c96	0.028707784
14	0x3c968997	0.018376155
15	0x3dfa2013	0.12213149
16	0xbd40a77d	-0.04703473
17	0x3dfe87bc	0.12428233
18	0x3e071364	0.1319099
19	0x3e8769b2	0.26447827
20	0xbe24f86a	-0.16110387
21	0x3e5dea85	0.21671493
22	0xbd17ad42	-0.037030466
23	0x3e938542	0.28812605
24	0xbe287ba7	-0.1645342
25	0xbc3f9e7e	-0.011695502
26	0xbd86b672	-0.065777674
27	0xbd96b8ff	-0.07359504
28	0x3e64df0a	0.22350708
29	0x3ee3d78e	0.44500393
30	0x3d3d8125	0.04626574
31	0xbe22228c	-0.15833491
32	0x3d54d746	0.051963113
33	0xbdc761c9	-0.09735448
34	0x3e404436	0.1877602
35	0xbd27dada	-0.040980197
36	0xbe0ac346	-0.13551053
37	0xbd24aabe	-0.040201895
38	0x3df4845b	0.11939307
39	0xbe3fe8e1	-0.1874118
40	0xbd3dc00c	-0.04632573
41	0x3cacedab	0.021109423
42	0x3de0ae18	0.10970706
43	0xbde1d05c	-0.110260695
44	0x3db6abb5	0.08919469
45	0x3dcf1167	0.10110741
46	0x3dd8cb51	0.105856545
47	0xbde93d02	-0.113885894
48	0x3e7a8b79	0.24467267
49	0x3e2357b2	0.15951422
50	0x3ed8d52c	0.42350137
51	0xbca1a464	-0.019731708
52	0x3ea200ca	0.31641227
53	0xbe480a39	-0.1953515
54	0x3e4fc7ac	0.20291013
55	0x3e4a24d7	0.19740616
56	0x3e80e5ae	0.25175232
57	0x3e10713d	0.14105697
58	0xbe1ac2fb	-0.15113442
59	0x3e8312fd	0.25600424
60	0xbccce70e	-0.02501252
61	0x3ea7c542	0.32767683
62	0x3df25951	0.11833442
63	0xbd36a274	-0.04458852
64	0x3da4aa64	0.08040312
65	0xbc2e62fd	-0.010643718
66	0x3a904ffd	0.0011010166
67	0xbf03e59a	-0.5152222
68	0x3b08a812	0.002085213
69	0x3e4f0617	0.20217167
70	0xbb948380	-0.0045322776
71	0x3d81f62f	0.06345784
72	0xbe50e2e2	-0.20399049
73	0xbf5451c7	-0.8293728
74	0xbd51ed1a	-0.05125151
75	0xbdeb0c39	-0.11476941
76	0xbe6e5131	-0.2327316
77	0x3dcd3b73	0.10021105
78	0x3a8e1815	0.0010840917
79	0x3d99ebd8	0.07515687
80	0xba46f2b5	-0.0007589267
81	0x3dd68035	0.10473672
82	0x3ded0866	0.115738675
83	0x3dc4a88a	0.09602459
84	0x3d53c699	0.05170307
85	0x3d587748	0.05284813
86	0xbf5059e7	-0.8138718
87	0x3e11ffec	0.14257783
88	0xbfc571ea	-1.5425389
89	0xbc71c720	-0.014756948
90	0x3d027cc2	0.03185726
91	0xbc88be95	-0.01669244
92	0x3e35afd3	0.17742853
93	0x3e3482f0	0.17628074
94	0xbc8fbfdb	-0.017547539
95	0xbf382d3a	-0.7194401
96	0x3d70b3e4	0.058765307
97	0xbed858e9	-0.42255333
98	0xbd1cfcfc	-0.038327202
99	0x3c907c33	0.017637348
100	0xbd1b14a8	-0.037861496
101	0xbe38d122	-0.18048528
102	0xbd20f8b5	-0.039299686
103	0x3d8836d0	0.0665108
104	0xbc22df78	-0.009940974
105	0x3c0d7120	0.008632928
106	0xbe8fd590	-0.28092623
107	0x3d6d12df	0.057879325
108	0xbef4c031	-0.4780288
109	0x3dae3848	0.085068285
110	0xbed733a2	-0.4203158
111	0xbd9d747b	-0.076882325
112	0x3d750366	0.059817694
113	0x3dc89128	0.09793311
114	0xbe4e8a72	-0.2017
115	0xbb8d5a57	-0.004313748
116	0x3d21ce72	0.039503522
117	0xbcd0c7e5	-0.025485942
118	0xbd89da98	-0.067311466
119	0xbea45d31	-0.3210235
120	0xbd6a1a5d	-0.05715405
121	0xbdcd9e1c	-0.100399226
122	0x3ca230c6	0.019798648
123	0x3dc81989	0.097704954
124	0xbc568a41	-0.013094486
125	0xbb269702	-0.0025419598
126	0x3de6bb48	0.1126619
127	0x3ce48704	0.027896412
128	0xbc7f8831	-0.015596435
129	0x39c6c2b8	0.0003791058
130	0xbd1ba4e5	-0.037999053
131	0x3df29390	0.118445516
132	0xbd023a7c	-0.031794056
133	0x3da9d8a8	0.08293277
134	0xbc9ee9aa	-0.01939853
135	0x3e13c04f	0.14428829
136	0x3e9ba067	0.30395815
137	0xbd5a06ca	-0.05322913
138	0x3cb57ccc	0.022154234
139	0xbdb1a24e	-0.08673535
140	0x3e02616a	0.12732473
141	0x3e1c0c60	0.15239096
142	0xbdf689de	-0.12038015
143	0x3dc23466	0.094826505
144	0xbcbb2527	-0.022844864
145	0xbdaffcbe	-0.085931286
146	0x3e2581e5	0.16162832
147	0x3e23e2f6	0.16004547
148	0xbe9b7f1f	-0.30370423
149	0x3ee9d08b	0.45666918
150	0xbc885b62	-0.016645137
151	0x3dd24998	0.10267943
152	0xbe242ba1	-0.16032268
153	0x3d22edd9	0.03977761
154	0x3e14d74c	0.14535254
155	0xbd093a29	-0.03350273
156	0x3c05cb22	0.008166106
157	0xbd25a556	-0.04044088
158	0x3d46356a	0.048390783
159	0xbda270be	-0.0793166
160	0xbdbbc4c5	-0.0916839
161	0xbdd7362c	-0.10508379
162	0x3cd3bf0f	0.02584794
163	0xbd8f4351	-0.069952615
164	0x3d215d3c	0.039395556
165	0xbc0601a2	-0.0081791
166	0x3da0d61c	0.07853338
167	0xbebb8511	-0.3662496
168	0x3d66106d	0.05616801
169	0xbdb2bdcf	-0.08727609
170	0x3eb3df2f	0.35131213
171	0xbe61ccd8	-0.22050798
172	0x3e3e1d13	0.18565778
173	0x3de529c4	0.11189607
174	0x3d8692f0	0.06570995
175	0xbde7a61d	-0.113109805
176	0x3d2e305c	0.042526588
177	0x3e4fb48a	0.20283714
178	0x3d1343a7	0.03595319
179	0x3d928a33	0.07155266
180	0xbdcd6960	-0.10029864
181	0x3ba14c3c	0.004922418
182	0xbe05591e	-0.13022277
183	0x3d1d9ef0	0.038481653
184	0xbd4539e2	-0.048150904
185	0x3d92107f	0.07132053
186	0xbe05919f	-0.13043831
187	0x3db36191	0.08758844
188	0x3d01f380	0.03172636
189	0x3d98e245	0.074650325
190	0xbe1f224c	-0.15540427
191	0xbe5188bb	-0.20462315
192	0xbce784ef	-0.02826163
193	0x3df314cc	0.11869201
194	0xbe530fc2	-0.2061148
195	0xbc957caa	-0.018247921
196	0xbe76f800	-0.24118042
197	0x3d7b2fed	0.061325002
198	0x3ba1c88c	0.004937237
199	0x3eb9bb0a	0.36275512
200	0xbdbac455	-0.091194786
201	0x3b86a6e4	0.0041092504
202	0x3e8895c0	0.2667675
203	0x3d7ae688	0.061255008
204	0xbd2bd551	-0.04195148
205	0xbd59d16a	-0.05317823
206	0x3e60fdb5	0.21971782
207	0xba839d75	-0.0010041433
208	0xbe9113d5	-0.28335443
209	0x3bca41bb	0.0061723865
210	0x3d95d63b	0.07316252
211	0x3de183d4	0.11011472
212	0x3d11a439	0.035557006
213	0xbdb6f130	-0.089327216
214	0x3cdd8308	0.02704002
215	0x3e28f9e8	0.16501582
216	0x3c7f477e	0.01558101
217	0x3dffd0fc	0.124910325
218	0x3eb00f66	0.34386748
219	0x3c020f31	0.007938192
220	0xbce8b599	-0.028406905
221	0x3d059610	0.032613814
222	0x3dc34df1	0.095363505
223	0xbc1bd659	-0.009511554
224	0xbe4f824a	-0.20264545
225	0xbd621239	-0.05519316
226	0x3de42f7a	0.11141868
227	0xbe2b24cb	-0.16713254
228	0x3e06bfd3	0.13159113
229	0xbe81e7e5	-0.25372234
230	0xbd1d454a	-0.038396157
231	0x3c82c01b	0.015960744
232	0x3de7c459	0.11316747
233	0xbe869d16	-0.26291722
234	0xbdc60515	-0.09668938
235	0x3cd88e36	0.026434999
236	0xbd1a9a47	-0.037744787
237	0x3e9b4e88	0.30333352
238	0x3da8da41	0.08244754
239	0xbd7645e8	-0.06012526
240	0x3ddb17ab	0.10697874
241	0x3db6d9a3	0.0892823
242	0x3d81e157	0.06341808
243	0x3ebd81ac	0.37012994
244	0x3c71ed6d	0.014766079
245	0x3e8ea416	0.27859563
246	0x3d1829c6	0.037149213
247	0x3cffe062	0.031234924
248	0xbc0475d1	-0.00808473
249	0x3dd10e88	0.1020785
250	0x3bc735b9	0.0060794023
251	0xbd3e4a15	-0.04645737
252	0x3ca8bac1	0.020596864
253	0x3e43ce06	0.1912156
254	0x3d5a01db	0.053224426
255	0xbb5c48f5	-0.0033612822

back.6.bias f4 [32]
0	0x3dc72c1e	0.097252116
1	0x3e5b09fa	0.21390525
2	0x3e31500e	0.17315695
3	0x3e51fc6c	0.20506448
4	0x3e14df6e	0.14538357
5	0xbef85f54	-0.4851023
6	0xbe09482c	-0.13406438
7	0xbde99304	-0.11404994
8	0x3ea9d94a	0.3317359
9	0x3e512818	0.20425451
10	0x3e9803a6	0.29690284
11	0x3d3fab3e	0.04679417
12	0xbe4be189	-0.19910254
13	0x3e11b59f	0.14229439
14	0x3df54a52	0.11977066
15	0xbea53554	-0.3226725
16	0x3db3f305	0.08786587
17	0x3e151dae	0.14562103
18	0x3e441f8d	0.1915266
19	0x3e1d250a	0.1534616
20	0xbe653a90	-0.22385621
21	0xbea465dd	-0.32108966
22	0xbe84064a	-0.25786048
23	0x3e05beed	0.13061114
24	0x3e093979	0.1340083
25	0x3d65d7a3	0.05611385
26	0x3e05a832	0.13052443
27	0xbe430317	-0.19044147
28	0x3dc108da	0.094255164
29	0x3d06f929	0.03295246
30	0x3c99ad67	0.018759442
31	0x3dbfafba	0.09359689

ellipticity.0.weight f4 [2, 32]
0	0xbd18be9a	-0.037291147
1	0xbb1f60b6	-0.0024319119
2	0x3cd03900	0.025417805
3	0x3e095edf	0.13415097
4	0xbc086b8a	-0.008326421
5	0xbe01eb53	-0.12687425
6	0x3dc3af65	0.09554938
7	0xbb5babe9	-0.0033519214
8	0x3de2869f	0.11060833
9	0xbd0613de	-0.03273379
10	0x3c99262c	0.01869496
11	0x3d731d2f	0.059354004
12	0xbd8c00a7	-0.06836062
13	0x3d8ace64	0.06777647
14	0x3e327a02	0.17429355
15	0x3c793508	0.015210398
16	0x3d6cb376	0.057788335
17	0xbd7cc8ed	-0.061715055
18	0xbe09d3e7	-0.1345974
19	0x3c44628a	0.011986384
20	0x3dbe0501	0.09278298
21	0xbd363e9b	-0.0444933
22	0xbcf36d0c	-0.029715084
23	0x3d11e0f3	0.03561492
24	0xbd3f9975	-0.046777207
25	0x3d863bea	0.065543965
26	0xbe049a70	-0.12949538
27	0xbd5788c1	-0.052620653
28	0xbe300a02	-0.17191318
29	0x3d1f8ecd	0.038954545
30	0xbcdf5c3c	-0.02726566
31	0x3e3482ce	0.17628023
32	0xbd7f16a9	-0.06227747
33	0x3e175780	0.14779472
34	0xbd58ca34	-0.05292721
35	0xbc4e9d58	-0.012610756
36	0xbe2f30a5	-0.171084
37	0x3d024b93	0.031810354
38	0xbc8f0cb0	-0.017462105
39	0x3dd2d238	0.10294002
40	0x3cc83eaa	0.024443943
41	0xbdfa8dd6	-0.12234084
42	0xbdf2e903	-0.1186085
43	0xbc8b4c09	-0.01700403
44	0xbdb0e735	-0.08637849
45	0x3ca37aaf	0.019955961
46	0xbc932020	-0.017959654
47	0x3e071f73	0.1319559
48	0x3dbbf4e7	0.09177571
49	0x3ddb2434	0.107002646
50	0x3bcc8958	0.0062419586
51	0x3dd1152b	0.102091156
52	0xbdc8ed98	-0.098109424
53	0x3d014372	0.03155846
54	0x3d1733d7	0.036914673
55	0xbd9bad7b	-0.07601448
56	0xbd4fa55a	-0.0506948
57	0xbd525a62	-0.051355727
58	0x3cce54e1	0.025186958
59	0xbcec4355	-0.0288407
60	0x3d0c0179	0.034181092
61	0x3c35d2bc	0.011097606
62	0xbd5acb32	-0.05341644
63	0xbcb12131	-0.021622272

ellipticity.0.bias f4 [2]
0	0xbd79ab4c	-0.060954377
1	0x3d2204c5	0.03955533

exp_avg f4 [128, 32]
0	0xb5af24e6	-1.3049255e-06
1	0x370b1aa2	8.291247e-06
2	0x34b897a0	3.4382992e-07
3	0x360316d2	1.9533804e-06
4	0xb7e2e7af	-2.7049186e-05
5	0x3624acfa	2.453859e-06
6	0x392cbdab	0.00016473855
7	0x350a8f22	5.161729e-07
8	0xb629ecd0	-2.5320805e-06
9	0x35839d87	9.806107e-07
10	0x36bbc016	5.595396e-06
11	0xb3ed713d	-1.10567704e-07
12	0x38af092a	8.346357e-05
13	0xb6a474ca	-4.901177e-06
14	0xb924f926	-0.00015733074
15	0xb6837b61	-3.9184674e-06
16	0x359bade1	1.1599005e-06
17	0x352414c9	6.112501e-07
18	0x335b7a35	5.1101058e-08
19	0xb6d85c7c	-6.4480682e-06
20	0x365c57bd	3.2833625e-06
21	0xb526040d	-6.1845714e-07
22	0xb6e58e8e	-6.8413274e-06
23	0xb7050e28	-7.930714e-06
24	0x36a8c0de	5.029243e-06
25	0x37a0043b	1.9075456e-05
26	0x3682c013	3.8966623e-06
27	0x35cb1736	1.5131434e-06
28	0xb57b9f17	-9.373629e-07
29	0xb631ac23	-2.6475252e-06
30	0x361a0400	2.2950117e-06
31	0x3693bcc2	4.4029157e-06
32	0x373020c4	1.0498046e-05
33	0x36c821cb	5.9643985e-06
34	0xb707e72a	-8.100449e-06
35	0x36f6fdf0	7.3609335e-06
36	0xb8423ecb	-4.6311685e-05
37	0x36db9932	6.544543e-06
38	0xb9ed184c	-0.00045222265
39	0xb6e5871c	-6.8404606e-06
40	0x358379d5	9.795718e-07
41	0x3722b2e7	9.697606e-06
42	0xb7409a6f	-1.1480049e-05
43	0x33473426	4.6380727e-08
44	0x3837c3fd	4.381313e-05
45	0x35c1e88e	1.4447303e-06
46	0x3a5a39d7	0.0008324659
47	0x35e301fc	1.6913395e-06
48	0x35ef1fc3	1.7816132e-06
49	0xb6f07f25	-7.167359e-06
50	0xb41e5312	-1.4745117e-07
51	0xb68cba5c	-4.19402e-06
52	0x3665058f	3.4126895e-06
53	0xb69fbd4b	-4.760606e-06
54	0xb7a8cffc	-2.0124011e-05
55	0x3603cbdc	1.9639183e-06
56	0xb5bcb173	-1.4058736e-06
57	0x380dc214	3.379777e-05
58	0x36bac47f	5.566107e-06
59	0xb6412ea4	-2.878639e-06
60	0x3679e545	3.7237344e-06
61	0x36055e00	1.987326e-06
62	0xb5f44dbe	-1.8202043e-06
63	0xb6a96c3c	-5.0491926e-06
64	0x363dd1e1	2.828536e-06
65	0xb5bf982b	-1.4274896e-06
66	0x359234b3	1.0893185e-06
67	0x353a3e58	6.938112e-07
68	0xb81d0f5c	-3.744602e-05
69	0x36514ecc	3.1189293e-06
70	0xb821ee03	-3.8607057e-05
71	0x359b3890	1.1564862e-06
72	0xb6f4248a	-7.2760204e-06
73	0x3553c251	7.8886393e-07
74	0x36051f98	1.9836934e-06
75	0xb3746503	-5.6902547e-08
76	0x38a91aab	8.063515e-05
77	0x3604ed87	1.9807792e-06
78	0x386765af	5.5169392e-05
79	0xb6270c6f	-2.4892176e-06
80	0x36285fd5	2.5089732e-06
81	0xb5a4d20b	-1.2280083e-06
82	0xb4752095	-2.2829256e-07
83	0xb642837d	-2.898479e-06
84	0xb5fb3865	-1.871737e-06
85	0x3712c79c	8.748753e-06
86	0x35c2a523	1.4502187e-06
87	0xb635580d	-2.7022354e-06
88	0x35b81aa6	1.3716824e-06
89	0xb8ed1391	-0.00011304685
90	0xb60e05de	-2.1163064e-06
91	0xb58417ea	-9.841726e-07
92	0x34f8b5bd	4.6325832e-07
93	0xb4603f71	-2.0884706e-07
94	0x3541eba4	7.2241005e-07
95	0x361b6c9d	2.316002e-06
96	0x361047f5	2.1499557e-06
97	0xb663da2d	-3.395263e-06
98	0x350750b8	5.040888e-07
99	0x347acbc3	2.3357192e-07
100	0x371af735	9.236673e-06
101	0x366e76e4	3.5533967e-06
102	0xb9834ee6	-0.0002504505
103	0x35991ae1	1.1407211e-06
104	0xb6a8ae70	-5.0270974e-06
105	0x2ec1ea05	8.818194e-11
106	0xb3ac6d6a	-8.0292764e-08
107	0x333cae9a	4.393096e-08
108	0x3818fbd8	3.647417e-05
109	0x348ee25a	2.6614254e-07
110	0x36ec28f4	7.0381157e-06
111	0x35ac7897	1.2850095e-06
112	0x359ca447	1.1670717e-06
113	0xb62485c4	-2.4515766e-06
114	0x35f6f2ed	1.8399129e-06
115	0xb5c7cc54	-1.4886123e-06
116	0xb597b5f3	-1.1303331e-06
117	0x36edc47f	7.0860256e-06
118	0x349c856d	2.9154344e-07
119	0x33c520a6	9.179466e-08
120	0xb60188b7	-1.9302076e-06
121	0xb8bda82d	-9.0435475e-05
122	0xb5ea7f46	-1.74714e-06
123	0xb514f7fb	-5.5495155e-07
124	0x35c09a20	1.4349971e-06
125	0x34cb0bfb	3.7820413e-07
126	0xb5c46da5	-1.4635049e-06
127	0x360e7be5	2.1231765e-06
128	0xb6e814c5	-6.9165567e-06
129	0xb5de0c57	-1.654388e-06
130	0x36b3d31a	5.359191e-06
131	0xb6725a8f	-3.6113522e-06
132	0xb860412e	-5.3466465e-05
133	0xb6cd1036	-6.1113633e-06
134	0xb8fe191d	-0.000121163415
135	0x365252f9	3.1340735e-06
136	0xb69b79f0	-4.6335554e-06
137	0xb60ec7c1	-2.127592e-06
138	0x36b4ef70	5.392292e-06
139	0xb4bb5857	-3.489574e-07
140	0x379d3de9	1.8744688e-05
141	0xb53add25	-6.961221e-07
142	0xb9a6ad9d	-0.0003179134
143	0x358575fa	9.943608e-07
144	0x3518b1da	5.688322e-07
145	0x35f96574	1.8581472e-06
146	0x367df77e	3.7843997e-06
147	0x353b70f2	6.9827286e-07
148	0xb5b14d92	-1.3210104e-06
149	0xb49fbc43	-2.9753036e-07
150	0x372793e7	9.988412e-06
151	0xb7282d57	-1.0024137e-05
152	0xb4bc907c	-3.5122855e-07
153	0xb9824b7f	-0.0002485178
154	0x355db538	8.2592624e-07
155	0x36665803	3.43239e-06
156	0xb5bf1090	-1.4235429e-06
157	0xb638c2a2	-2.7531428e-06
158	0x36309723	2.6314017e-06
159	0x36bdf2d5	5.6609083e-06
160	0x36693b43	3.47542e-06
161	0xb6ab614c	-5.107524e-06
162	0x34e77e36	4.3118933e-07
163	0xb56765ee	-8.6202533e-07
164	0xb910fc7f	-0.00013826972
165	0xb449e2c6	-1.8802083e-07
166	0x39313db1	0.00016903017
167	0x35854d85	9.931833e-07
168	0x3548eacc	7.484748e-07
169	0xb6775512	-3.6855386e-06
170	0x3684c92d	3.9573265e-06
171	0xb5132d63	-5.4827814e-07
172	0xb8a8f817	-8.0570746e-05
173	0x361aafeb	2.3050186e-06
174	0x38fa1f6e	0.00011926783
175	0xb5525721	-7.8357886e-07
176	0xb575cd66	-9.1568506e-07
177	0xb5f45819	-1.8205056e-06
178	0xb6c2145f	-5.784022e-06
179	0x361b07d3	2.3101354e-06
180	0xb610a8a6	-2.1555838e-06
181	0x368e738f	4.2453826e-06
182	0xb506c55e	-5.0206097e-07
183	0x36f5c678	7.324674e-06
184	0x35d8a437	1.6141047e-06
185	0xb6847428	-3.947429e-06
186	0xb70478af	-7.895912e-06
187	0xb68d9f46	-4.2206693e-06
188	0x3655a101	3.183319e-06
189	0x36439232	2.9142361e-06
190	0xb5b03e28	-1.3131112e-06
191	0x34a345d2	3.0411917e-07
192	0x364f753d	3.0913645e-06
193	0xb6970ec1	-4.5018683e-06
194	0xb601e9cb	-1.9358583e-06
195	0xb5eb90e2	-1.7551031e-06
196	0xb80fe739	-3.43092e-05
197	0xb6205980	-2.3893954e-06
198	0xb9a12f0a	-0.0003074336
199	0xb5622285	-8.4241793e-07
200	0x35f78228	1.8440815e-06
201	0x356c16ae	8.7949854e-07
202	0xb687953c	-4.0406867e-06
203	0x35253faa	6.1559933e-07
204	0xb8d27478	-0.00010035274
205	0x3600eb84	1.9210574e-06
206	0x3998ab2b	0.0002911923
207	0x36909d88	4.3098735e-06
208	0xb4924e38	-2.725153e-07
209	0xb633644e	-2.6731464e-06
210	0xb600f133	-1.9213883e-06
211	0x3650dffe	3.1124796e-06
212	0xb58e3220	-1.0594413e-06
213	0xb615fb92	-2.2349163e-06
214	0x3486f2d6	2.513613e-07
215	0x36b2fc9a	5.33422e-06
216	0xb6a8b4b1	-5.0278254e-06
217	0x385e250d	5.296343e-05
218	0x35fc7df6	1.8812123e-06
219	0x34b34089	3.3388304e-07
220	0x3690039b	4.291954e-06
221	0x3601315f	1.9251236e-06
222	0xb644b65e	-2.9312428e-06
223	0xb676a643	-3.6753634e-06
224	0x3676f0f3	3.6797107e-06
225	0xb702f6fc	-7.806109e-06
226	0xb52ae790	-6.3666903e-07
227	0xb53ebbad	-7.105362e-07
228	0x37cd59e8	2.447977e-05
229	0xb6236967	-2.4350245e-06
230	0xb6372f38	-2.729661e-06
231	0xb5f44df3	-1.8202103e-06
232	0x36b5e680	5.421054e-06
233	0x3362e379	5.282661e-08
234	0xb6ef5643	-7.1327972e-06
235	0xb585710c	-9.942173e-07
236	0xb8e91700	-0.0001111459
237	0x36c96652	6.0021785e-06
238	0x39cc3fdb	0.00038957488
239	0x35c79086	1.4868717e-06
240	0xb2f7e30c	-2.8857833e-08
241	0x350abab0	5.168067e-07
242	0xb658567c	-3.2236849e-06
243	0x36c9980d	6.007968e-06
244	0xb628883f	-2.5113256e-06
245	0xb5968d8f	-1.121707e-06
246	0x366629cf	3.4297007e-06
247	0x371acea1	9.227225e-06
248	0xb69eeacf	-4.7361023e-06
249	0xb6131cc2	-2.1921446e-06
250	0xb692b6e6	-4.3724312e-06
251	0xb630564d	-2.6276277e-06
252	0xb4af3d7e	-3.2641032e-07
253	0x362184a8	2.4068086e-06
254	0xb5e24733	-1.6859034e-06
255	0xb6f9a032	-7.4394275e-06

exp_avg_sq f4 [128, 32]
0	0x30077cfd	4.9290333e-10
1	0x2ff94dcc	4.5348114e-10
2	0x2ea95e47	7.701977e-11
3	0x2f5e5d71	2.022398e-10
4	0x33322253	4.1475072e-08
5	0x3006769d	4.8917476e-10
6	0x34f2fce8	4.5260026e-07
7	0x2f3039ea	1.6027682e-10
8	0x303a6aaa	6.7817985e-10
9	0x2f09c885	1.2531316e-10
10	0x303d5d25	6.8890166e-10
11	0x2f020d2f	1.1828115e-10
12	0x345c3f7b	2.051219e-07
13	0x2fdaec2e	3.9821785e-10
14	0x361e2f3d	2.357133e-06
15	0x2f0d03e9	1.2825264e-10
16	0x2f07af43	1.2340444e-10
17	0x2e36debf	4.1579847e-11
18	0x2f1f7e06	1.4505738e-10
19	0x2ffc6660	4.5911275e-10
20	0x2e88a6d7	6.214201e-11
21	0x30384c2d	6.704706e-10
22	0x2f9a0ad0	2.802012e-10
23	0x30b5e1d8	1.3233672e-09
24	0x2f4e8274	1.8781937e-10
25	0x32e83aa7	2.7035027e-08
26	0x30124d30	5.322418e-10
27	0x2f338595	1.6327413e-10
28	0x2e033daa	2.984072e-11
29	0x2ee6ac89	1.04898375e-10
30	0x2e5cf50b	5.023985e-11
31	0x3052f477	7.674496e-10
32	0x30f00838	1.7464634e-09
33	0x30ccb930	1.4895587e-09
34	0x2fbfdb57	3.4898548e-10
35	0x304ae4ff	7.3812595e-10
36	0x33ce86cd	9.6171426e-08
37	0x311888b9	2.219663e-09
38	0x361128b0	2.1630367e-06
39	0x3026e0ee	6.071009e-10
40	0x314187aa	2.8162312e-09
41	0x300f00e7	5.202438e-10
42	0x31231b94	2.3735298e-09
43	0x2fafa8cb	3.195225e-10
44	0x356c35be	8.7995056e-07
45	0x30a81648	1.2229942e-09
46	0x370e9ef6	8.5008705e-06
47	0x304bbd89	7.4120315e-10
48	0x2feb4bc7	4.2800094e-10
49	0x2f7cf7c8	2.3007296e-10
50	0x300954bd	4.996073e-10
51	0x30f91300	1.8122535e-09
52	0x2f532d0e	1.9206345e-10
53	0x315c7d42	3.2085414e-09
54	0x30da099f	1.5864322e-09
55	0x31947a54	4.321274e-09
56	0x3069e5d7	8.509153e-10
57	0x34140b8f	1.3787779e-07
58	0x30c56fbe	1.4365396e-09
59	0x301176c9	5.2919497e-10
60	0x2f194e4b	1.3943084e-10
61	0x2fd6844e	3.902038e-10
62	0x2f848310	2.4103786e-10
63	0x3130bfa4	2.5720306e-09
64	0x30158f19	5.440924e-10
65	0x305f542c	8.1246543e-10
66	0x2ec0250b	8.737729e-11
67	0x2f37f814	1.6731888e-10
68	0x3322ac9d	3.7875555e-08
69	0x30432594	7.099399e-10
70	0x350081dc	4.7872686e-07
71	0x2f462d98	1.8024193e-10
72	0x3089a5b8	1.0015162e-09
73	0x2f1cfa5e	1.4277066e-10
74	0x308cfc59	1.0258062e-09
75	0x2ecfb17c	9.444798e-11
76	0x34b838f2	3.4314104e-07
77	0x3023f296	5.964379e-10
78	0x364862ab	2.9859755e-06
79	0x2f8a04e9	2.5105543e-10
80	0x2f267f72	1.514289e-10
81	0x2e833b32	5.9677055e-11
82	0x2f1f005a	1.446109e-10
83	0x305815d0	7.861134e-10
84	0x2ed763c0	9.794787e-11
85	0x30827733	9.492623e-10
86	0x2f3f2a1f	1.7386313e-10
87	0x30e98522	1.699082e-09
88	0x2fdff01a	4.0734066e-10
89	0x32ec655f	2.7520114e-08
90	0x30085bb9	4.960686e-10
91	0x2f3594e7	1.6514755e-10
92	0x2e008201	2.9219297e-11
93	0x2f1c7157	1.4228384e-10
94	0x2ed4321c	9.649545e-11
95	0x308e19d1	1.0339197e-09
96	0x304af239	7.383139e-10
97	0x306d5e53	8.635414e-10
98	0x2f1725f6	1.3746856e-10
99	0x2fbecd74	3.4706782e-10
100	0x3272838d	1.4116165e-08
101	0x305cf0c9	8.037771e-10
102	0x35a3137a	1.2150115e-06
103	0x2f8a34f9	2.5139693e-10
104	0x30a4ad0b	1.1981752e-09
105	0x2f67a7a6	2.1068888e-10
106	0x3089ca08	1.0025483e-09
107	0x2f88f2ec	2.4910862e-10
108	0x34cfd574	3.8712062e-07
109	0x3027ef48	6.1094285e-10
110	0x36775e59	3.6860786e-06
111	0x2f91ea57	2.6541855e-10
112	0x2f64c8a8	2.0807767e-10
113	0x2ebbb9f5	8.536808e-11
114	0x2f94fda8	2.7101277e-10
115	0x30620f58	8.2240126e-10
116	0x2f03fdf5	1.2004604e-10
117	0x309d99de	1.1466985e-09
118	0x303010ca	6.4052286e-10
119	0x311f646d	2.319463e-09
120	0x2fbb42de	3.4062614e-10
121	0x33b276e1	8.310395e-08
122	0x3092cfdf	1.0681979e-09
123	0x2f8b7205	2.5364968e-10
124	0x2e92773e	6.660493e-11
125	0x2f41b8ee	1.7618948e-10
126	0x2ebda00e	8.6231564e-11
127	0x309ebda5	1.1549913e-09
128	0x309246cd	1.0643021e-09
129	0x308b5d69	1.014013e-09
130	0x2f595578	1.97664e-10
131	0x302097b6	5.8423255e-10
132	0x332df447	4.050187e-08
133	0x30a76a22	1.2181014e-09
134	0x36002395	1.9094198e-06
135	0x2fd306b6	3.8385445e-10
136	0x30ed1c16	1.7252002e-09
137	0x2fb3ba0e	3.269211e-10
138	0x30db66b2	1.5963535e-09
139	0x2fa51d67	3.0034217e-10
140	0x350dd793	5.2840295e-07
141	0x3050c3c9	7.5948187e-10
142	0x36b9edd9	5.5411188e-06
143	0x300f658e	5.2167415e-10
144	0x2fb561a8	3.2993097e-10
145	0x2f10cb6a	1.3168991e-10
146	0x2fa1ae67	2.940965e-10
147	0x30965573	1.0938223e-09
148	0x2f0f66a2	1.3042237e-10
149	0x30efac44	1.74385e-09
150	0x30ac54bf	1.2538733e-09
151	0x31543480	3.0879903e-09
152	0x3017247c	5.498533e-10
153	0x3404c419	1.2364798e-07
154	0x30a7af69	1.2200704e-09
155	0x2fc77224	3.627899e-10
156	0x2f016329	1.176771e-10
157	0x2f7159c4	2.1950713e-10
158	0x2f28d400	1.5354829e-10
159	0x30d2dcc4	1.5342256e-09
160	0x30e1bbc1	1.6424268e-09
161	0x30bc6338	1.3707e-09
162	0x2fa63236	3.02309e-10
163	0x30380d48	6.6957684e-10
164	0x34345db3	1.6797894e-07
165	0x30bc287a	1.3690304e-09
166	0x35d4fc2e	1.5868625e-06
167	0x301b6dd0	5.6544724e-10
168	0x311efdb2	2.3136235e-09
169	0x2fe04cbf	4.0799894e-10
170	0x3131258b	2.577823e-09
171	0x2fa6e9cb	3.0361344e-10
172	0x352125e7	6.003233e-07
173	0x30b0d236	1.2865431e-09
174	0x3708ef1b	8.161903e-06
175	0x2fdba2bb	3.9951495e-10
176	0x2feec4b5	4.3431717e-10
177	0x2ee217e4	1.0281534e-10
178	0x3002a493	4.75276e-10
179	0x30bf4374	1.391625e-09
180	0x2f560dfc	1.9468155e-10
181	0x3108cbc8	1.990644e-09
182	0x30a8b373	1.2274611e-09
183	0x31adf309	5.0625926e-09
184	0x301e0be3	5.7496957e-10
185	0x347d421a	2.3586509e-07
186	0x30dd84c3	1.61176e-09
187	0x301fec33	5.817952e-10
188	0x2ead81bd	7.890175e-11
189	0x2fc44dde	3.570752e-10
190	0x2f5d4f97	2.0128109e-10
191	0x313c4004	2.739399e-09
192	0x30ea05c9	1.7027385e-09
193	0x30e9e168	1.7017046e-09
194	0x2fbf510f	3.4800293e-10
195	0x3033ec86	6.545594e-10
196	0x338f67ba	6.677824e-08
197	0x30c71cca	1.4487338e-09
198	0x361ad132	2.3069556e-06
199	0x302dcaf1	6.322543e-10
200	0x31168e0c	2.1908617e-09
201	0x300b99fe	5.078674e-10
202	0x315187f4	3.0490783e-09
203	0x2fab1e80	3.112639e-10
204	0x353ca152	7.027021e-07
205	0x30d28761	1.5317988e-09
206	0x37244964	9.792249e-06
207	0x3039f00e	6.7643746e-10
208	0x2fc70788	3.620324e-10
209	0x2f2a3268	1.5479318e-10
210	0x2ff2642d	4.4090723e-10
211	0x30e08b49	1.6337732e-09
212	0x2f669eae	2.0974752e-10
213	0x31041791	1.9221924e-09
214	0x30a4f1e5	1.2001321e-09
215	0x319f66af	4.639183e-09
216	0x3083366d	9.546973e-10
217	0x33b8e404	8.6096435e-08
218	0x30c67366	1.4439194e-09
219	0x30159af2	5.4426075e-10
220	0x2f1c0d9c	1.4192952e-10
221	0x2fe18a29	4.102543e-10
222	0x2f94af31	2.7045524e-10
223	0x314d5fe4	2.9885934e-09
224	0x307679c4	8.966732e-10
225	0x3084fd2d	9.676221e-10
226	0x2f4cf6a8	1.8641322e-10
227	0x2fab00e5	3.1105354e-10
228	0x3342c467	4.534777e-08
229	0x301272d0	5.327765e-10
230	0x35912c17	1.0816174e-06
231	0x2fc83ac3	3.642154e-10
232	0x30743546	8.884239e-10
233	0x2f98273b	2.7676514e-10
234	0x30e046f5	1.6318312e-09
235	0x2f453c6f	1.7938516e-10
236	0x3498dfb6	2.8474977e-07
237	0x307687e4	8.968739e-10
238	0x36b98a4f	5.529531e-06
239	0x2f864cd7	2.4429056e-10
240	0x2f349257	1.6422895e-10
241	0x2ea78733	7.618297e-11
242	0x2f918fed	2.6477612e-10
243	0x304f3989	7.5387924e-10
244	0x2f0ae682	1.263292e-10
245	0x303cce2a	6.868698e-10
246	0x300ffe95	5.238488e-10
247	0x31291cc3	2.4609086e-09
248	0x2ff137dc	4.3877335e-10
249	0x330f8e0a	3.3423966e-08
250	0x306a5ef1	8.5263624e-10
251	0x2f9dcb3e	2.8702546e-10
252	0x2e8d9331	6.438084e-11
253	0x2f75d3a4	2.235781e-10
254	0x2f03434d	1.193829e-10
255	0x30e5c276	1.6717212e-09

exp_avg f4 [128]
0	0x38cbc3f2	9.716292e-05
1	0xba8a7424	-0.0010563177
2	0x39353f93	0.00017285188
3	0xb8342f55	-4.2959426e-05
4	0x3a019bd9	0.00049441826
5	0xb930e3ac	-0.00016869482
6	0xb98fc062	-0.00027418422
7	0xb9482e5c	-0.00019090757
8	0xba16fa5a	-0.0005759351
9	0x38765cd1	5.8737412e-05
10	0x38e7eba3	0.00011058829
11	0xb84d888c	-4.9002978e-05
12	0xba1ad80a	-0.0005906826
13	0xba101454	-0.0005496193
14	0xb8c17135	-9.2240436e-05
15	0xba0dcaad	-0.0005408924
16	0x3951977c	0.00019988226
17	0xb9166e95	-0.0001434631
18	0xb8cea3be	-9.853345e-05
19	0xb9f17619	-0.00046055092
20	0xb99a3b8c	-0.00029417535
21	0x39f60088	0.00046921172
22	0xba2921b2	-0.00064518594
23	0xb96865b9	-0.00022163139
24	0x39a9e90d	0.00032407828
25	0xb8978df5	-7.226683e-05
26	0x3a4149de	0.0007373373
27	0x39cf7102	0.00039566314
28	0xb90c2f6b	-0.00013369105
29	0x3a5c199b	0.00083961495
30	0x398622d7	0.0002558443
31	0xb83acae6	-4.453482e-05
32	0xba31ddf0	-0.00067850854
33	0x38fd3261	0.00012073364
34	0x3a833aa0	0.0010011978
35	0xb945d895	-0.00018868067
36	0xb9b0df6c	-0.00033735798
37	0x39bc8713	0.00035958792
38	0x37947d2d	1.7701264e-05
39	0x3b054c95	0.0020339836
40	0xb7681b62	-1.3834653e-05
41	0x3912a05e	0.00013983386
42	0x383ddf20	4.5268913e-05
43	0xb80ca91f	-3.3536107e-05
44	0xb601f472	-1.9364784e-06
45	0x39f3b010	0.0004647975
46	0xb94459c8	-0.00018725463
47	0x3abde9f1	0.0014489276
48	0xba0ffdd0	-0.0005492838
49	0xb9b02973	-0.00033600218
50	0xba033521	-0.000500517
51	0x395d7330	0.00021119113
52	0xb930daad	-0.00016866131
53	0xb8dd9e2b	-0.00010567562
54	0xba25e361	-0.00063281326
55	0xb9b340d5	-0.00034189844
56	0x39842261	0.00025202616
57	0x385cc14e	5.2632116e-05
58	0x388975e8	6.554631e-05
59	0xb8d74205	-0.00010264296
60	0x38dc936e	0.000105178784
61	0x39a37705	0.0003117846
62	0xb90f3ee1	-0.00013660967
63	0x38db6b62	0.000104627354
64	0xb865d13c	-5.479272e-05
65	0xb8214090	-3.844552e-05
66	0x38141339	3.5303852e-05
67	0x38856614	6.360948e-05
68	0x3a6d8842	0.00090611365
69	0xba5ef1da	-0.00085046666
70	0x38f67896	0.00011752655
71	0xb8ae84e7	-8.3217215e-05
72	0x3a5335d2	0.0008057031
73	0x390dc172	0.00013518872
74	0x3a701e08	0.00091597484
75	0xb91a9887	-0.00014743405
76	0x3a0fab3e	0.0005480534
77	0xb937361f	-0.00017472402
78	0x39a70f37	0.00031864058
79	0x39bbf040	0.0003584642
80	0x399ef345	0.00030317358
81	0xb9b931fb	-0.00035323188
82	0xb7f07a99	-2.8667318e-05
83	0xba0b5f5d	-0.00053166394
84	0x3900525f	0.00012237717
85	0x39a46c74	0.0003136132
86	0xb998eaca	-0.0002916663
87	0x3a19dc8c	0.0005869351
88	0x391626b5	0.00014319534
89	0x38f4a9b0	0.000116664334
90	0x38be7e22	9.0834e-05
91	0xba2585a5	-0.0006314165
92	0x38df32bb	0.00010642918
93	0x3835625b	4.3245363e-05
94	0x3a5bb2f4	0.0008380853
95	0xb9cc47d1	-0.0003896342
96	0xba040184	-0.0005035626
97	0xb9e79bf1	-0.0004417594
98	0x39c2793d	0.00037092893
99	0xba46dc3b	-0.00075859175
100	0x389d3ef0	7.4980664e-05
101	0xb7f78e86	-2.9511062e-05
102	0x3808895e	3.255286e-05
103	0xba492b34	-0.0007673979
104	0xba0b8352	-0.00053219975
105	0x395b91f8	0.00020939845
106	0xb9016855	-0.00012341265
107	0x3884f9f2	6.3408064e-05
108	0x392214ef	0.00015457322
109	0xb8d28d58	-0.00010039908
110	0xb9e958a1	-0.00044507257
111	0xb8dd99d7	-0.00010566756
112	0x38a5f504	7.913451e-05
113	0x3a2c44f3	0.00065715535
114	0x39b2dcda	0.00034115353
115	0x3a800a37	0.0009768669
116	0xba106828	-0.00055086846
117	0x38404da3	4.5848672e-05
118	0x3a7c0e81	0.00096151984
119	0xb71a328d	-9.190885e-06
120	0x378be6df	1.6677599e-05
121	0xb74c1f36	-1.2166614e-05
122	0x397abe52	0.00023912758
123	0xb9862bea	-0.0002559119
124	0x3a820a29	0.0009921241
125	0xb9d3e4bb	-0.00040415474
126	0x39e46777	0.00043564636
127	0x3714fbd4	8.880121e-06

exp_avg_sq f4 [128]
0	0x35ec08a8	1.758589e-06
1	0x37038921	7.840136e-06
2	0x35f79a14	1.8447777e-06
3	0x365db2ad	3.303557e-06
4	0x36b9dd6b	5.539206e-06
5	0x36dd158a	6.5888207e-06
6	0x3700f77d	7.687017e-06
7	0x36835502	3.9140004e-06
8	0x36588a9e	3.2267194e-06
9	0x35b2a03f	1.3308671e-06
10	0x35a8e2bc	1.2582964e-06
11	0x36e62bea	6.8596464e-06
12	0x36498d28	3.0033498e-06
13	0x36b8c9e8	5.5071323e-06
14	0x360235f7	1.9402921e-06
15	0x36214e9b	2.4036624e-06
16	0x362ddb0b	2.5906509e-06
17	0x3646b36e	2.960874e-06
18	0x36c45f7c	5.852371e-06
19	0x36865c2b	4.004241e-06
20	0x355abbc5	8.148457e-07
21	0x3676756b	3.6725203e-06
22	0x37137a03	8.790291e-06
23	0x34867df0	2.5051077e-07
24	0x36f20899	7.213163e-06
25	0x3609c269	2.0527752e-06
26	0x34b293b9	3.3262566e-07
27	0x35b48168	1.3448707e-06
28	0x368fbdff	4.2838506e-06
29	0x37e8dd90	2.7759728e-05
30	0x369364f2	4.392693e-06
31	0x362a47b8	2.537372e-06
32	0x37647138	1.361622e-05
33	0x3584611d	9.86303e-07
34	0x37c4f7ed	2.348047e-05
35	0x364bdf45	3.0379317e-06
36	0x36628696	3.3754964e-06
37	0x364b785f	3.0319422e-06
38	0x338f19f4	6.663677e-08
39	0x379f3abd	1.898163e-05
40	0x363b3071	2.7893368e-06
41	0x35b3db2e	1.3400329e-06
42	0x35cbae35	1.517538e-06
43	0x361e561c	2.3593957e-06
44	0x33fdfd69	1.18273256e-07
45	0x3649d50d	3.0075346e-06
46	0x3638e770	2.755285e-06
47	0x36f35b5a	7.252599e-06
48	0x3781eb69	1.548762e-05
49	0x36ea11c2	6.9758107e-06
50	0x37829a06	1.556893e-05
51	0x350b5011	5.1898047e-07
52	0x3738521b	1.0986371e-05
53	0x368a1b80	4.115922e-06
54	0x36b83eba	5.4909297e-06
55	0x36d63ba2	6.384639e-06
56	0x356e8032	8.884846e-07
57	0x3583a0c8	9.807054e-07
58	0x3397ac89	7.0628694e-08
59	0x3553645a	7.8749656e-07
60	0x3458c44b	2.0187979e-07
61	0x362d7357	2.5846145e-06
62	0x3694579b	4.4209423e-06
63	0x368374eb	3.9177153e-06
64	0x334dcff9	4.7919432e-08
65	0x357f65af	9.514287e-07
66	0x34a203f6	3.0177733e-07
67	0x35cb9370	1.5167589e-06
68	0x366ab31b	3.497297e-06
69	0x38244588	3.9165403e-05
70	0x34c18a07	3.604948e-07
71	0x340d11bf	1.3138104e-07
72	0x370374a7	7.835369e-06
73	0x3399c680	7.1607246e-08
74	0x36a738a8	4.9835835e-06
75	0x36b1192f	5.277943e-06
76	0x34d103fd	3.8932185e-07
77	0x36971e5f	4.5036863e-06
78	0x35cb9f3f	1.5171025e-06
79	0x379cc265	1.8687171e-05
80	0x363cb05b	2.8116835e-06
81	0x35bb4b2a	1.3954461e-06
82	0x36092d57	2.0440982e-06
83	0x36e71bc5	6.8875693e-06
84	0x3619a11d	2.2892557e-06
85	0x359b9746	1.1592426e-06
86	0x360b4513	2.075282e-06
87	0x3803f443	3.146032e-05
88	0x33fd0be5	1.1783394e-07
89	0x3410a356	1.3470466e-07
90	0x3682d798	3.8994003e-06
91	0x36712631	3.5934029e-06
92	0x359bdebe	1.1613226e-06
93	0x362906f7	2.5187016e-06
94	0x36f75167	7.37065e-06
95	0x371ec113	9.4624875e-06
96	0x35dfc670	1.6672548e-06
97	0x36460364	2.9506273e-06
98	0x368c1e80	4.175876e-06
99	0x36437250	2.9123803e-06
100	0x34f22a06	4.510659e-07
101	0x3607ce4d	2.023665e-06
102	0x36312041	2.639383e-06
103	0x381c6f18	3.7296762e-05
104	0x3665c08b	3.4235734e-06
105	0x34daee07	4.0778852e-07
106	0x36a55faf	4.9285222e-06
107	0x360dca31	2.1128328e-06
108	0x342febc1	1.6383912e-07
109	0x36cfe25f	6.195434e-06
110	0x36d0d3b4	6.2235285e-06
111	0x3528b17f	6.284317e-07
112	0x358f3e60	1.0672484e-06
113	0x37cc695b	2.4367755e-05
114	0x36e3f3b5	6.7934984e-06
115	0x36824f36	3.8835233e-06
116	0x35cf197e	1.5430121e-06
117	0x34b7239a	3.411231e-07
118	0x36c4dc60	5.86691e-06
119	0x376be72f	1.4060918e-05
120	0x341ebe34	1.4784092e-07
121	0x33cf52c8	9.6542465e-08
122	0x364ae4f0	3.0233605e-06
123	0x36dde5c5	6.613062e-06
124	0x37dccb7d	2.63208e-05
125	0x3651788b	3.1213592e-06
126	0x35d0cfa1	1.5557636e-06
127	0x3680338c	3.820698e-06
